26_03_2024/lightning_logs/version_12/checkpoints/epoch=9-step=4300.ckpt (torch, 670344 bytes, 18 tensors)

fc1.weight f4 [64, 784]
0.06424698 0.06658517 0.028575253 0.06974964 0.029117003 0.04414888 0.019554442 0.05791648
0.0684257 0.01074111 0.067984745 0.043626327 0.063328095 0.041778866 0.05416305 0.03189954
0.064473666 0.04222096 0.020269265 0.046045575 0.020487247 0.032753754 0.022436464 0.060633913
0.008750343 0.020477472 0.026857337 0.015468092 0.040312845 0.0016678516 0.06919594 0.006603974
0.06451443 0.042885598 0.02534554 0.058964252 0.04068213 0.06327467 0.038090643 0.024102537
0.04373948 0.025270944 0.06697197 0.101939455 0.04818384 0.014682902 0.056423664 0.0420533
0.05475669 0.01517407 0.0015882398 0.023143535 0.009548453 0.06624697 0.0472289 0.051735375
0.04823708 0.03632078 0.06489233 0.011566612 0.039190736 0.012565666 0.047954623 0.02378443
0.043346 0.019960977 0.048584033 0.00064805517 0.0129337935 0.01409665 0.08556741 0.057945944
0.013807033 -0.043275587 -0.009953418 0.0051896907 0.01277946 0.054782603 0.045822132 0.065947555
0.018736273 0.012595252 0.055891287 0.022506246 0.058617946 0.028467108 0.059723902 0.009753316
0.018918922 0.047899626 0.043287985 0.023744186 0.051439907 0.039121687 -0.023449024 -0.05397951
-0.027951472 -0.18343288 -0.2058173 -0.113804705 -0.11081691 -0.052573375 -0.06712314 -0.016103541
0.0023095272 -0.09892998 -0.026916742 0.0032979967 0.005436714 0.008772978 0.06532855 0.0436876
0.047947753 0.0036319974 0.021518413 0.027419858 0.044622928 0.0032547284 0.017211363 0.012764993
0.019491483 -0.0844408 -0.123710446 -0.17248602 -0.09034211 -0.00027913842 0.01824851 0.0019562796
0.054958604 -0.040858272 -0.0034782598 0.1461899 0.05690228 -0.026313124 -0.052060783 0.003601686
-0.049861234 -0.028706588 0.0446314 0.027638124 0.050846446 0.007632727 0.06523035 0.017391844
0.034098446 0.040414017 0.03222978 0.010904576 -0.07955418 -0.15936507 -0.276019 -0.34923533
-0.26989424 -0.1423211 0.0045581944 0.025391852 -0.04372366 -0.13119666 -0.07862161 -0.0795351
0.0054520536 0.03693069 0.11757295 0.0785189 0.10054135 0.011268852 0.018050557 0.06536958
0.04490451 0.017182248 0.015363433 0.047736693 0.061032522 0.00850166 -0.04178973 -0.07379895
-0.17329855 -0.13507827 -0.26164997 -0.280853 -0.18402015 -0.08700234 0.00076071545 -0.116849855
-0.08876343 -0.037407 0.002735497 -0.08125667 -0.024009107 0.03372354 0.08248103 0.13602355
0.06864794 0.059493825 0.058735162 0.046887804 0.037463237 0.034809608 0.043717884 0.046743516
0.0010809021 -0.0033868111 -0.017891675 -0.057932857 -0.14083347 -0.17910132 -0.29151845 -0.23731163
-0.17253365 -0.016740583 0.09491545 -0.06823333 -0.10335062 -0.02845677 -0.045970306 0.00085927005
0.07635695 0.05305606 0.114679664 0.06331897 -0.107053414 -0.050630618 0.044241104 0.04000677
0.0014133957 0.06084462 0.063942626 0.052336447 0.009101861 -0.01661634 -0.073981196 -0.022713995
-0.100042224 -0.16685088 -0.21210243 -0.3199845 -0.25283292 -0.095142044 0.016277505 -0.012848714
0.056891993 0.08799363 -0.039785802 -0.024651607 -0.00925784 -0.065115966 -0.01713978 -0.055665046
-0.16071907 -0.07703575 0.027495993 0.0099037625 0.03064075 0.019304888 0.026418643 0.003202484
00000000: ec93 833d ce5d 883d a616 ea3c e6d8 8e3d
00000010: c886 ee3c 75d5 343d a330 a03c d539 6d3d
00000020: c622 8c3d 7bfb 2f3c 963b 8b3d 85b1 323d
00000030: 29b2 813d 5120 2b3d 13da 5d3d 18a9 023d
00000040: c50a 843d e3ef 2c3d bb0b a63c 499a 3c3d
00000050: dfd4 a73c cd28 063d adcc b73c 445b 783d
00000060: 995d 0f3c 5fc0 a73c eb03 dc3c e16d 7d3c
00000070: 151f 253d d09b da3a 9ab6 8d3d 2666 d83b
00000080: 2420 843d cfa8 2f3d 73a1 cf3c 8084 713d
00000090: 4ea2 263d 2696 813d ef04 1c3d af72 c53c
000000a0: 2b28 333d 0305 cf3c 9a28 893d a2c5 d03d
000000b0: 6b5c 453d 8e90 703c 801c 673d 1540 2c3d
000000c0: 8d48 603d aa9c 783c 7c2c d03a 8397 bd3c
000000d0: 1d71 1c3c 7eac 873d 1773 413d 79e8 533d
000000e0: 3f94 453d 19c5 143d 45e6 843d e381 3d3c
000000f0: 7786 203d 39e0 4d3c 116c 443d 91d7 c23c
00000100: 938b 313d 3485 a33c 0d00 473d 3fe2 293a
00000110: 43e8 533c a3f5 663c f73d af3d ba58 6d3d
00000120: e536 623c be41 31bd a913 23bc 480e aa3b
00000130: f160 513c b963 603d fdaf 3b3d 830f 873d
00000140: d07c 993c 515c 4e3c 43ee 643d 055f b83c
00000150: 5f19 703d da33 e93c 0da1 743d 5fcc 1f3c
00000160: dbfb 9a3c 6632 443d be4e 313d 2b83 c23c
00000170: a7b2 523d 103e 203d 2b18 c0bc 9e19 5dbd
00000180: 7cfa e4bc d4d5 3bbe c5c1 52be 7112 e9bd
00000190: faf3 e2bd 2e57 57bd db77 89bd 93eb 83bc
000001a0: 705b 173b cd9b cabd 8080 dcbc 3423 583b
000001b0: 7626 b23b 89bc 0f3c faca 853d c5f1 323d
000001c0: dd64 443d ce06 6e3b 6247 b03c 9c9f e03c
000001d0: 88c6 363d 484d 553b d8fe 8c3c 4324 513c
000001e0: 9aac 9f3c 4cef acbd e75b fdbd 2da0 30be
000001f0: 4905 b9bd 5359 92b9 e67d 953c ed34 003b
00000200: 461c 613d 015b 27bd 84f3 63bb ceb2 153e
00000210: 5d12 693d 9f8e d7bc b03d 55bd 440a 6c3b
00000220: 4b3b 4cbd 142a ebbc 6acf 363d 5969 e23c
00000230: 5d44 503d f41b fa3b 7d97 853d 5779 8e3c
00000240: d0aa 0b3d 2b89 253d 6003 043d 1ba9 323c
00000250: 4ded a2bd 9930 23be 5d52 8dbe f9ce b2be
00000260: 942f 8abe 9fbc 11be e85c 953b 9302 d03c
00000270: 9517 33bd 6b58 06be 5e04 a1bd 4ce3 a2bd
00000280: 24a7 b23b a344 173d 16ca f03d 84ce a03d
00000290: a0e8 cd3d fea0 383c c3de 933c 7de0 853d
000002a0: cbed 373d c9c1 8c3c e9b6 7b3c 8d87 433d
000002b0: 3dfd 793d 8c4a 0b3c b52b 2bbd e723 97bd
000002c0: 2d75 31be f551 0abe fcf6 85be f7cb 8fbe
000002d0: c76f 3cbe 482e b2bd c06a 473a fa4e efbd
000002e0: 9ac9 b5bd 1538 19bd 0646 333b e669 a6bd
000002f0: bfae c4bc b221 0a3d d0eb a83d c249 0b3e
00000300: 4b97 8c3d ccaf 733d 4894 703d 6d0d 403d
00000310: 0d73 193d 8594 0e3d 8611 333d 2176 3f3d
00000320: 0ead 8d3a 43f5 5dbb 9091 92bc 014b 6dbd
00000330: a636 10be 5666 37be e841 95be d201 73be
00000340: a9ac 30be 8c23 89bc 0863 c23d ebbd 8bbd
00000350: 7da9 d3bd 2c1e e9bc 5c4b 3cbd a340 613a
00000360: 0861 9c3d 5051 593d 2cdd ea3d 60ad 813d
00000370: d23e dbbd 0d62 4fbd 2936 353d 24de 233d
00000380: b141 b93a 3538 793d 5af4 823d be5e 563d
00000390: f91f 153c fe1e 88bc 7483 97bd b312 babc
000003a0: f0e2 ccbd f5da 2abe 6131 59be 02d5 a3be
000003b0: 5173 81be d5d9 c2bd 6758 853c 6a83 52bc
000003c0: 9407 693d 0136 b43d 70f6 22bd 2bf2 c9bc
000003d0: 32ae 17bc 855b 85bd b968 8cbc 0801 64bd
000003e0: 8a93 24be ebc4 9dbd 473f e13c 6443 223c
000003f0: 4f02 fb3c 4925 9e3c e96b d83c c4e0 513b

fc1.bias f4 [64]
-0.023746604 -0.037080962 0.0071712877 0.015845168 0.02612251 -0.018705998 0.009457394 -0.032318242
-0.04555237 -0.04722759 -0.023875793 -0.056465916 0.005879308 -0.00664337 -0.045789868 -0.0476438
-0.0028937669 -0.016451143 -0.035909947 -0.008790976 -0.058889546 -0.025695572 -0.0025149977 0.01907438
-0.023130292 -0.033639286 -0.009845911 -0.050344948 -0.038294885 -0.043518506 -0.032626748 -0.0011605283
-0.0657259 -0.02223419 -0.011374855 -0.03344736 -0.03428244 0.021433944 -0.05187073 -0.0069871712
-0.021040311 -0.043965314 -0.018529868 -0.030744305 -0.017601307 -0.02223311 -0.028620545 -0.010147941
0.025771683 -0.054003343 0.0075950013 0.023038177 -0.005717527 -0.0016086682 0.016045064 -0.014305266
-0.039821323 -0.0038403687 -0.015187795 -0.037000984 -0.052515343 -0.017323017 -0.0077880006 -0.0319994
00000000: 3d88 c2bc 35e2 17bd 1ffd ea3b bacd 813c
00000010: e0fe d53c 523d 99bc 2ff3 1a3c 2260 04bd
00000020: 1f95 3abd b871 41bd 2b97 c3bc ce48 67bd
00000030: 36a7 c03b a0b0 d9bb 288e 3bbd 2526 43bd
00000040: 5aa5 3dbb 8cc4 86bc 4f16 13bd 0708 10bc
00000050: 2a36 71bd 857f d2bc a9d2 24bb e041 9c3c
00000060: bd7b bdbc 59c9 09bd be50 21bc 8136 4ebd
00000070: 19db 1cbd 7640 32bd a0a3 05bd de1c 98ba
00000080: 4d9b 86bd 7a24 b6bc 9a5d 3abc 1900 09bd
00000090: be6b 0cbd 3d96 af3c 6776 54bd a4f4 e4bb
000000a0: bb5c acbc f914 34bd f3cb 97bc 7bdb fbbc
000000b0: 9e30 90bc 3622 b6bc a275 eabc 8d43 26bc
000000c0: 231f d33c 9c32 5dbd 7ddf f83b 8fba bc3c
000000d0: 185a bbbb f3d9 d2ba f070 833c a260 6abc
000000e0: af1b 23bd b2ae 7bbb 3bd6 78bc 588e 17bd
000000f0: 541a 57bd 00e9 8dbc 7c32 ffbb ce11 03bd

fc2.weight f4 [64, 64]
0.10170147 -0.17150903 0.057104547 -0.24079844 0.077359185 0.037803236 -0.2249208 0.007380203
0.055689454 0.073798046 -0.034707796 -0.2601344 -0.02387675 0.07737217 0.1421015 0.15258333
0.048616227 -0.3790106 -0.18159544 -0.3854434 -0.16563287 0.25089496 -0.13061774 0.06111713
-0.09203164 -0.052838653 -0.34515196 -0.054031633 0.08727623 -0.14293359 0.09172319 -0.013658192
0.18266791 0.122055 -0.0020147045 0.05626247 -0.04988232 -0.09616526 0.12607837 0.12315403
0.06481902 0.01808469 0.030399628 0.11793022 0.016587455 -0.39571294 -0.0010411998 0.11547561
-0.18801703 0.08130886 0.068495825 0.024646059 -0.28325966 0.01906542 0.030484978 -0.16736072
0.08154931 -0.03321508 0.07366718 0.1495319 0.18911731 -0.20160004 -0.040029954 -0.010085567
-0.21857947 -0.17658363 0.08631752 -0.28856835 0.21079962 0.093523055 -0.37498865 0.1491286
-0.07819221 -0.10524785 0.06296757 0.17481469 -0.25089127 -0.00024556086 0.2196451 0.0327413
-0.07025807 -0.038366362 -0.26477644 -0.046443794 0.09570752 0.20600572 0.06573875 0.28841338
0.050248418 -0.14918342 -0.19223666 0.04966149 0.07982308 -0.20346223 -0.0075141774 -0.03674822
0.06452594 0.04197856 -0.0072113513 -0.3595673 0.0041129366 0.05016135 -0.18213978 -0.017497582
-0.040892314 -0.05700237 0.1731924 0.026719104 -0.026438316 -0.19847548 0.04071689 0.003330829
-0.003748587 0.060303863 0.07715118 0.16354778 0.07796336 -0.14539824 -0.0925145 0.034660857
0.18226819 0.054755762 -0.101643294 0.039716233 0.26420316 0.08010318 0.076760076 -0.22268833
0.0074203815 0.021259768 0.047833018 -0.12449221 -0.27189273 0.004744001 -0.025591802 0.110103324
0.03228267 -0.0069323047 -0.06050372 0.0344086 0.13361079 -0.10074153 -0.021885082 -0.009471551
-0.028337345 0.06829158 -0.022691207 -0.005118543 0.02127509 0.06269576 -0.1787204 -0.2729269
-0.062278938 0.13588981 0.081384085 -0.025111446 0.07836624 0.006838227 -0.3123922 0.16716765
0.020493474 -0.08164317 0.15521428 0.007178424 0.054047827 0.028639013 -0.15591979 -0.08219586
0.049254987 -0.062261164 0.12034379 0.17116748 0.0785248 -0.03579467 0.0026555532 -0.12039481
0.1133352 0.11620946 -0.24231096 0.13711116 -0.06770894 -0.07322129 0.12594451 0.19661807
-0.25432354 0.10129585 -0.34116685 0.02827438 -0.07345037 0.24280286 -0.07487325 -0.1474492
0.0555628 -0.103423014 0.11577787 0.11087091 -0.037299417 -0.052707877 -0.050871592 -0.30183253
-0.27034733 -0.32181603 -0.1165503 0.24569131 0.031875867 0.13117501 0.0013048373 0.13445967
0.034959644 0.2346098 0.025621317 0.026963957 0.081722245 -0.10884507 0.01341911 0.14509098
0.06504018 -0.37940225 0.044316 0.14134291 -0.14845291 0.043307908 0.102113314 0.16961114
-0.29514125 0.09707936 -0.03580298 0.11631349 0.103345804 0.1703616 -0.10087239 -0.19764304
0.020043803 0.15659957 0.1251425 -0.15991187 0.02765489 -0.12010816 -0.035270408 -0.20147815
0.26892075 0.015914656 -0.007220031 0.08096986 0.033044897 -0.32385567 -0.1538619 0.14629306
0.0012719851 -0.087417684 -0.10681168 -0.0177653 0.10808658 0.250635 -0.06768899 -0.29446703
00000000: dc48 d03d 10a0 2fbe 75e6 693d de93 76be
00000010: 7e6e 9e3d 91d7 1a3d a351 66be a1d5 f13b
00000020: a01a 643d 6e23 973d c329 0ebd 5630 85be
00000030: 2d99 c3bc 4d75 9e3d 0e83 113e ce3e 1c3e
00000040: cf21 473d ad0d c2be 28f4 39be d658 c5be
00000050: aa9b 29be 4e75 803e a8c0 05be f555 7a3d
00000060: 167b bcbd 586d 58bd c2b7 b0be 4650 5dbd
00000070: e1bd b23d 2f5d 12be 5ed9 bb3d 9cc6 5fbc
00000080: 4c0d 3b3e f9f7 f93d 2209 04bb 7a73 663d
00000090: 6751 4cbd 4bf2 c4bd b01a 013e 2e38 fc3d
000000a0: d6bf 843d 5826 943c a408 f93c 6685 f13d
000000b0: 6ae2 873c e39a cabe de78 88ba 7a7e ec3d
000000c0: 8987 40be 4285 a63d 8a47 8c3d 88e6 c93c
000000d0: 6907 91be 152f 9c3c a2bb f93c 9c60 2bbe
000000e0: 5303 a73d 890c 08bd d2de 963d e41e 193e
000000f0: f8a7 413e 3e70 4ebe 73f6 23bd ef3d 25bc
00000100: 4cd3 5fbe 57d2 34be 3dc7 b03d 3bbf 93be
00000110: dbdb 573e 0489 bf3d 83fe bfbe 2bb5 183e
00000120: 3d23 a0bd 2f8c d7bd 24f5 803d 9f02 333e
00000130: d274 80be 9fbe 80b9 a5ea 603e be1b 063d
00000140: 77e3 8fbd 0c26 1dbd c790 87be d93b 3ebd
00000150: 4e02 c43d 2af3 523e 0aa2 863d ebaa 933e
00000160: 49d1 4d3d 8ac3 18be b0d9 44be d969 4b3d
00000170: 487a a33d 6758 50be 7d39 f6bb 4d85 16bd
00000180: 2d26 843d b6f1 2b3d 334d ecbb 3519 b8be
00000190: d0c5 863b fd75 4d3d da82 3abe 1757 8fbc
000001a0: b37e 27bd 517b 69bd 5959 313e 06e2 da3c
000001b0: 2b95 d8bc 283d 4bbe c1c6 263d 0a4a 5a3b
000001c0: dbaa 75bb 2f01 773d 7001 9e3d 1279 273e
000001d0: 41ab 9f3d 47e3 14be 3e78 bdbd 8bf8 0d3d
000001e0: 83a4 3a3e 9447 603d 5c2a d0bd 7dad 223d
000001f0: a345 873e 230d a43d 6334 9d3d 6908 64be
00000200: ac26 f33b f728 ae3c 8eec 433d c6f5 febd
00000210: 8635 8bbe 9173 9b3b e6a5 d1bc da7d e13d
00000220: d53a 043d 6328 e3bb c0d2 77bd 08f0 0c3d
00000230: 44d1 083e 9351 cebd 5848 b3bc 902e 1bbc
00000240: b823 e8bc 75dc 8b3d e9e2 b9bc 73b9 a7bb
00000250: 1949 ae3c a266 803d 7b02 37be 13bd 8bbe
00000260: 3318 7fbd b326 0b3e b3ac a63d 85b6 cdbc
00000270: 7b7e a03d 3513 e03b dff1 9fbe ff2d 2b3e
00000280: eee1 a73c 8934 a7bd 7ef0 1e3e fc38 eb3b
00000290: 4161 5d3d 5d9c ea3c 70a9 1fbe 4e56 a8bd
000002a0: 99bf 493d 9005 7fbd ce76 f63d 8746 2f3e
000002b0: 9cd1 a03d 6f9d 12bd ca08 2e3b 8e91 f6bd
000002c0: 491c e83d 3aff ed3d 5d20 78be de66 0c3e
000002d0: fcaa 8abd 0bf5 95bd 99f7 003e 3f56 493e
000002e0: b236 82be 3374 cf3d 6cad aebe ac9f e73c
000002f0: 266d 96bd 50a1 783e 2657 99bd ecfc 16be
00000300: d295 633d 72cf d3bd f31c ed3d 4a10 e33d
00000310: 46c7 18bd 37e4 57bd bb5e 50bd cb89 9abe
00000320: f76a 8abe 12c5 a4be ecb1 eebd 8196 7b3e
00000330: 4590 023d be52 063e 1307 ab3a ccaf 093e
00000340: d831 0f3d 8d3d 703e cce3 d13c 84e3 dc3c
00000350: fe5d a73d 2aea debd d4db 5b3c bb92 143e
00000360: c933 853d 0341 c2be b284 353d 32bc 103e
00000370: 0a04 18be a263 313d c920 d13d 8bae 2d3e
00000380: c11c 97be 8bd1 c63d 25a6 12bd c435 ee3d
00000390: f7a6 d33d 4573 2e3e 2f96 cebd f062 4abe
000003a0: e732 a43c a35b 203e 5b25 003e f0bf 23be
000003b0: 828c e23c 44fb f5bd b477 10bd 4a50 4ebe
000003c0: fbaf 893e 745f 823c 0396 ecbb 87d3 a53d
000003d0: 165a 073d 69d0 a5be f98d 1dbe d9cd 153e
000003e0: bdb8 a63a 0b08 b3bd 15c0 dabd 8988 91bc
000003f0: 7f5c dd3d 3b53 803e 86a0 8abd 62c4 96be

fc2.bias f4 [64]
-0.06250807 -0.026789013 -0.12941365 -0.10088444 -0.051168274 0.1761115 0.0057687056 0.07181615
-0.015858842 0.21669732 -0.034289703 0.17112856 0.050335974 0.028553529 -0.0446328 0.07013803
-0.061350077 0.11471316 0.018654926 0.27303678 0.20286514 0.23978572 -0.22065379 -0.08194985
-0.027111527 -0.10460722 -0.083401345 0.15556583 -0.053824823 -0.105909646 -0.066206135 0.1779302
0.08326989 0.11562843 -0.124887966 -0.05039289 -0.22405362 0.17764217 -0.12208644 0.31542602
-0.02779925 0.21142505 -0.000790282 -0.014887158 0.19494289 0.07851545 0.029638812 0.09786532
0.11407546 0.11323936 0.14713776 0.35365388 -0.094101936 -0.072472565 0.15412162 0.149754
-0.12612051 -0.017667053 0.13896185 0.24769966 0.36664623 0.16055967 0.15773633 0.052488822
00000000: 3b04 80bd a274 dbbc 0385 04be 809c cebd
00000010: d395 51bd 9356 343e 6907 bd3b 5814 933d
00000020: 67ea 81bc e7e5 5d3e 5c73 0cbd 533c 2f3e
00000030: 182d 4e3d 17e9 e93c e2d0 36bd 87a4 8f3d
00000040: 384a 7bbd bcee ea3d 37d2 983c 7acb 8b3e
00000050: e1bb 4f3e 638a 753e 11f3 61be 53d5 a7bd
00000060: fe18 debc 4f3c d6bd 53ce aabd a64c 1f3e
00000070: 6b77 5cbd 28e7 d8bd 1597 87bd 5633 363e
00000080: 6789 aa3d 99ce ec3d 43c5 ffbd c668 4ebd
00000090: 506e 65be d4e7 353e 7508 fabd 857f a13e
000000a0: 41bb e3bc cf7f 583e ed2a 4fba 44e9 73bc
000000b0: 1c9f 473e b5cc a03d 18cd f23c 9d6d c83d
000000c0: 65a0 e93d 0aea e73d 48ab 163e 1f12 b53e
000000d0: 84b8 c0bd 7f6c 94bd 0fd2 1d3e 1d59 193e
000000e0: bc25 01be 7fba 90bc 044c 0e3e fba4 7d3e
000000f0: 0eb9 bb3e c169 243e a285 213e 85fe 563d

fc3.weight f4 [10, 64]
-0.26456183 -0.16766635 0.22997266 0.19337238 -0.3059033 0.06714824 0.16355567 -0.07024719
0.21648166 -0.011195179 0.17030719 0.11596693 0.09421748 0.15975201 -0.09188468 0.21096912
-0.25207308 -0.33532912 0.09041623 -0.21009997 -0.28727284 -0.07318406 0.010257537 -0.002733951
0.15332721 -0.15937857 -0.22469541 -0.01875753 -0.36390334 -0.23776361 -0.13322154 0.11567018
-0.15293676 0.21425147 -0.3718714 -0.049133196 -0.14605448 0.042966206 -0.37886018 -0.28364372
-0.21373165 -0.30334097 0.15456848 -0.15089716 0.13359253 -0.06647059 0.07928772 -0.24723406
-0.23390028 -0.27840698 0.043289375 -0.17833984 -0.20062725 -0.15994748 0.21929026 0.08088484
0.09627251 -0.004490189 -0.027616905 0.09872978 0.050745524 0.12331657 0.16105722 -0.17149834
0.08801779 -0.21500409 -0.109480485 -0.17258297 0.00997977 -0.3595008 -0.10704343 -0.08614372
-0.29259142 -0.09947718 -0.14804906 -0.3481324 -0.29748204 -0.26534367 0.36808863 -0.37714848
-0.26061285 0.1942559 -0.30074447 0.060442947 0.12573709 0.109536454 0.18238528 0.10296925
-0.1674466 0.0760539 0.13028343 -0.40748307 0.15329546 0.14199848 0.113908045 -0.3331587
-0.0031887733 -0.30669472 0.19645041 -0.34170625 0.021922296 0.0825758 0.11269347 0.14448759
0.06451492 0.095573306 -0.3414913 -0.22943199 0.23216689 -0.2566375 -0.28948325 0.07509549
-0.31195116 -0.069372825 0.0018505546 -0.27336264 0.07638118 0.06258389 -0.16565451 -0.3944328
0.22131704 -0.22224234 0.12208602 0.14832631 0.12987983 0.07249713 0.08743599 -0.2332127
-0.29901788 -0.107599765 0.21325286 -0.2329303 0.15168361 0.070472136 -0.005212678 0.100256465
0.10008653 -0.1799484 0.17913821 -0.13735238 0.14184308 0.11810807 0.040824465 -0.3777029
-0.07744788 -0.31718642 -0.010701409 -0.08842281 -0.083063364 -0.1069883 0.17241935 0.13570988
0.09554419 -0.040609248 0.14173943 0.054185513 0.1221933 -0.3041807 0.11384351 0.017696382
0.16330034 -0.21186 0.040818214 0.008363156 0.044988234 0.047088277 -0.03702901 -0.12366153
-0.35101083 0.04234971 -0.049287207 -0.14138766 -0.23385578 0.10238967 -0.2209143 0.13579129
0.09671756 -0.17587656 0.019707127 -0.12259482 0.08824631 0.069416866 -0.09869749 -0.16354701
0.045866936 0.14797111 -0.18201679 -0.12148148 -0.0071803434 0.108220965 -0.036722448 0.05585482
0.13223745 -0.0003548799 -0.14370039 -0.10850207 0.14816803 0.08006144 -0.14080961 0.07570449
0.056459293 -0.1298036 0.13199615 -0.15280715 -0.054261673 -0.13841526 -0.26767182 0.089281015
0.09987253 0.12743047 -0.09584688 0.085442275 -0.18879531 0.030702366 0.13506246 -0.22948267
0.11407823 0.10618201 0.106497616 -0.25450617 0.1570437 -0.13174666 -0.14550254 0.030856006
0.18283056 -0.13744353 -0.063200936 0.03776753 -0.1366993 0.10963856 0.1332518 -0.20064445
0.055846356 -0.020461604 0.08245751 -0.084723815 0.060217533 0.06240878 -0.26030964 -0.13482453
-0.11347323 0.08273821 0.035693984 -0.0788587 0.01185309 -0.06466992 -0.13256806 0.10590164
0.1789564 -0.18711245 -0.051935658 -0.3793647 -0.24019673 -0.07587051 0.11322054 0.04020348
00000000: a674 87be bab0 2bbe f47d 6b3e 6903 463e
00000010: 5b9f 9cbe 0485 893d 237b 273e c2dd 8fbd
00000020: 5ead 5d3e fc6b 37bc 0265 2e3e 1280 ed3d
00000030: 18f5 c03d 0896 233e 092e bcbd 4a08 583e
00000040: b90f 81be 42b0 abbe 252c b93d 7224 57be
00000050: 6d15 93be 86e1 95bd 3a0f 283c 162c 33bb
00000060: cf01 1d3e 2334 23be 8e16 66be 64a9 99bc
00000070: 8a51 babe 4e78 73be 3a6b 08be 7de4 ec3d
00000080: 749b 1cbe bd64 5b3e ee65 bebe e43f 49bd
00000090: 4e8f 15be 55fd 2f3d f6f9 c1be c039 91be
000000a0: 78dc 5abe 824f 9bbe 3347 1e3e c984 1abe
000000b0: 7bcc 083e bc21 88bd 9a61 a23d ed2a 7dbe
000000c0: 8e83 6fbe 5c8b 8ebe 3350 313d b89e 36be
000000d0: 3b71 4dbe 46c9 23be a08d 603e f3a6 a53d
000000e0: 862a c53d 6f22 93bb d93c e2bc d732 ca3d
000000f0: 8ada 4f3d 668d fc3d 2fec 243e 439d 2fbe
00000100: ac42 b43d 082a 5cbe 4e37 e0bd 97b9 30be
00000110: 3082 233c 7d10 b8be 9639 dbbd 1e6c b0bd
00000120: 8bce 95be b1ba cbbd 2c9a 17be 693e b2be
00000130: 914f 98be 20db 87be 1d76 bc3e 9b19 c1be
00000140: 0c6f 85be 05eb 463e 2efb 99be 0693 773d
00000150: 39c1 003e a654 e03d 35c3 3a3e 8be1 d23d
00000160: 1f77 2bbe 26c2 9b3d 0569 053e 9fa1 d0be
00000170: 7cf9 1c3e 0d68 113e 9f48 e93d c793 aabe
00000180: bdfa 50bb 1707 9dbe 4c2a 493e 1ff4 aebe
00000190: 6396 b33c 801d a93d d6cb e63d 8ef4 133e
000001a0: 6620 843d f0bb c33d f3d7 aebe 38f0 6abe
000001b0: 28bd 6d3e fe65 83be 2637 94be aacb 993d
000001c0: 10b8 9fbe 5713 8ebd 4f8e f23a 30f6 8bbe
000001d0: bc6d 9c3d fc2b 803d 56a1 29be 19f3 c9be
000001e0: efa0 623e 7f93 63be 3c08 fa3d dae2 173e
000001f0: 38ff 043e 6079 943d a411 b33d 4fcf 6ebe
00000200: df18 99be 445d dcbd f55e 5a3e 4885 6ebe
00000210: f352 1b3e b253 903d 1dcf aabb 4353 cd3d
00000220: 2bfa cc3d 6544 38be 0270 373e 1aa6 0cbe
00000230: 503f 113e a5e2 f13d 8e37 273d 4662 c1be
00000240: fe9c 9ebd 4266 a2be f654 2fbc 0517 b5bd
00000250: 201d aabd af1c dbbd b38e 303e 88f7 0a3e
00000260: acac c33d e255 26bd 2424 113e a1f1 5d3d
00000270: 7b40 fa3d 93bd 9bbe c926 e93d 01f8 903c
00000280: 3438 273e d4f1 58be 0031 273d 9e05 093c
00000290: 9545 383d a3df 403d bbab 17bd 4242 fdbd
000002a0: b1b7 b3be e476 2d3d 62e1 49bd edc7 10be
000002b0: e477 6fbe adb1 d13d 5c37 62be df0c 0b3e
000002c0: db13 c63d fc18 34be d770 a13c fe12 fbbd
000002d0: 7bba b43d 6e2a 8e3d e921 cabd de78 27be
000002e0: f8de 3b3d bd85 173e 9c62 3abe 48cb f8bd
000002f0: 1649 ebbb f4a2 dd3d 476a 16bd 06c8 643d
00000300: 4169 073e 2d0f bab9 3226 13be 5536 debd
00000310: 5cb9 173e 41f7 a33d 6530 10be f50a 9b3d
00000320: dc41 673d 3ceb 04be 002a 073e 7a79 1cbe
00000330: 7d41 5ebd bbbc 0dbe 480c 89be f7d8 b63d
00000340: f889 cc3d 227d 023e 5e4b c4bd 5cfc ae3d
00000350: 8f53 41be 8783 fb3c d04d 0a3e 81fd 6abe
00000360: d9a1 e93d f475 d93d 6c1b da3d a24e 82be
00000370: 10d0 203e 99e8 06be 9efe 14be bcc5 fc3c
00000380: ef37 3b3e ffbd 0cbe 7e6f 81bd 20b2 1a3d
00000390: e7fa 0bbe 2e8a e03d 2973 083e bd75 4dbe
000003a0: 26bf 643d 189f a7bc 7cdf a83d ae83 adbd
000003b0: a9a6 763d 59a0 7f3d 4e47 85be 710f 0abe
000003c0: a764 e8bd a772 a93d db33 123d ac80 a1bd
000003d0: 7633 423c aa71 84bd ecbf 07be f6e2 d83d
000003e0: 5940 373e 689a 3fbe 7cba 54bd 173c c2be
000003f0: 22f6 75be ff61 9bbd 2ce0 e73d 67ac 243d

fc3.bias f4 [10]
-0.0047388244 0.0035860597 -0.15296437 -0.06329217 -0.054407835 -0.15010385 -0.118534915 -0.10837901
0.29524067 0.21728058
00000000: 2448 9bbb 1904 6b3b b1a2 1cbe 539f 81bd
00000010: c0da 5ebd d3b4 19be 6fc2 f2bd d0f5 ddbd
00000020: c929 973e cd7e 5e3e

exp_avg f4 [64, 784]
-0.0006199065 -0.0006199065 -0.0006199065 -0.0006199065 -0.0006199065 -0.0006199065 -0.0006199065 -0.0006199065
-0.0006199065 -0.0006199065 -0.0006199065 -0.0006199065 -0.0006199065 -0.0006199065 -0.0006199065 -0.0006199065
-0.0006199065 -0.0006199065 -0.0006199065 -0.0006199065 -0.0006199065 -0.0006199065 -0.0006199065 -0.0006199065
-0.0006199065 -0.0006199065 -0.0006199065 -0.0006199065 -0.0006199065 -0.0006199065 -0.0006199065 -0.0006199065
-0.0006199065 -0.0006199065 -0.0006199065 -0.0006199065 -0.0006199065 -0.0006199065 -0.0006199065 -0.0006199065
-0.0006199065 -0.0006199065 -0.0006199065 -0.0006199065 -0.000619904 -0.0006199055 -0.0006199065 -0.0006199065
-0.0006199065 -0.0006199065 -0.0006199065 -0.0006199065 -0.0006199065 -0.0006199065 -0.0006199065 -0.0006199065
-0.0006199065 -0.0006199065 -0.0006199065 -0.0006199065 -0.0006199065 -0.0006199065 -0.0006199065 -0.0006199065
-0.0006199065 -0.0006199065 -0.0006199065 -0.0006199065 -0.0006199055 -0.00061982416 -0.0006198359 -0.0006196678
-0.00061921607 -0.0006195934 -0.0006199217 -0.00061992736 -0.00061990734 -0.0006199065 -0.0006199065 -0.0006199065
-0.0006199065 -0.0006199065 -0.0006199065 -0.0006199065 -0.0006199065 -0.0006199065 -0.0006199065 -0.0006199065
-0.0006199065 -0.0006199065 -0.0006199065 -0.0006199065 -0.0006199065 -0.0006199065 -0.0006199065 -0.0006199065
-0.0006198947 -0.00061978167 -0.0006197892 -0.0005126323 -0.00016760225 0.00015389077 3.564953e-05 -0.00027033215
-0.00028725094 -0.00031593035 -0.00056451285 -0.0006245615 -0.00062351633 -0.000619906 -0.00061990554 -0.0006199065
-0.0006199065 -0.0006199065 -0.0006199065 -0.0006199065 -0.0006199065 -0.0006199065 -0.00061991805 -0.00061990926
-0.0006199065 -0.0006199065 -0.00061990233 -0.0006198818 -0.00063202245 -0.000648997 -0.0006494435 -0.00060920557
0.00044705658 0.0012604629 0.0011138527 7.919701e-06 -0.00035893917 -0.00031730198 -0.0004325098 -0.0006239749
-0.0006222988 -0.00061990455 -0.0006199064 -0.0006199065 -0.0006199065 -0.0006199065 -0.0006199065 -0.0006199065
-0.0006199065 -0.0006199065 -0.00061990664 -0.0003894899 0.00026335643 0.00026335652 0.0012322206 0.002624267
0.002341681 0.0021399194 0.0021313499 0.0024849041 0.0030469089 0.0026447768 0.0028119048 0.0010958185
-0.00022969913 -0.00032560492 -0.000322905 -0.0006248052 -0.00062597974 -0.0006197986 -0.00061990647 -0.0006199065
-0.0006199065 -0.0006199065 -0.0006199065 -0.00061990006 -0.00061959197 -0.0006196085 -0.00061969546 -0.00059874845
-8.207141e-05 0.00026006927 0.00028432824 0.0003224918 0.0014384749 0.0016362706 0.0017342872 0.0022784201
0.0018659252 0.0014918416 0.00178742 0.0011859703 0.00017558757 -0.0004112542 -0.00038346558 -0.0006416203
-0.0006188208 -0.0006136759 -0.0006199065 -0.0006199065 -0.0006199065 -0.0006199065 -0.0006199065 -0.0006199068
-0.000619796 -0.0006195161 -0.0006195161 -0.00061953324 -0.0005980623 -0.0003804379 -0.00015577467 0.00013817294
4.8634778e-05 0.00022736995 0.0005859028 0.0018860851 0.0014969493 0.0016735415 0.0018480002 0.001088349
-3.931036e-05 -0.0004311219 -0.0005431889 -0.00071372674 -0.00060412264 -0.0006060921 -0.0006199063 -0.00061990594
-0.0006199065 -0.0006199065 -0.0006199065 -0.0006199065 -0.00061991037 -0.0006199065 -0.00061990926 -0.00061994605
-0.00060634327 -0.0005770818 -0.00056915113 -0.00053632044 -0.00053385133 -0.0004011532 0.0010707331 0.002484911
0.0021636249 0.001935185 0.001345528 0.0007851059 -0.00041717602 -0.00047650785 -0.00066736987 -0.0007106879
-0.00061700866 -0.00061967445 -0.00061990507 -0.00061990606 -0.0006199065 -0.0006199065 -0.0006199065 -0.0006199249
00000000: 3981 22ba 3981 22ba 3981 22ba 3981 22ba
00000010: 3981 22ba 3981 22ba 3981 22ba 3981 22ba
00000020: 3981 22ba 3981 22ba 3981 22ba 3981 22ba
00000030: 3981 22ba 3981 22ba 3981 22ba 3981 22ba
00000040: 3981 22ba 3981 22ba 3981 22ba 3981 22ba
00000050: 3981 22ba 3981 22ba 3981 22ba 3981 22ba
00000060: 3981 22ba 3981 22ba 3981 22ba 3981 22ba
00000070: 3981 22ba 3981 22ba 3981 22ba 3981 22ba
00000080: 3981 22ba 3981 22ba 3981 22ba 3981 22ba
00000090: 3981 22ba 3981 22ba 3981 22ba 3981 22ba
000000a0: 3981 22ba 3981 22ba 3981 22ba 3981 22ba
000000b0: 0e81 22ba 2781 22ba 3981 22ba 3981 22ba
000000c0: 3981 22ba 3981 22ba 3981 22ba 3981 22ba
000000d0: 3981 22ba 3981 22ba 3981 22ba 3981 22ba
000000e0: 3981 22ba 3981 22ba 3981 22ba 3981 22ba
000000f0: 3981 22ba 3981 22ba 3981 22ba 3981 22ba
00000100: 3981 22ba 3981 22ba 3981 22ba 3981 22ba
00000110: 2781 22ba b27b 22ba 7c7c 22ba 3471 22ba
00000120: e352 22ba 366c 22ba 3e82 22ba 9f82 22ba
00000130: 4781 22ba 3981 22ba 3981 22ba 3981 22ba
00000140: 3981 22ba 3981 22ba 3981 22ba 3981 22ba
00000150: 3981 22ba 3981 22ba 3981 22ba 3981 22ba
00000160: 3981 22ba 3981 22ba 3981 22ba 3981 22ba
00000170: 3981 22ba 3981 22ba 3981 22ba 3981 22ba
00000180: 6e80 22ba d878 22ba 5979 22ba 2c62 06ba
00000190: 63be 2fb9 bd5d 2139 6486 1538 5ebb 8db9
000001a0: 2b9a 96b9 74a3 a5b9 d1fb 13ba 9db9 23ba
000001b0: 7973 23ba 3081 22ba 2881 22ba 3981 22ba
000001c0: 3981 22ba 3981 22ba 3981 22ba 3981 22ba
000001d0: 3981 22ba 3981 22ba ff81 22ba 6881 22ba
000001e0: 3981 22ba 3981 22ba f180 22ba 907f 22ba
000001f0: 4fae 25ba 7421 2aba 6a3f 2aba 18b3 1fba
00000200: eb62 ea39 1e36 a53a b2fe 913a dbde 0437
00000210: 0030 bcb9 8d5b a6b9 7cc2 e2b9 3f92 23ba
00000220: c421 23ba 1781 22ba 3781 22ba 3981 22ba
00000230: 3981 22ba 3981 22ba 3981 22ba 3981 22ba
00000240: 3981 22ba 3981 22ba 3b81 22ba 7334 ccb9
00000250: 1a13 8a39 1d13 8a39 7682 a13a e5fb 2b3b
00000260: e376 193b e43d 0c3b 1eae 0b3b c6d9 223b
00000270: a6ae 473b fe53 2d3b ef47 383b 91a1 8f3a
00000280: 64db 70b9 f4b5 aab9 934b a9b9 f8c9 23ba
00000290: ca18 24ba fb79 22ba 3881 22ba 3981 22ba
000002a0: 3981 22ba 3981 22ba 3981 22ba ca80 22ba
000002b0: 1d6c 22ba 396d 22ba 0f73 22ba 54f5 1cba
000002c0: c11d acb8 e859 8839 e411 9539 1e14 a939
000002d0: 358b bc3a 2178 d63a 0651 e33a 8c51 153b
000002e0: 0f92 f43a e689 c33a dd47 ea3a 8f72 9b3a
000002f0: ee1d 3839 9b9d d7b9 e10b c9b9 6932 28ba
00000300: 5c38 22ba 18df 20ba 3981 22ba 3981 22ba
00000310: 3981 22ba 3981 22ba 3981 22ba 3e81 22ba
00000320: ce79 22ba 0667 22ba 0667 22ba 2c68 22ba
00000330: 48c7 1cba 8375 c7b9 7257 23b9 84e2 1039
00000340: 32fd 4b38 286a 6e39 4597 193a 8436 f73a
00000350: 4935 c43a bc5a db3a 9938 f23a efa6 8e3a
00000360: 2de1 24b8 3408 e2b9 ca64 0eba 6419 3bba
00000370: fc5d 1eba 27e2 1eba 3581 22ba 2f81 22ba
00000380: 3981 22ba 3981 22ba 3981 22ba 3981 22ba
00000390: 7b81 22ba 3981 22ba 6881 22ba e083 22ba
000003a0: 02f3 1eba 4e47 17ba 1633 15ba db97 0cba
000003b0: 28f2 0bba df51 d2b9 d757 8c3a e3d9 223b
000003c0: 9acb 0d3b 09a6 fd3a 6e5c b03a 91cf 4d3a
000003d0: 6bb8 dab9 cdd3 f9b9 6ff2 2eba 754d 3aba
000003e0: c0be 21ba a671 22ba 2081 22ba 3181 22ba
000003f0: 3981 22ba 3981 22ba 3981 22ba 7582 22ba

exp_avg_sq f4 [64, 784]
9.954662e-07 9.954662e-07 9.954662e-07 9.954662e-07 9.954662e-07 9.954662e-07 9.954662e-07 9.954662e-07
9.954662e-07 9.954662e-07 9.954662e-07 9.954662e-07 9.954662e-07 9.954662e-07 9.954662e-07 9.954662e-07
9.954662e-07 9.954662e-07 9.954662e-07 9.954662e-07 9.954662e-07 9.954662e-07 9.954662e-07 9.954662e-07
9.954662e-07 9.954662e-07 9.954662e-07 9.954662e-07 9.954662e-07 9.954662e-07 9.954662e-07 9.954662e-07
9.954662e-07 9.954662e-07 9.954662e-07 9.954674e-07 9.956096e-07 9.955572e-07 9.956461e-07 9.959532e-07
9.95941e-07 9.955046e-07 1.0094805e-06 1.1800386e-06 9.856593e-07 9.896876e-07 9.954701e-07 9.954638e-07
9.954612e-07 9.954662e-07 9.954662e-07 9.954662e-07 9.954662e-07 9.954662e-07 9.954662e-07 9.954662e-07
9.954662e-07 9.954662e-07 9.954662e-07 9.954662e-07 9.954662e-07 9.954662e-07 9.954662e-07 9.955102e-07
9.958019e-07 9.96312e-07 9.922957e-07 9.988972e-07 9.957624e-07 9.966043e-07 9.917204e-07 1.2145877e-06
1.0969271e-06 1.0186117e-06 9.979204e-07 9.973863e-07 1.0047671e-06 1.0244728e-06 9.985941e-07 9.950551e-07
9.952473e-07 9.954662e-07 9.954662e-07 9.954662e-07 9.954662e-07 9.954662e-07 9.951978e-07 9.953446e-07
9.954662e-07 9.954647e-07 9.955431e-07 9.95356e-07 1.0071866e-06 9.953993e-07 9.945068e-07 1.0087211e-06
1.0070924e-06 1.5549546e-06 1.8952204e-06 1.3233844e-06 1.504274e-06 1.9139193e-06 1.4336226e-06 1.2490146e-06
1.2150705e-06 1.4237797e-06 1.1801407e-06 1.0094445e-06 1.0038865e-06 9.952695e-07 9.964149e-07 9.954662e-07
9.954662e-07 9.954662e-07 9.971005e-07 9.952012e-07 9.955295e-07 9.956875e-07 9.952618e-07 1.0073712e-06
1.0096586e-06 1.0241381e-06 1.0827025e-06 1.1810581e-06 1.4701977e-06 2.0067096e-06 3.864644e-06 5.2360615e-06
5.319275e-06 5.6784115e-06 3.8974717e-06 2.4825524e-06 2.6259534e-06 2.5323354e-06 1.858077e-06 1.1874574e-06
1.0732144e-06 1.0031309e-06 9.947339e-07 9.949389e-07 9.954662e-07 9.954662e-07 9.952774e-07 9.961791e-07
9.956657e-07 9.959347e-07 9.99522e-07 1.0252762e-06 1.2287397e-06 1.1896028e-06 1.4590561e-06 2.801487e-06
3.724288e-06 5.3184654e-06 8.539293e-06 1.212042e-05 1.4027181e-05 1.4040479e-05 1.1761221e-05 6.9334014e-06
5.044467e-06 4.086006e-06 2.6283865e-06 1.8794644e-06 1.2172086e-06 1.0146655e-06 1.000329e-06 9.952951e-07
9.954662e-07 9.954662e-07 9.953731e-07 9.994712e-07 9.962783e-07 9.978543e-07 1.0321801e-06 1.0609288e-06
1.2529226e-06 1.1743198e-06 1.4657687e-06 1.7363111e-06 3.2546272e-06 6.4225665e-06 1.1371125e-05 1.6102762e-05
1.9074985e-05 1.9249537e-05 1.3797197e-05 9.6648955e-06 7.191941e-06 4.571944e-06 2.9408534e-06 2.0372809e-06
1.7055152e-06 1.0806915e-06 1.0099542e-06 1.0007362e-06 9.954662e-07 9.954662e-07 9.952896e-07 9.953784e-07
9.959261e-07 9.955887e-07 1.0582655e-06 1.041247e-06 1.0299854e-06 1.0202265e-06 1.0609218e-06 2.4631847e-06
3.3278486e-06 7.85911e-06 1.1667593e-05 1.8375746e-05 2.3136046e-05 2.0181002e-05 1.6122522e-05 1.0492687e-05
5.736569e-06 4.55546e-06 2.9265336e-06 2.3745722e-06 1.6612917e-06 1.1475386e-06 1.0069582e-06 9.974415e-07
9.954662e-07 9.954662e-07 9.954622e-07 9.956177e-07 9.959117e-07 1.0097505e-06 1.0669569e-06 1.0324073e-06
1.0191475e-06 1.5418055e-06 1.5451835e-06 1.973414e-06 2.8421348e-06 8.37491e-06 1.371648e-05 2.2064147e-05
2.5142572e-05 2.0828262e-05 1.5524905e-05 9.190666e-06 5.3002964e-06 4.564348e-06 3.120469e-06 2.8537058e-06
1.8939642e-06 1.1006056e-06 9.983319e-07 9.955182e-07 9.954662e-07 9.954488e-07 9.954675e-07 9.954456e-07
00000000: f59b 8535 f59b 8535 f59b 8535 f59b 8535
00000010: f59b 8535 f59b 8535 f59b 8535 f59b 8535
00000020: f59b 8535 f59b 8535 f59b 8535 f59b 8535
00000030: f59b 8535 f59b 8535 f59b 8535 f59b 8535
00000040: f59b 8535 f59b 8535 f59b 8535 f59b 8535
00000050: f59b 8535 f59b 8535 f59b 8535 f59b 8535
00000060: f59b 8535 f59b 8535 f59b 8535 f59b 8535
00000070: f59b 8535 f59b 8535 f59b 8535 f59b 8535
00000080: f59b 8535 f59b 8535 f59b 8535 009c 8535
00000090: e3a0 8535 169f 8535 24a2 8535 b1ac 8535
000000a0: 46ac 8535 479d 8535 7c7d 8735 d161 9e35
000000b0: ff4a 8435 68d5 8435 189c 8535 e09b 8535
000000c0: c99b 8535 f59b 8535 f59b 8535 f59b 8535
000000d0: f59b 8535 f59b 8535 f59b 8535 f59b 8535
000000e0: f59b 8535 f59b 8535 f59b 8535 f59b 8535
000000f0: f59b 8535 f59b 8535 f59b 8535 789d 8535
00000100: 7ea7 8535 05b9 8535 052f 8535 d911 8635
00000110: 23a6 8535 10c3 8535 411b 8535 ea04 a335
00000120: 213a 9335 3bb7 8835 49f0 8535 efdd 8535
00000130: 89db 8635 9e80 8935 6f07 8635 d58d 8535
00000140: 7094 8535 f59b 8535 f59b 8535 f59b 8535
00000150: f59b 8535 f59b 8535 bc92 8535 c897 8535
00000160: f59b 8535 e89b 8535 9a9e 8535 2c98 8535
00000170: ab2e 8735 a999 8535 fe7a 8535 6563 8735
00000180: 6e2b 8735 d5b3 d035 475f fe35 249f b135
00000190: 76e6 c935 e270 0036 e66a c035 d1a3 a735
000001a0: 8115 a335 b318 bf35 5365 9e35 407c 8735
000001b0: 47bd 8635 3395 8535 8ebc 8535 f59b 8535
000001c0: f59b 8535 f59b 8535 1dd4 8535 da92 8535
000001d0: 229e 8535 90a3 8535 ef94 8535 0335 8735
000001e0: 9b83 8735 1e75 8935 6051 9135 d984 9e35
000001f0: 9c53 c535 02ab 0636 0aad 8136 6db1 af36
00000200: 397c b236 2f89 be36 07c7 8236 ed99 2636
00000210: 8939 3036 31f1 2936 0a63 f935 ba60 9f35
00000220: 5e0b 9035 51a3 8635 cc82 8535 d789 8535
00000230: f59b 8535 f59b 8535 7995 8535 74b4 8535
00000240: d0a2 8535 0eac 8535 5027 8635 399c 8935
00000250: 2deb a435 71aa 9f35 c9d4 c335 2e01 3c36
00000260: c8ee 7936 4575 b236 fc43 0f37 cf58 4b37
00000270: 4956 6b37 668f 6b37 0f52 4537 77a5 e836
00000280: a443 a936 861a 8936 5663 3036 e841 fc35
00000290: f85e a335 a42f 8835 0b43 8635 1496 8535
000002a0: f59b 8535 f59b 8535 c298 8535 9225 8635
000002b0: ddb7 8535 03ee 8535 7089 8a35 3c65 8e35
000002c0: 182a a835 529d 9d35 6ebb c435 320b e935
000002d0: 126a 5a36 6d81 d736 9cc6 3e37 6b14 8737
000002e0: 3803 a037 117a a137 837a 6737 6926 2237
000002f0: 4e52 f136 b368 9936 7a5b 4536 38b8 0836
00000300: 0ee9 e435 470c 9135 c38d 8735 0951 8635
00000310: f59b 8535 f59b 8535 e495 8535 f198 8535
00000320: c3ab 8535 2ba0 8535 ba09 8e35 f9c0 8b35
00000330: 073e 8a35 b7ee 8835 ff64 8e35 314d 2536
00000340: 0154 5f36 9fda 0337 eebf 4337 9d25 9a37
00000350: 4814 c237 5f4a a937 da3e 8737 bf09 3037
00000360: c17c c036 1adb 9836 7765 4436 d75a 1f36
00000370: 8cf9 de35 2005 9a35 d226 8735 d4df 8535
00000380: f59b 8535 f59b 8535 d29b 8535 2aa1 8535
00000390: 44ab 8535 c386 8735 5c34 8f35 3f91 8a35
000003a0: a4c9 8835 09f0 ce35 1a64 cf35 ff6e 0436
000003b0: 81bb 3e36 f781 0c37 d51f 6637 6516 b937
000003c0: 43e9 d237 5ab8 ae37 7b3b 8237 9c31 1a37
000003d0: 33d9 b136 7327 9936 4069 5136 4b82 3f36
000003e0: 1d34 fe35 85b8 9335 6cfe 8535 bf9d 8535
000003f0: f59b 8535 5c9b 8535 019c 8535 409b 8535

exp_avg f4 [64]
0.0014613096 0.00090350123 -0.00040293823 3.1696072e-05 -0.00033989534 -0.00012179678 1.764505e-05 -0.0018444324
-0.0006533815 0.00024208816 6e-45 -0.00074820104 7.085695e-05 6e-45 0.0005539355 -0.00021439666
0.00040435587 -0.0005046266 0.00021022772 0.00028975986 0.00034633864 -0.0007435077 0.00031576137 -0.0005815952
-0.00010785618 -0.00030251208 -4.374916e-05 0.00026712514 -0.0003905136 0.0014177662 -0.00042783786 0.00031200083
4.7271515e-05 0.00029979297 -0.00024900367 0.00016471345 0.0003518721 -0.00032459627 -0.0008942198 0.0009098516
6e-45 -0.00024729647 -0.00032536103 0.00050278724 -5.4948814e-05 7.220747e-05 -0.0006847514 -0.0006021607
-0.00030179057 -0.0012303859 -0.0009406158 -0.0016343762 0.00022990661 -0.00029243968 -7.1787006e-05 0.00060415233
-0.0022115966 0.00020590135 0.00093755365 -0.0002547234 0.00019875738 -0.00061116536 8.820144e-05 -0.00036388365
00000000: 6a89 bf3a f1d8 6c3a 7441 d3b9 66f1 0438
00000010: fb33 b2b9 266d ffb8 7504 9437 e2c0 f1ba
00000020: b147 2bba 0cd9 7d39 0400 0000 ec22 44ba
00000030: 0999 9438 0400 0000 fb35 113a aacf 60b9
00000040: baff d339 eb48 04ba 9370 5c39 e9ea 9739
00000050: c994 b539 f5e7 42ba c68c a539 3176 18ba
00000060: d930 e2b8 7c9a 9eb9 4e7f 37b8 ee0c 8c39
00000070: d9bd ccb9 57d4 b93a 6d4f e0b9 0b94 a339
00000080: 6745 4638 882d 9d39 b58c 82b9 eeb6 2c39
00000090: 797b b839 932e aab9 136a 6aba 1b83 6e3a
000000a0: 0400 0000 92a7 81b9 3895 aab9 7bcd 033a
000000b0: d778 66b8 176e 9738 e380 33ba 52da 1dba
000000c0: a539 9eb9 e644 a1ba a893 76ba 9138 d6ba
000000d0: 1613 7139 9752 99b9 5b8c 96b8 fa5f 1e3a
000000e0: 6ff0 10bb 39e7 5739 29c6 753a 658c 85b9
000000f0: 8769 5039 9d36 20ba caf8 b838 a3c7 beb9

exp_avg_sq f4 [64]
5.531709e-06 9.289779e-06 3.2012645e-06 8.192502e-06 1.3115938e-05 9.670481e-06 9.226166e-06 1.2715928e-05
1.467005e-05 8.488723e-06 3.3176243e-11 1.0200541e-05 7.927124e-06 1.447854e-10 8.68464e-06 8.075274e-06
6.2319928e-06 1.1204534e-05 5.411671e-06 8.8419565e-06 5.624633e-06 1.3192787e-05 7.000474e-06 1.1274039e-05
6.7191363e-06 9.120786e-06 8.011919e-06 7.887378e-06 1.0068743e-05 9.042291e-06 1.0917955e-05 5.3614417e-06
6.952961e-06 6.6052594e-06 8.761204e-06 7.930829e-06 7.3125243e-06 7.2087482e-06 9.781969e-06 6.985066e-06
2.2948489e-10 4.529083e-06 1.009709e-05 7.2695016e-06 4.57585e-06 9.799075e-06 8.549569e-06 7.921853e-06
6.639737e-06 1.2104671e-05 7.213609e-06 7.425098e-06 7.137359e-06 7.2654216e-06 5.3896497e-06 9.164432e-06
1.4462964e-05 8.502523e-06 8.132393e-06 7.748162e-06 4.9647215e-06 7.743589e-06 5.998893e-06 1.0603863e-05
00000000: 059d b936 4cdb 1b37 4ed5 5636 8772 0937
00000010: 860c 5c37 663e 2237 15ca 1a37 7f56 5537
00000020: 631f 7637 ca6a 0e37 21e9 112e fd22 2b37
00000030: bdfe 0437 7831 1f2f 3fb4 1137 0a7b 0737
00000040: 691c d136 1bfb 3b37 e695 b536 ea57 1437
00000050: 3bbb bc36 9756 5d37 9de5 ea36 a125 3d37
00000060: f174 e136 7a05 1937 ee6a 0637 0854 0437
00000070: ecec 2837 58b4 1737 422c 3737 6fe6 b336
00000080: 7b4d e936 bfa2 dd36 16fd 1237 a70e 0537
00000090: 1b5e f536 ade2 f136 3d1d 2437 4361 ea36
000000a0: 4152 7c2f 87f8 9736 ac66 2937 8bec f336
000000b0: 418a 9936 b566 2437 1f70 0f37 19e8 0437
000000c0: e8ca de36 2b15 4b37 6e0c f236 1b25 f936
000000d0: 727d ef36 7fc9 f336 bdd8 b436 f0c0 1937
000000e0: f5a5 7237 0fa6 0e37 5d70 0837 1afe 0137
000000f0: a296 a636 76ea 0137 194a c936 3fe7 3137

exp_avg f4 [64, 64]
-0.0001870333 -0.00028380862 2.585377e-05 6.014886e-05 -0.00048208883 0.0010508316 0.00056401396 0.0028020479
0.0016108596 -0.0004541848 -6e-45 -2.8165652e-05 -2.4651608e-05 6e-45 0.00056289847 0.00010371233
-0.005268408 0.0002220312 -0.0005466125 2.0062855e-06 0.0009939665 -0.0004196617 -0.00034112186 -0.0022553585
0.0016274692 0.0001680354 0.00041583544 0.0009158128 0.00025977238 4.038549e-05 -0.00041128095 0.0005763276
0.0014495772 -0.0035454135 0.0015805564 0.00027735834 -0.0025880053 -0.00095303875 -0.00022752944 -0.0025171016
6e-45 -0.0020242012 0.0010440774 0.00059396256 0.00094264036 0.00014505343 -0.00050638156 -0.0019395264
1.2222217e-05 0.0015777848 -0.0035829907 0.00025728915 0.00011512745 -0.0004713984 0.0007824256 -0.0004879135
-0.00036297372 -0.0007198434 0.0007619968 8.781792e-05 -7.9141166e-05 0.00064961996 0.001262673 -0.00022057172
8.1572034e-05 -0.000271244 -0.00026934393 0.00020060124 0.0015928268 0.0021898302 6.801762e-05 0.0002981895
0.0013009191 -0.0009476933 -6e-45 0.00079375267 0.00035164418 -6e-45 -0.0011263123 0.00036197325
-0.00043392208 0.0017772896 0.00018509642 -0.00040950076 -0.00053017493 -6.971578e-05 1.3917381e-05 -0.0008146796
0.0023500845 -0.00072977965 0.00063294335 0.0008958731 -0.00064328045 -0.0002861514 -0.00095506414 -0.0005621152
0.0006013947 0.0009629298 -0.0018935543 4.742504e-05 0.0009946771 0.002679954 -2.8018641e-05 0.00024875504
-6e-45 0.00014187249 0.00016359778 -0.00014366445 0.00049075694 0.00027330752 -0.00047373623 -0.00097285234
-0.0004667408 0.0017900434 6.896225e-05 -0.0003307836 -0.0012285156 0.00063729164 6.18279e-05 -0.00058259023
-4.915235e-05 -7.684748e-05 -0.0005730501 9.342552e-05 3.2702883e-05 -0.0007138488 0.0021105444 0.00035544072
0.0005132497 0.00055521785 -0.00014156687 0.00018514284 -0.0017831142 0.0013336231 -0.00011555332 -0.0026387526
-0.0006584154 0.00035309882 0.0 -0.0005419805 -0.0022494765 -6e-45 -0.00024017162 0.0004186665
0.0032281433 -0.0012960519 0.00012424136 0.00011932919 0.0012563147 0.00031084905 -0.00027587073 7.323952e-05
0.003021883 -0.002669447 -0.00028112353 0.0022655993 -0.0022664953 -0.0006879532 -0.00020474399 -0.0003375978
-0.00052275433 -0.00024741323 -0.0045265914 -0.0003677003 -0.00024904913 -0.0022936328 -0.0005363592 -5.692062e-05
-6e-45 9.926005e-05 -0.0026445347 0.0020028935 -0.00027908687 0.0002968787 0.00018408928 -7.3805786e-05
0.0011452737 -1.8003575e-05 -0.00034401932 0.0010772363 -0.00093340426 -0.00038398238 -0.004279338 0.0012102175
-0.0001225434 -0.0002474509 -0.001650097 0.0006312762 -0.00037306806 0.0019615581 -0.0010039419 0.00018880652
-2.9682313e-05 0.0018689685 -2.5020898e-05 0.00033963582 0.000100666046 -0.00044739596 0.0013190521 2.8973368e-06
0.0005037978 0.00023774014 6e-45 -0.0010383528 0.0005435656 6e-45 0.000110159934 -0.00011289902
0.00056592684 -0.00043532008 0.0005056516 0.0006457719 0.00043732324 3.9999242e-05 -0.00011040046 0.00083413225
-0.00028344124 0.0002747444 -0.00018632908 0.0013674439 -3.8650258e-05 0.00049424655 0.00025307588 0.00019608057
0.00028109396 0.0002691361 -0.00022842737 0.001885457 -0.00083163904 -8.055408e-06 0.00021421966 -2.8514622e-05
6e-45 -5.3043725e-05 -9.853004e-05 -0.00020386727 0.0007761053 -0.00041901725 -0.00021374218 0.00018490638
0.0004237542 -0.00048678627 0.00016450274 0.0005873126 0.00030891062 0.00040969093 0.00043367612 0.00021682623
-8.2333994e-05 -0.000105679 0.00043677082 0.0007056218 0.00022736956 0.0005469836 0.0007180959 1.3154338e-05
00000000: 5f1e 44b9 26cc 94b9 8ce0 d837 5948 7c38
00000010: dec0 fcb9 0fbc 893a 56da 133a 90a2 373b
00000020: 7b23 d33a a71f eeb9 0400 0080 4745 ecb7
00000030: edca ceb7 0400 0000 7a8f 133a 2280 d938
00000040: 9ca2 acbb 0cd1 6839 8b4a 0fba b9a3 0636
00000050: fb47 823a 0a06 dcb9 9ad8 b2b9 a3ce 13bb
00000060: ce50 d53a a932 3039 7d04 da39 2813 703a
00000070: 0f32 8839 9763 2938 32a1 d7b9 b114 173a
00000080: bdff bd3a 2b5a 68bb ac2a cf3a 686a 9139
00000090: 869b 29bb 59d5 79ba f894 6eb9 f5f5 24bb
000000a0: 0400 0000 76a8 04bb 6dd9 883a 27b4 1b3a
000000b0: 861b 773a 7c19 1839 b1be 04ba b537 feba
000000c0: 060e 4d37 accd ce3a 9cd0 6abb c4e4 8639
000000d0: 9470 f138 0626 f7b9 b11b 4d3a a4ce ffb9
000000e0: 824d beb9 dfb3 3cba bdc0 473a e32a b838
000000f0: 97f8 a5b8 424b 2a3a 4680 a53a 4549 67b9
00000100: a711 ab38 c135 8eb9 bb36 8db9 7c58 5239
00000110: 66c6 d03a 4183 0f3b afa4 8e38 5156 9c39
00000120: 9a83 aa3a 9f6e 78ba 0400 0080 d713 503a
00000130: e25c b839 0400 0080 c5a0 93ba 3ac7 bd39
00000140: 0980 e3b9 f1f3 e83a 7116 4239 43b2 d6b9
00000150: 70fb 0aba 6034 92b8 b27e 6937 3990 55ba
00000160: e003 1a3b af4e 3fba 1cec 253a 07d9 6a3a
00000170: d2a1 28ba 9706 96b9 455d 7aba ea5a 13ba
00000180: eaa6 1d3a 206d 7c3a 2431 f8ba 40ea 4638
00000190: d35f 823a 2ba2 2f3b 9309 ebb7 566b 8239
000001a0: 0400 0080 9bc3 1439 728b 2b39 a2a4 16b9
000001b0: 24a6 003a b74a 8f39 cd5f f8b9 0407 7fba
000001c0: e4b4 f4b9 e49f ea3a d39f 9038 066d adb9
000001d0: 2506 a1ba eb0f 273a 9aa9 8138 f8b8 18ba
000001e0: ef28 4eb8 2d29 a1b8 be38 16ba 72ed c338
000001f0: 742a 0938 9521 3bba 0f51 0a3b 725a ba39
00000200: 9b8b 063a 0a8c 113a 9171 14b9 e722 4239
00000210: 62b7 e9ba f7cc ae3a 3755 f2b8 ecee 2cbb
00000220: 8299 2cba 1f20 b939 0000 0000 b213 0eba
00000230: f46b 13bb 0400 0080 94d6 7bb9 7780 db39
00000240: 428f 533b 49e0 a9ba c946 0239 5f40 fa38
00000250: edaa a43a 74f9 a239 bea2 90b9 2b98 9938
00000260: c90a 463b e4f1 2ebb c363 93b9 737a 143b
00000270: 7b89 14bb c257 34ba 8cb0 56b9 9cff b0b9
00000280: 7309 09ba 3eb7 81b9 cd53 94bb e6c7 c0b9
00000290: cf92 82b9 c650 16bb 759a 0cba 0dbe 6eb8
000002a0: 0400 0080 d529 d038 ee4f 2dbb fa42 033b
000002b0: 6852 92b9 62a6 9b39 1708 4139 2ec8 9ab8
000002c0: 021d 963a 6206 97b7 7e5d b4b9 0d32 8d3a
000002d0: b3af 74ba 3e51 c9b9 b039 8cbb 29a0 9e3a
000002e0: fe7e 00b9 4cbc 81b9 1148 d8ba 3b7c 253a
000002f0: 5998 c3b9 7c8d 003b b396 83ba 5dfa 4539
00000300: 48fe f8b7 2df8 f43a f8e3 d1b7 2611 b239
00000310: ac1c d338 7890 eab9 0be4 ac3a de6f 4236
00000320: 4c11 043a e249 7939 0400 0000 5719 88ba
00000330: 127e 0e3a 0400 0000 aa05 e738 33c4 ecb8
00000340: b55a 143a ac3b e4b9 b48d 043a 0549 293a
00000350: 8848 e539 dcc4 2738 cc86 e7b8 aba9 5a3a
00000360: d79a 94b9 920b 9039 5561 43b9 ce3b b33a
00000370: 661c 22b8 5390 013a 45af 8439 fa9a 4d39
00000380: cb5f 9339 d61a 8d39 0186 6fb9 7021 f73a
00000390: 5a02 5aba b725 07b7 27a0 6039 af32 efb7
000003a0: 0400 0000 447b 5eb8 eaa1 ceb8 34c5 55b9
000003b0: 8c73 4b3a 8baf dbb9 fb1f 60b9 6ee3 4139
000003c0: 532b de39 5937 ffb9 5e7e 2c39 e2f5 193a
000003d0: 48f5 a139 c9cb d639 065f e339 d95b 6339
000003e0: baaa acb8 fb9f ddb8 63fe e439 7af9 383a
000003f0: 0d6a 6e39 7363 0f3a 9a3e 3c3a 74b1 5c37
