26_03_2024/lightning_logs/version_13/checkpoints/epoch=8-step=3870.ckpt (torch, 676016 bytes, 24 tensors)

conv1.weight f4 [16, 1, 3, 3]
000000 df c7 00 3e d2 fb 0a bf 4c 9b ee be 21 17 56 3e
       0.12576245 -0.542905 -0.46602857 0.2090726
000010 44 b2 e1 3d 0d 5b 74 be d4 6c a4 3e 11 0c f0 3e
       0.110203296 -0.23862858 0.3211428 0.46884206
000020 84 ec 32 3e 6e 54 c0 be 1c 94 31 3e f2 6b ab 3d
       0.17473036 -0.37564415 0.17341655 0.08370198
000030 5f 9d c0 3e e1 1b 02 3f 30 f7 0a 3e 13 99 2c 3e
       0.37620065 0.5082379 0.13570857 0.16855268
000040 be b9 c8 be 37 ca 21 bf e5 7b 7e be 75 c3 a3 be
       -0.3920421 -0.6319918 -0.2485195 -0.3198506
000050 99 22 bb bb 18 d6 99 be b8 42 9e 3e c1 e1 60 3e
       -0.0057109115 -0.30046153 0.30910277 0.21961118
000060 c3 4c 81 3e 18 1c d5 3e c0 ea 58 3d f1 3b b8 3d
       0.25253877 0.41622996 0.05295825 0.08995808
000070 48 8b 3f be 57 66 8b 3e 6b 24 db be 2b c4 c2 bc
       -0.18705475 0.27226517 -0.42801222 -0.02377518
000080 22 59 90 3e 11 ca c9 be 87 f5 4c 3e 31 d3 8f 3e
       0.28193003 -0.39411977 0.20015536 0.28090814
000090 1e 4a b5 be 73 7f 14 3d 95 68 e4 3e 45 08 09 bf
       -0.3540811 0.036254358 0.4461104 -0.53528243
0000a0 77 0a c3 3e dc 63 47 bc a4 02 3d bd 32 79 50 bd
       0.38093922 -0.012169804 -0.046145096 -0.05089683
0000b0 49 81 76 3e d3 98 b3 be 76 d9 53 3e d4 74 c9 3e
       0.24072756 -0.35077533 0.20688424 0.39346945
0000c0 d2 02 05 bf fe 87 9e be f5 3f 8f bd af 78 eb bd
       -0.5195743 -0.3096313 -0.06994621 -0.11497628
0000d0 9e 7d cb be f8 ce 1d bf e1 c7 e3 bc 0f 3d 15 bf
       -0.39744276 -0.61643934 -0.02780527 -0.58296293
0000e0 98 78 63 bd e6 31 ae 3d f4 fa d3 bc b4 bd 8b 3e
       -0.05553493 0.08505611 -0.0258765 0.2729317
0000f0 05 32 b5 3c e8 19 d3 3e 44 de 44 3e 70 a8 ad 3e
       0.022118578 0.41230702 0.19225413 0.3391757
000100 30 d6 36 3e fb 45 b9 3e 5b 88 6f 3e 30 44 b1 3e
       0.17855144 0.36186203 0.23391859 0.34622335
000110 51 1e 8e 3e 73 78 ba be 6b 19 eb be f4 5f 79 be
       0.27757505 -0.3642002 -0.4591783 -0.2435301
000120 34 69 c2 bc 5c ae ae 3e c3 47 ac 3e 7f 9e c4 3e
       -0.023731805 0.341174 0.336485 0.38402173
000130 f2 43 33 be d6 8c 50 3e a7 5b 81 3e b9 15 58 3e
       -0.17506388 0.20366225 0.25265238 0.21102037
000140 cc d5 ad 3e 68 1d d5 3e 5d ed ec 3d b7 94 f7 be
       0.33952177 0.41623998 0.11568711 -0.48355648
000150 7d e2 ea 3e 87 27 86 be dd 23 d6 be 61 2b b1 bc
       0.45875922 -0.26202032 -0.41824237 -0.02162713
000160 96 e0 14 bf 0f 2f 2d be d4 b9 a7 3e 27 55 6e 3e
       -0.5815519 -0.16912483 0.32758963 0.2327467
000170 77 a3 27 3e e8 cd f0 bd e3 4d ab be f1 84 ad 3d
       0.1637095 -0.117580235 -0.3345786 0.08472622
000180 3a 5a a3 be aa 55 aa be 64 06 92 3e ad 70 c4 be
       -0.31904775 -0.33268481 0.285205 -0.38367215
000190 c7 d7 01 bf 0f 38 23 be 31 49 ca be 36 bd 00 3c
       -0.50719875 -0.15939353 -0.39508966 0.007857611
0001a0 93 c6 9c 3e 14 76 c2 be fd 84 db 3e c9 0b fe 3e
       0.3062025 -0.3798071 0.428749 0.49618366
0001b0 a0 bd d9 3e 7a 81 a2 be 16 f2 10 bf a9 b6 10 3f
       0.42527485 -0.31739408 -0.56619394 0.5652872
0001c0 21 bd 53 3e e4 f5 98 3d e0 f5 80 be 50 92 8c 3e
       0.20677616 0.07468775 -0.25187588 0.27455378
0001d0 d6 a5 2e 3d 76 ff 57 be 62 a7 a2 3d 2e db 40 3e
       0.042638622 -0.21093544 0.07942082 0.1883361
0001e0 e5 6a 64 be 12 d1 5e be ec 9b 90 3e 9d 62 a8 be
       -0.22306402 -0.21759441 0.2824396 -0.32887736
0001f0 54 32 4a bd d5 85 a6 3e 09 18 b3 be cc a5 44 bf
       -0.049364403 0.3252398 -0.34979275 -0.76815486
000200 49 ef da be fe 10 ee 3e 4b 8b 42 bc d7 28 1e bf
       -0.42760685 0.4649734 -0.01187403 -0.61781067
000210 88 54 2c 3f 30 f5 11 3e 00 2f 0b 3c bc 0c b7 be
       0.67316484 0.14253688 0.008495092 -0.35751903
000220 51 3e 32 be 44 f6 04 bf 7d 49 07 bf 0e 91 a2 be
       -0.17406584 -0.5193827 -0.5284651 -0.31751293
000230 91 ff 76 bd b7 ac dc 3e c9 86 81 3e 4d 50 d5 3e
       -0.06030232 0.4310052 0.25298145 0.41662827

conv1.bias f4 [16]
000000 6b d1 77 3d 86 be b5 bd 5b fa 37 3e 03 15 a2 3d
       0.06050245 -0.0887423 0.17966597 0.07914164
000010 c2 60 27 be 5a a5 2d 3e 88 6f be 3d 10 aa 9c bd
       -0.16345504 0.16957608 0.09298617 -0.07649624
000020 34 74 c9 bd 56 b7 8b 3e 56 a4 6b 3c 84 4d 42 be
       -0.09836617 0.27288312 0.014382442 -0.18974882
000030 11 71 6b be 1e bb df bd 93 ce 5c bd f9 8b a2 3e
       -0.2299235 -0.10924362 -0.053907942 0.31747416

conv2.weight f4 [32, 16, 3, 3]
000000 1b c9 17 3e d5 2d d8 3d 7a e8 fe 3d 5b b4 fc bd
       0.1482281 0.10555617 0.12446685 -0.123390876
000010 21 28 1b bd 82 1b 1e 3e 75 0a c2 3d 4b f1 c4 3d
       -0.037880067 0.15440181 0.09474651 0.096163355
000020 d0 29 37 3c c5 e6 cd 3c 65 df 84 3d 98 02 7b bc
       0.0111794025 0.025134454 0.064879216 -0.015320443
000030 5a eb 09 3e 92 47 c9 3d e0 bf 83 bd 04 50 60 bd
       0.13468686 0.09828104 -0.064330816 -0.05476381
000040 20 21 68 bc 57 4a 43 3e ac a5 41 3c 4c 23 c6 3d
       -0.014168054 0.19071327 0.011819284 0.09674701
000050 9b 72 ff bd 08 0d 3a 3d 96 ff 10 bd 19 f6 9b 3d
       -0.12473031 0.045422584 -0.035399996 0.07615299
000060 c5 68 49 bd 25 b0 14 3e d3 e4 09 3e f6 3b b8 bc
       -0.04917218 0.14520319 0.13466196 -0.02248953
000070 a1 62 7b 3d 65 40 05 be 95 19 b5 bd 09 6f 1f bb
       0.061373357 -0.13012846 -0.0884277 -0.0024327657
000080 a8 ca 8a 3c 15 65 91 3c 2b c0 9d 3d 64 29 01 3d
       0.016942337 0.017748395 0.07702669 0.031533614
000090 86 2f c3 bd f0 b9 e2 3d 15 54 ab bd 3e 5a eb bc
       -0.09530549 0.11070621 -0.08365647 -0.028729554
0000a0 b9 d4 64 3d 2e 05 51 bd 33 73 bb bd 3e 6d fa 3c
       0.05586693 -0.05103033 -0.09152832 0.030569669
0000b0 0f 16 d6 bd f1 f1 d3 bd 1e 0a 3e bd 93 6d ab bd
       -0.10453426 -0.10348881 -0.046396367 -0.08370509
0000c0 fb e0 4f be f3 dc 30 be 36 1b 47 bc 53 fd db bd
       -0.20300667 -0.17271785 -0.012152484 -0.10741677
0000d0 1d da 94 bd 80 13 67 be 29 40 26 bd 71 bd f8 3d
       -0.07268164 -0.22566032 -0.04058853 0.12145508
0000e0 29 e8 a4 bd 8e ba ac 3d 44 84 7f bd 7f ec ef 3c
       -0.080520935 0.0843402 -0.062381998 0.029287575
0000f0 7b 14 d8 3b 53 e6 10 3e 0e e0 66 3d 06 46 41 bd
       0.0065942383 0.14150362 0.05636602 -0.04718592
000100 0a e3 13 be d6 bd 08 be 54 91 61 3d 2d 14 2b bd
       -0.14442077 -0.13353667 0.055070236 -0.041767288
000110 f7 80 24 be a7 8a 45 bd 95 86 88 bd 4a be 0d 3e
       -0.16064821 -0.048227932 -0.066662945 0.13842121
000120 53 a5 63 bc c6 05 8e bd 84 f6 ba bd 5d 45 df bd
       -0.013894397 -0.06934695 -0.091290504 -0.10901902
000130 9c b5 a6 bd 26 0d 08 be e3 26 ae 3c 41 af a3 bd
       -0.08140108 -0.13286266 0.021258777 -0.079924114
000140 20 b1 8b 3c b5 d0 06 bd 1c a3 95 bd fe 39 db 3d
       0.017052233 -0.032913882 -0.07306501 0.107044205
000150 21 8e c3 bd 55 d9 20 bc dc 34 65 3d e9 0f 60 3d
       -0.09548593 -0.009817441 0.055958614 0.054702673
000160 ff 25 ea bd 19 c1 8c bc 07 f8 33 3b 8c a6 ec bb
       -0.114330284 -0.01718192 0.0027461068 -0.0072220024
000170 b2 ec 0d 3e 52 9b 35 3e 1f ca a1 3d 9e 04 8f bd
       0.13859823 0.17735031 0.0789988 -0.069833025
000180 5f c3 7f 3c 1b da 85 3d aa 1d 84 bd 9b 5c 02 be
       0.015610545 0.06535741 -0.064509705 -0.12730639
000190 ee 08 66 bd bd 74 80 be de e5 24 3d 3b dd 5c be
       -0.05616086 -0.25089064 0.04025828 -0.21568768
0001a0 31 9f d4 3c 68 18 a5 bd 51 d0 9c 3d 75 8a 15 bd
       0.025954815 -0.08061296 0.07656921 -0.036508996
0001b0 31 11 31 3e 08 8c 5a 3d d7 c5 34 3e 42 eb 2b 3c
       0.17291714 0.0533562 0.17653595 0.010493102
0001c0 7a df 96 3d 49 ba 49 3e 44 fe c9 bc de 4a 98 39
       0.073668435 0.19699968 -0.024657376 0.0002904748
0001d0 e8 59 07 3d 73 77 e7 bd c0 1f 5a bd 19 70 d2 3d
       0.033044726 -0.1130208 -0.053252935 0.10275287
0001e0 b8 61 32 be f8 e7 7e bd 1a c5 24 3c 9e a4 9d bd
       -0.17420089 -0.06223294 0.010056758 -0.07697414
0001f0 60 39 8d 3c 4c 73 44 be cd fd 9a 3d 7f da ec 3d
       0.017239273 -0.19184607 0.0756794 0.11565112
000200 a3 5e 2c 3e a4 76 02 be c0 67 c4 bd 20 e4 5b bd
       0.16832976 -0.1274057 -0.09590101 -0.053684354
000210 aa 9c 21 3d ba ae 1f 3c 5b cd 85 be 21 8e ce 3d
       0.039456047 0.009746248 -0.26133236 0.10085703
000220 74 3b c8 3d f1 4c db bd 08 14 a3 bd e9 00 25 be
       0.09776965 -0.10708035 -0.07962805 -0.16113628
000230 f7 73 2e bd b9 6b ae 3c b2 af ca 3c 9f e0 a1 3d
       -0.04259106 0.0212916 0.024741981 0.07904171
000240 ce 0c 10 3d 88 d6 e9 3d ec d0 21 3d b1 49 60 3d
       0.03516846 0.11417872 0.039505884 0.054757778
000250 30 fb 2f bc fe 1a 29 bc 1f a6 72 be 6d c6 0d be
       -0.01074104 -0.010321377 -0.23696183 -0.13845225
000260 f3 f2 3f be d5 27 97 be 8c d6 47 be 5e bb 93 be
       -0.18745022 -0.29522577 -0.19515437 -0.28853887
000270 be 41 49 3e 6e 56 a1 3c 2f 0a 09 be 3e d1 e7 bd
       0.19653985 0.019694533 -0.13382791 -0.11319207
000280 06 9d 58 3d e5 46 16 3e ce 3f eb 3d 62 ff 44 3e
       0.052884124 0.14675482 0.11486779 0.19238046
000290 6f 38 89 3c b9 e7 26 3e 19 64 03 bc 28 f2 34 3d
       0.016750542 0.16299333 -0.008019471 0.04417625
0002a0 d0 b4 33 be 64 28 60 bd 19 86 8f 3c 34 5a 90 bd
       -0.17549443 -0.05472602 0.017519997 -0.07048455
0002b0 05 ed 21 be d0 2d a3 bd 85 d1 b5 bd 61 31 07 3d
       -0.15813072 -0.079677224 -0.08877853 0.033006076
0002c0 53 0d 92 3d 47 59 32 3d 9c 39 68 3b bf 63 b9 3d
       0.07131448 0.043542173 0.0035434728 0.09052228
0002d0 1f 83 4d be 64 73 2c be 42 13 35 bd 69 28 40 be
       -0.2006955 -0.16840893 -0.04420782 -0.18765415
0002e0 fe 7a b1 bd 2c c0 0a 3c d4 9c 1b be 1e ba 7b 3d
       -0.08666037 0.008468669 -0.15196544 0.061456792
0002f0 14 c8 e6 3b 48 f2 61 bd 9a 9d f1 3c 54 d9 9f bc
       0.007042894 -0.055162698 0.029494096 -0.01951281
000300 b2 1d 50 bd 21 6d 3e bd a5 7d ad 39 78 90 5f 3d
       -0.05080957 -0.046490792 0.00033090744 0.054581136
000310 f5 79 a9 bc 13 ba 3c 3d c6 51 54 3d 1d 79 8b 3c
       -0.020688036 0.04607589 0.051835798 0.017025525
000320 b5 54 30 bd 92 65 f5 3d f1 67 c7 3d 5d f3 1f 3d
       -0.043049533 0.119822636 0.09736622 0.03905045
000330 96 bd 57 be 09 8a bf b9 74 8b ea 3c e9 31 cf be
       -0.21068415 -0.00036533203 0.02863095 -0.40467766
000340 e3 bd 68 be 02 87 a1 bb 8d cc 22 3e cd 6a f9 3d
       -0.22728686 -0.0049294243 0.15898342 0.12178574
000350 8f bd a9 3d 54 f6 00 3e 55 50 2b 3d fc 14 67 3d
       0.082881086 0.12593967 0.041824657 0.056416497
000360 81 99 4d be cc 5f 81 3d d1 3f de 3d 3e ec 71 bc
       -0.20078088 0.063171 0.10852016 -0.014765797
000370 40 7a c7 3d 59 85 a4 3d 66 2f dd bd 65 c4 64 bd
       0.09740114 0.080332465 -0.10800056 -0.05585136
000380 7b 20 e6 3d 1a 47 80 3d b2 fa 0f be e1 6d 71 be
       0.11236664 0.062635615 -0.14060476 -0.23577072
000390 86 0a 55 3d e0 ab 0d be f0 d4 28 be 99 d5 01 bd
       0.05201199 -0.13835096 -0.16487479 -0.031697843
0003a0 36 32 02 be a5 3b 37 3d 39 9f 13 be 77 6c 59 be
       -0.12714466 0.044734616 -0.14416207 -0.21232782
0003b0 24 e7 ce be b2 ff 2b 3c 7c df ad 3d 8e ea 63 3d
       -0.4041072 0.010497974 0.08489892 0.05564361
0003c0 ff 5d b4 3e 5c 69 fa 3b d7 dc d1 3c de 79 72 3e
       0.35227963 0.0076419543 0.025618 0.23679301
0003d0 cd f5 3a 3b 3b bb 1c be 2f d0 d1 3d 2a 0c 68 bd
       0.0028527856 -0.15305798 0.10244786 -0.056652226
0003e0 9b b9 2c be ec 93 bb bd d4 55 b6 3c 29 41 9c 3c
       -0.16867678 -0.09159073 0.022257723 0.01907404
0003f0 42 ff be be 91 7e 80 be 63 50 0f be 7a fc 4f 3d
       -0.3730412 -0.25096563 -0.13995509 0.05077789

conv2.bias f4 [32]
000000 29 70 f0 bd fd b2 35 bd 92 f1 73 3d 70 f5 18 bc
       -0.11740143 -0.04436015 0.05955655 -0.009335861
000010 80 cc 8c bb c4 10 74 bd 6a 54 f8 bd a2 36 9b bd
       -0.0042968392 -0.0595863 -0.12125476 -0.0757878
000020 98 e6 95 bd 3d db 6c bd 09 f9 c8 bd 9a d9 b4 3c
       -0.07319373 -0.05782627 -0.09813125 0.022076417
000030 48 e2 92 bd 35 e0 57 bd 38 f5 75 bd 39 bd 2e 3d
       -0.07172066 -0.052704055 -0.060048312 0.042660926
000040 06 08 89 bd 5e 00 1a be 98 f3 90 bd d2 14 7f bd
       -0.066909835 -0.15039203 -0.07077712 -0.062275715
000050 59 59 59 bd 02 a8 49 3d 29 4e 8f bd 53 e0 7e bd
       -0.053063724 0.04923249 -0.0699733 -0.06222565
000060 24 96 ee bd 60 6b 8a bd 6a 60 34 3b b0 de e7 bb
       -0.11649731 -0.067587614 0.0027523288 -0.007076107
000070 33 a6 99 bd 91 dc 2d bd ac ca 2a 3d 73 25 7a bd
       -0.07502403 -0.042446677 0.04169719 -0.06107087

fc1.weight f4 [32, 1568]
000000 ca f4 05 bd fa 95 80 bb fe 19 ef 3c a7 33 cb 3c
       -0.032704152 -0.0039241286 0.029187199 0.024804903
000010 54 ca e7 bc 22 b4 83 bc dd 57 95 bd ef d2 99 bc
       -0.02829472 -0.016077105 -0.07292149 -0.018777339
000020 05 78 25 bd 2a a9 90 3c a3 1f 29 bc dd ac 5b bc
       -0.040397663 0.017658789 -0.010322484 -0.013407913
000030 22 1e 37 bc 23 31 4a bc 57 24 5c 3b 43 2e 56 3d
       -0.011176618 -0.012340817 0.0033590996 0.052290212
000040 5a 14 1f bd ef c6 d6 bd b3 52 22 bc 4a fc 2b 3d
       -0.03883777 -0.10487162 -0.009907412 0.04198865
000050 f9 97 93 bc 03 54 4b 3d 16 be 09 3e 12 4b db 3c
       -0.018016802 0.049640667 0.13451418 0.026769195
000060 3b d9 1e bd f0 94 f8 3c da be b8 3c eb 26 03 3d
       -0.038781386 0.030344456 0.022551943 0.032019537
000070 0c 19 a3 3d 63 4e 25 bc 0a c3 85 3c c6 d1 30 3d
       0.07963762 -0.01008949 0.016328353 0.043168806
000080 1c ca ff bb 67 a4 ac 3b 3e fd 05 bc 60 fd b6 bd
       -0.0078060757 0.0052686217 -0.008178053 -0.08935046
000090 48 31 f0 bd 48 15 92 bd 6c b8 a1 bc 26 6a c8 3c
       -0.1172815 -0.07132965 -0.01974126 0.024464678
0000a0 2a 9d 4c 3d c5 72 66 3c 4a a9 86 bc 7a e0 c6 bd
       0.04995457 0.014065449 -0.016438145 -0.09710784
0000b0 36 79 41 bc c4 b0 3f 3d 9a 7c 57 3d c8 19 73 bc
       -0.011808684 0.046799436 0.052609064 -0.01483769
0000c0 7b 90 cf bc 29 c7 32 3c a4 10 9d 3c 80 24 75 3d
       -0.025337448 0.010911741 0.019172974 0.059849262
0000d0 50 79 86 3d 0b ea 4f bc 51 bc 0f be 80 60 22 bd
       0.06566107 -0.012690078 -0.14036681 -0.03964281
0000e0 62 25 d2 3c 3a c3 4b 3d 0a 9b 16 ba 77 11 0d bd
       0.025652591 0.04974673 -0.00057451485 -0.034440484
0000f0 e6 eb 26 bd c3 49 76 3c 2a 7f 61 bc ec df ed 3c
       -0.040752314 0.015032235 -0.013763228 0.029037438
000100 7d 6d 30 3d 76 d1 25 3d 69 56 fc 3d 97 b0 9a 3d
       0.043073166 0.04048296 0.12321169 0.07553213
000110 87 b7 d5 3c 5c 76 e8 bc 5f 98 af 3c 65 9a 03 3b
       0.02608849 -0.02837675 0.02143496 0.002008104
000120 1e a5 2d 3d 7b 97 ff bd e5 2d b8 bd a3 fc f2 3d
       0.042393796 -0.124800645 -0.08993129 0.11864593
000130 a3 c4 27 3e b5 d0 a2 3c 21 3b 89 3c 0a 1a e6 3d
       0.16383605 0.01987491 0.016751828 0.11235435
000140 2b 58 4f bd 29 d8 87 bc 3f d4 f3 3d 09 40 43 3e
       -0.050621193 -0.016582565 0.11905717 0.19067396
000150 f7 e0 8d 3c 0e ae 1d bc b1 a0 54 3d e3 55 04 bd
       0.017319186 -0.009624017 0.05191106 -0.03230847
000160 5d 49 75 3c cb d9 f3 3d 2a ee 3e 3e 56 2c 01 bd
       0.014971104 0.11906775 0.1864554 -0.031536423
000170 fc f0 fb bd 2e b8 c8 bd 7f 1e e0 bd 5e 48 f6 bd
       -0.123018235 -0.098007545 -0.10943317 -0.12025522
000180 e3 c2 04 bc cc d2 e0 3c 36 7e 73 3c 97 1f 93 bc
       -0.008103105 0.027444266 0.014861634 -0.0179594
000190 5c 00 68 bb ad 21 9b 3b 05 a8 12 b9 93 ed 09 bc
       -0.0035400605 0.004734239 -0.00013986237 -0.0084184585
0001a0 76 be 1f bc 95 ed f6 3b 57 0d 19 3a e9 b1 93 3d
       -0.009749999 0.007535646 0.00058384746 0.07211668
0001b0 05 a6 8c 3c 5e b0 1e bc 64 8c e2 bc 21 ac 8d bd
       0.017169008 -0.009685604 -0.027654834 -0.069175966
0001c0 2e ef 05 bd af 05 54 3d 17 5f 44 3d e2 0f 44 3c
       -0.032698803 0.051763233 0.047942247 0.011966677
0001d0 e7 ca 2e bc 4c 87 16 3d 26 6c e5 bd 43 02 18 3c
       -0.010668493 0.036750123 -0.11202268 0.009277883
0001e0 08 77 e0 3d d0 bb 3a 3c b8 a9 55 3c 8e b5 d3 bb
       0.109602034 0.011397317 0.013040952 -0.006460852
0001f0 15 e3 83 bb 4a dd 95 3d 0c e5 1a 3e 16 02 ab 3d
       -0.004024873 0.07317598 0.15126437 0.08350007
000200 77 a9 a0 3d b6 e5 94 bb 76 3a d1 bd a0 cd 6c bc
       0.07844823 -0.0045439852 -0.10216229 -0.014453322
000210 b0 11 e5 3c d8 19 2b 3e 60 15 60 3d ee cc 06 bd
       0.027962536 0.16709077 0.054707885 -0.03291028
000220 25 00 30 bd 42 1b c2 bd 2d c0 66 bc 07 7a 09 3c
       -0.042968888 -0.09477855 -0.014083904 0.00839091
000230 9f 60 db bd 8c a6 af bc ac 4c ea 3c dd 9c 7d bc
       -0.107117884 -0.02144172 0.028601013 -0.015479294
000240 34 d9 64 bd ab d3 2c bd 7f 3d 93 bc df e4 b7 bc
       -0.055871204 -0.04219405 -0.01797366 -0.022448001
000250 d1 31 2e bd 85 50 e6 3c eb b4 0f 3c 7e 40 07 bb
       -0.042527977 0.028114567 0.008771162 -0.0020637806
000260 3a 40 b0 bc c1 fa 81 bc 4f 04 03 3d 81 9e 02 3d
       -0.021515 -0.01586664 0.03198653 0.031889442
000270 41 f1 a1 3c b8 a5 1a bd c4 94 ce 3c 75 07 b0 ba
       0.01976836 -0.037755698 0.025217421 -0.0013429957
000280 38 c0 a2 bc 56 f5 25 3d e7 4c f0 bc 54 af 55 bd
       -0.019867048 0.040517174 -0.029333545 -0.05216916
000290 f7 c7 1e bd 62 3f 39 3d ab a7 ea 3d 66 e8 bc 3c
       -0.03876492 0.045226462 0.114577614 0.023060035
0002a0 96 92 03 3d a0 b4 59 bb 58 31 e3 bd 8f a8 ba 3d
       0.032122217 -0.0033219233 -0.11093396 0.09114181
0002b0 42 af a7 3d 1e 2b 89 3d b2 b6 bb bc f4 72 45 3d
       0.08187725 0.06697677 -0.022914264 0.04820533
0002c0 27 96 c0 3c 63 e1 e9 3d fd 0b 06 3e 97 00 17 3d
       0.023509098 0.11419942 0.1309051 0.036865797
0002d0 71 40 55 bd b5 cb 60 bc 46 df 7e 3d d7 bb 7d 3d
       -0.05206341 -0.013720443 0.06222465 0.061946716
0002e0 ea de 97 3d 37 52 66 3d a1 f3 81 bd 17 90 6a 3b
       0.07415564 0.05623075 -0.06345297 0.003579145
0002f0 f5 5b aa 3c 05 41 2b bd 3f 53 16 bd 36 18 84 3c
       0.020795802 -0.041810054 -0.036700483 0.016124826
000300 00 ff 6e bd 76 31 b3 bd e6 98 7e bc b0 79 84 3b
       -0.058348656 -0.08749668 -0.0155393835 0.0040428266
000310 1b e5 ca 3b 54 87 1c 3d 5a 52 a7 3c b7 2e dc bb
       0.0061918623 0.038214996 0.02042501 -0.006719436
000320 c7 d1 31 3d 8d 6a a2 3c cf 8f 53 bb ca 9f 80 3c
       0.04341295 0.019826198 -0.0032281762 0.015701193
000330 c6 67 8f 3b cd aa 1c 3d dd 13 7e bc 8c 05 4d bc
       0.0043763844 0.038248826 -0.015507665 -0.0125135295
000340 a2 be 9e 3c 6c 6e 02 3d 3b a2 f1 3c f3 de 8b 3d
       0.01937801 0.031843588 0.029496303 0.068296336
000350 0b cd 0e bd 70 cf 04 bd cb 1e a7 3c a4 86 0c 3d
       -0.034863513 -0.03242439 0.020400425 0.03430809
000360 35 49 31 bd ce 9a 06 3d 8f 93 92 3c 81 bd a8 bd
       -0.043282706 0.032862477 0.017892627 -0.0823927
000370 bf 10 b6 bc b7 92 84 bb 23 92 de 3d af 82 5f 3d
       -0.022224782 -0.00404581 0.10867717 0.05456799
000380 70 bb e5 3c 41 68 07 3e ac f1 af 3d 15 99 1b 3c
       0.028043479 0.13223363 0.08591017 0.009496947
000390 6d 51 c5 3c 31 68 06 3e 98 e0 84 3c 5c 05 b2 3b
       0.024086678 0.13125683 0.016220376 0.005432768
0003a0 30 b9 6c 3d 41 18 5d bd d8 a4 f2 bc 11 4f b4 3c
       0.057793796 -0.05397821 -0.02961962 0.022010358
0003b0 7f 46 b5 bc 57 2d 8d 3c a0 cc f2 bc a5 03 20 bd
       -0.022128342 0.017233534 -0.029638588 -0.039065976
0003c0 3f ca 4b bd 7c da 35 be 57 ac 2d bd 6a bc 87 3c
       -0.049753424 -0.17759126 -0.042400684 0.016569335
0003d0 b5 46 aa 3c 1b a9 e7 bc 3c e7 5b bd e9 a0 c1 bd
       0.020785669 -0.028278878 -0.05368732 -0.09454519
0003e0 8f af 02 3d 50 3b f2 bc d8 79 89 3b 93 c7 9c 3c
       0.031905707 -0.029569298 0.004195433 0.019138133
0003f0 09 a3 01 3c d5 2a b1 bc fc a3 d8 3c 00 7f 06 3c
       0.007912406 -0.02162687 0.026445381 0.00820899

fc1.bias f4 [32]
000000 41 4b 03 bb ae 31 b3 bc ba d3 54 3b 42 c3 c8 ba
       -0.0020033868 -0.021874275 0.0032474832 -0.001531698
000010 ed dc a0 3d c9 5e 8b 3c 12 e0 9d bc 5a 2d b1 bd
       0.07854638 0.01701297 -0.019271884 -0.08651228
000020 f2 07 39 bd 89 ff 23 3d 20 25 33 3d 0e e9 f6 3c
       -0.045173593 0.04003862 0.043736577 0.030140426
000030 3c 17 eb bc 43 21 1a 3c ca 44 d6 3a 9c 1c 8a bc
       -0.028697602 0.009407344 0.0016347405 -0.016859345
000040 13 d7 46 bd 2a 1a c8 bc 94 18 ba bc 12 02 59 3c
       -0.048544955 -0.024426538 -0.022716798 0.0132451225
000050 9b 82 4a bc e2 29 1b 3a 8f 19 0b 3c 0f cf 6a ba
       -0.01236024 0.0005919022 0.00848998 -0.0008957246
000060 0f de 2e 3c 4b 0f b9 3c 1f 40 49 bd 8b a9 87 3d
       0.01067306 0.0225903 -0.049133416 0.06624135
000070 65 61 88 3c 7b 58 89 bc 0c f0 c3 bc f1 ac ed bc
       0.016648004 -0.016765824 -0.023918174 -0.029013129

fc2.weight f4 [10, 32]
000000 f8 9c 8a be 40 28 66 3d d6 e0 23 3e de b7 87 be
       -0.27072883 0.05619073 0.16003737 -0.26507467
000010 dc 1b b6 be 9a 90 12 3e db 1e 12 3e 16 17 85 be
       -0.3556813 0.14312974 0.14269583 -0.25994176
000020 31 be 83 be 42 ef a7 be 3e 74 29 3e e6 9d af be
       -0.25731042 -0.32799727 0.16548249 -0.34300154
000030 43 f9 2b bd 14 05 1e 3e d2 ad c6 3b f3 fd 4b 3d
       -0.04198576 0.15431625 0.0060632015 0.04980273
000040 e7 4f 98 be fc a6 48 3d 92 30 6f 3d 86 43 21 be
       -0.2974846 0.048987374 0.05839593 -0.15748414
000050 3d 8a f5 3d 87 05 d3 be f6 a2 bd 3d 6f 22 72 3d
       0.119892575 -0.41215155 0.09259598 0.05911487
000060 81 62 bf be 84 6a 77 3e 51 a6 ea bd 8e a8 29 be
       -0.3737984 0.24161726 -0.114575036 -0.16568205
000070 40 79 5d 3e 8c 5b 02 3e e7 35 8a be b5 22 2e 3e
       0.21628284 0.12730235 -0.2699425 0.17005427
000080 ee 5b 36 3e 58 95 45 bd c3 82 b9 be 08 46 ed 3d
       0.17808506 -0.04823813 -0.36232576 0.11585623
000090 0c 35 24 3e a1 94 f3 bc a5 b9 0e be d5 45 58 be
       0.16035861 -0.029733958 -0.13938005 -0.21120389
0000a0 fb a9 3f be 8c 3b 2b 3e 85 2f 89 be 5a 3c 63 3e
       -0.18717186 0.16721934 -0.26794067 0.22190991
0000b0 95 b0 ae be db a5 7e be 80 42 f7 3c db 9d 0a 3e
       -0.34119096 -0.24867956 0.030183077 0.1353678
0000c0 57 81 47 be f2 fc a6 bd 9b 37 f3 3d 32 74 05 bc
       -0.19482933 -0.08153714 0.1187584 -0.008145379
0000d0 ed 82 84 3d ea c6 ed 3d 05 20 18 bd be 51 03 3e
       0.064702846 0.116102055 -0.03713991 0.12824151
0000e0 1d 94 59 3d 6c 58 17 3e ff bc 8b be 4a 69 80 3e
       0.053119767 0.14779824 -0.2729263 0.2508033
0000f0 f4 f2 4b be 3a 50 95 3d bb b4 ec bd bb 65 cb 3d
       -0.19916898 0.072906926 -0.11557909 0.09931513
000100 0e 5d 3d 3e 7c d0 ff 3d 62 5d be 3d 53 92 3f 3c
       0.18492529 0.12490937 0.09295155 0.011692601
000110 b9 40 89 be f0 36 2e 3e c6 0e 39 3d b8 3c 80 3d
       -0.26807192 0.17013144 0.045180105 0.06261581
000120 86 db 8e 3d d3 89 b0 3d 49 bd 5a be 05 94 de bd
       0.069754645 0.08620038 -0.21361269 -0.10868076
000130 81 33 97 be fd f9 03 3e ad 6b 42 bd 56 4f a6 3d
       -0.29531482 0.12888332 -0.04746597 0.08120601
000140 54 30 8e be da 96 c1 bd 97 ea 17 be 5d 2e 09 bd
       -0.27771246 -0.09452601 -0.14835583 -0.03349148
000150 63 f0 2d 3d 6b 7a 10 3e 34 e6 49 3c 2d 2f b9 be
       0.04246558 0.14109199 0.012322951 -0.36168805
000160 76 93 c0 be d6 46 db bd 18 3c 13 3e 39 39 87 3e
       -0.37612504 -0.1070687 0.14378393 0.26410845
000170 1d 79 26 3e 1f 05 2a be be 5d 09 3e 89 d5 d3 bb
       0.16257139 -0.16603516 0.13414666 -0.0064646644
000180 e6 8c 93 bd cc fb 69 3d 21 fc ba be 67 17 2d 3e
       -0.072046086 0.057124898 -0.36520484 0.16903459
000190 d7 82 33 3e 44 a1 0d 3d a5 57 c9 3d 42 62 b6 bd
       0.1753038 0.034577623 0.0983117 -0.0890546
0001a0 e5 fd 4f 3e f2 74 ec bd c1 14 bd 3d f9 a9 d6 bd
       0.20311697 -0.11545743 0.09232474 -0.104816385
0001b0 6f 68 5c be eb 9a a4 3d bd 00 92 bd 2a 4c cc bd
       -0.21524213 0.08037361 -0.07129047 -0.09975465
0001c0 b3 73 ec bd df 8e af 3b b3 00 1a 3e e6 26 db 3d
       -0.115455054 0.0053576077 0.15039329 0.10700779
0001d0 62 b5 9d bc 5e 61 0e 3e f2 cb f6 3c 0a ad cc be
       -0.01925153 0.1390433 0.030126546 -0.39975768
0001e0 ff 5f 3c 3e 20 af a8 be 2f 24 4c be 38 27 56 be
       0.18395995 -0.3294611 -0.19935678 -0.20913398
0001f0 85 15 cd 3d e7 ea 26 be de e1 23 3e 20 c9 ec 3c
       0.1001387 -0.16300546 0.1600413 0.028904498
000200 4b 0e a7 3d 4b 3a f4 3c 62 1a b7 be 25 b2 44 be
       0.08157023 0.029812953 -0.35762316 -0.19208582
000210 04 1d b6 be 73 1e 24 be 07 fa 9b bd ee c9 19 3e
       -0.35569012 -0.1602724 -0.07616048 0.15018436
000220 e6 5b 90 be 20 4e 5d 3e 71 ef 80 be ab d4 65 3e
       -0.28195113 0.21611834 -0.2518268 0.22444408
000230 2e d0 21 3e 95 13 41 be ed af df 3d a8 ea 33 bd
       0.1580207 -0.18855126 0.10922227 -0.043924958
000240 33 a1 57 3e 7f ff 17 be 55 d7 81 bc aa 34 17 bd
       0.21057586 -0.14843558 -0.015849749 -0.03691546
000250 3a 92 05 3d 15 ea 9b be a1 1b 04 3d a2 04 c6 bd
       0.032610156 -0.30452028 0.03225291 -0.096688524
000260 e3 97 a1 bd 58 ee 27 3e 93 b5 26 3e 74 6f 29 be
       -0.07890298 0.16399515 0.16280203 -0.16546422
000270 ac 0c 2b be ee 74 97 bc 05 cf a2 3d ee b4 05 be
       -0.16704053 -0.018488374 0.07949642 -0.130573
000280 24 ca 86 be 5c 98 31 be 99 a7 92 3d 35 c9 5f be
       -0.26326096 -0.17343277 0.07160873 -0.21854098
000290 e4 70 77 3e 78 d3 7a bd 5b 85 f4 38 cd fd f9 3d
       0.24164158 -0.06123683 0.00011659666 0.12206612
0002a0 dd d8 63 3e 67 e8 f2 3d 3b 68 fb 3d 1e f1 27 be
       0.22250696 0.118607335 0.1227574 -0.16400573
0002b0 7b 2a 38 3e b4 bd 3b be 5c e4 2e be d1 10 0c bd
       0.17984955 -0.18334085 -0.170793 -0.034195725
0002c0 2b e6 a9 bd c7 7e a3 3d 39 34 41 bd 74 71 dd bd
       -0.08295854 0.07983165 -0.047168944 -0.10812655
0002d0 91 a3 c1 bc ed 60 b4 be 3a 55 00 bd 60 a0 1c be
       -0.023637565 -0.35230199 -0.03133128 -0.15295553
0002e0 c0 c2 4a 3e 86 5e 81 be 41 6f 10 be 63 7d 43 be
       0.19800854 -0.25267428 -0.1410494 -0.190908
0002f0 fd c1 94 be 45 6a 5c bd 7b 63 54 be d8 6d 81 3d
       -0.2905425 -0.053812284 -0.20741074 0.06319779
000300 6f 99 9e be 8d e1 9d 3d e6 9d 27 be d8 6a f5 be
       -0.30976436 0.07709036 -0.16368827 -0.47933078
000310 f5 14 13 3e ce 28 1f 3e 48 9f ce 3c 45 5f 38 3e
       0.14363463 0.1554291 0.025222436 0.18005092
000320 fc 71 18 bd aa 94 a4 be 71 d6 04 3e 16 e4 3c be
       -0.03721808 -0.32144672 0.12972428 -0.18446383
000330 e6 fb 1d 3e 72 8f 90 be e7 79 93 3c 4c 02 92 3d
       0.15428123 -0.2823444 0.018002464 0.07129344
000340 88 f8 9b be f9 a9 ca bd 42 dd b7 3d c5 32 22 be
       -0.30463052 -0.09895701 0.089777485 -0.1583968
000350 fc fd 4f 3d a2 18 40 be 88 c4 e5 bc 65 5d 53 3e
       0.050779328 -0.18759397 -0.028047815 0.20641096
000360 da f9 0c be c4 33 f3 3d cc b5 38 3e 5b 06 70 3e
       -0.13767186 0.11875108 0.180381 0.23439924
000370 6d 7f bb 3d 2c 08 7b bc 13 97 c5 be 19 a4 d8 3c
       0.09155164 -0.015321773 -0.38591823 0.026445435
000380 de 19 28 3e 5b 91 75 bb 16 b1 c5 3d ef 8a 70 3e
       0.16416118 -0.0037470672 0.09652917 0.23490499
000390 58 33 86 3d 73 98 fa bd 3e 2d 97 bd 9c 3f b9 bc
       0.06552762 -0.12236109 -0.07381676 -0.02261334
0003a0 b3 b5 98 be 8c d2 c6 bd 8a b7 86 be 00 e5 7a 3e
       -0.29826126 -0.097081274 -0.26311904 0.24501419
0003b0 3a 0c 42 be 0a 28 e2 3d 13 05 66 3d fc 96 be 3c
       -0.18949977 0.11042793 0.056157183 0.023265354
0003c0 d2 ce 2a 3e c7 9b 1d 3e e0 43 1f be 32 d8 8d 3d
       0.16680458 0.15391456 -0.15553236 0.069260016
0003d0 f6 6c 13 be 7d e7 bd ba cb 66 ab bd 5e 08 6b be
       -0.14397034 -0.0014488545 -0.083692156 -0.2295241
0003e0 7f 43 70 be d9 3a 9d be d9 77 fb bd 9e 55 0b be
       -0.23463248 -0.3070896 -0.122787185 -0.13606879
0003f0 53 d8 76 be 9a 15 cc 3c c4 5b 36 3e da 4e 26 be
       -0.24105959 0.024912644 0.17808443 -0.16241017

fc2.bias f4 [10]
000000 d1 8b eb 3e 80 28 77 3e 05 78 96 be a1 cb 36 be
       0.4600511 0.24136543 -0.29388443 -0.17851116
000010 75 cc fb 3d 19 ee 5d 3e bd a1 42 be 84 6a 2c 3c
       0.122948565 0.21672858 -0.19007011 0.010523442
000020 4a dd 77 bd 63 c9 f7 bc
       -0.060513772 -0.030247396

exp_avg f4 [16, 1, 3, 3]
000000 11 a0 84 3b 28 b0 7d b7 7c 8f da 3a c6 e5 0a 3b
       0.0040474017 -1.512099e-05 0.0016674842 0.0021194085
000010 6c 44 fa 3a ec 37 5f 3b d9 d9 70 3a fa 82 01 3b
       0.0019093878 0.0034060432 0.0009187735 0.0019761906
000020 e2 44 a6 3b 39 58 aa 3b e1 31 d7 3b 4a 8a e0 3b
       0.0050741294 0.0051985052 0.0065672253 0.006852423
000030 d2 66 ff 3b 6b 01 ea 3b 22 85 a6 3b f8 ed 0f 3c
       0.0077942396 0.0071412823 0.0050817886 0.0087847635
000040 c4 02 97 3b 75 5d 80 3a 3f 66 a0 ba fd 34 55 ba
       0.004608484 0.0009793477 -0.0012237503 -0.0008133201
000050 cc 6c 8a ba 8a 60 eb b9 d9 d4 44 37 f1 53 94 b7
       -0.0010560988 -0.0004489462 1.1732068e-05 -1.7682063e-05
000060 74 66 f4 b9 9f b4 36 3a 39 d5 0b 3b 05 75 7a bb
       -0.0004661564 0.00069696637 0.0021336807 -0.0038216722
000070 59 ee 76 bb 44 00 73 bb 38 c8 47 bb 02 c5 28 bb
       -0.0037678687 -0.0037079016 -0.003048433 -0.0025752191
000080 83 7c 06 bb 01 d3 13 bb 18 45 b6 ba 85 df 0a ba
       -0.0020520992 -0.0022556188 -0.001390609 -0.0005297589
000090 51 6a 22 bb 94 cc e6 ba 50 0f 0b bb 1a 26 14 bb
       -0.0024782608 -0.0017608576 -0.0021218844 -0.0022605718
0000a0 be 19 85 39 fa 53 34 3b d9 47 3a ba ec 04 24 3b
       0.00025386916 0.0027515874 -0.0007106043 0.0025027348
0000b0 2d 55 c7 3b 74 ab 69 39 3e ec d7 b8 17 0b 0c bb
       0.006083152 0.00022284483 -0.000102960024 -0.0021368915
0000c0 d8 c3 d5 3a 5c 6f c5 3a 68 f9 d5 ba 25 17 bf ba
       0.0016308976 0.0015063095 -0.0016324939 -0.0014579041
0000d0 5b 8f 79 3a 5d ce 0c 3a d5 73 8b ba d0 9c ee 39
       0.0009519958 0.00053713267 -0.0010639379 0.00045511732
0000e0 fd 47 a9 3a 07 3d 4e ba c3 bd 0f 3a 82 7d 4e 3a
       0.0012915131 -0.000786737 0.0005483294 0.00078769785
0000f0 f1 29 6a 39 07 ac 6c 38 d2 86 f1 3a 77 89 41 bb
       0.00022331603 5.6426998e-05 0.001842702 -0.0029531398
000100 cf ec 1a bb c1 82 03 ba b7 9f 15 ba e7 e6 bd b7
       -0.0023639684 -0.0005016737 -0.00057076983 -2.2638078e-05
000110 bd 8b a2 3a bb c0 26 b9 9f bd a5 3a 63 23 2c 3a
       0.0012401264 -0.00015902791 0.0012645012 0.00065665523
000120 63 1c 5c bb 1c 27 ac bb e7 4f 6f bb d0 6d 77 bb
       -0.0033586256 -0.0052536856 -0.0036516131 -0.0037754662
000130 34 3d 59 bb cc 89 d6 ba e9 99 15 bb 23 b6 50 ba
       -0.0033148052 -0.0016367971 -0.0022827333 -0.0007961711
000140 60 a6 15 3a 76 9f ae bb 24 bf 86 bb 40 55 a0 b9
       0.0005708691 -0.005329068 -0.004112141 -0.00030581094
000150 bd 18 40 b9 f6 39 0a 38 4b c0 55 39 13 44 0f 3b
       -0.00018319763 3.2955744e-05 0.00020384898 0.0021860644
000160 46 d0 4e 3a ef 47 4a ba 15 3b dd 3a bd 25 4e 39
       0.00078893115 -0.00077164074 0.001687857 0.0001965975
000170 48 4d c7 b9 e7 e3 90 39 5f 24 a6 ba 5c d6 22 bb
       -0.00038013817 0.0002763562 -0.0012675634 -0.0024847006
000180 10 82 c9 ba 7b d1 1a bb ce 7f 41 bb 65 83 ed 38
       -0.0015373845 -0.0023623395 -0.002952564 0.00011325515
000190 3e e6 08 ba f7 bc 33 bb 18 53 03 bb d5 3c e3 ba
       -0.0005222297 -0.0027425864 -0.0020038541 -0.0017336855
0001a0 3e d2 82 bb bd b8 da ba 03 b9 2e bb 29 12 a1 bb
       -0.003992348 -0.0016687136 -0.0026660569 -0.004915495
0001b0 9e 12 98 3a 50 ee ae 3a cf 1a db 3a 32 44 06 ba
       0.0011602228 0.0013346169 0.0016716364 -0.0005121856
0001c0 7c c4 84 3a 2b 80 1e 3b af 43 0e bb ad a8 8b b8
       0.0010129358 0.002418528 -0.0021707823 -6.659455e-05
0001d0 d0 56 0f 3b 49 d2 03 bb 95 df 36 ba b7 6b 45 b9
       0.0021871813 -0.0020114353 -0.00069760653 -0.00018827511
0001e0 9b 75 bf ba 0d ae c6 3a df db 97 3b 31 e3 73 ba
       -0.0014607193 0.0015158072 0.004634365 -0.00093035685
0001f0 60 7e 11 3b 70 b9 e5 3b a4 3b 74 ba 2c f0 02 ba
       0.002220057 0.0070106313 -0.00093167485 -0.0004994895
000200 55 a0 a4 ba eb 4d 6f bb fa 2f 1c bb f1 f4 62 ba
       -0.001255999 -0.0036514949 -0.0023832307 -0.0008657715
000210 d2 28 ec bb 4e de d8 bb e0 ae 68 bb b1 0a 1b 3b
       -0.0072070146 -0.0066182977 -0.0035504624 0.0023657496
000220 4c ba 8e 3a 63 55 17 ba f1 a7 f0 3a 70 5f ee 3a
       0.0010889261 -0.00057729165 0.0018360597 0.0018186402
000230 46 dd 07 bb e8 b3 6f ba a9 52 96 bb c1 c1 cc bb
       -0.0020731254 -0.00091439346 -0.0045874906 -0.006248683

exp_avg_sq f4 [16, 1, 3, 3]
000000 62 56 fb 39 8b d0 62 39 66 b1 38 39 52 bc f8 39
       0.0004793881 0.00021630728 0.00017613693 0.00047442556
000010 13 5d b5 39 f5 de d6 39 8c 28 1f 3a 5f c9 4c 3a
       0.00034592356 0.00040983377 0.00060714106 0.0007811989
000020 74 5b 78 3a a0 06 17 3a 19 22 94 3a ee 72 90 3a
       0.0009474077 0.000576118 0.0011301666 0.001102058
000030 2f 14 88 3a 62 f1 91 3a 14 61 22 3a e9 16 6b 3a
       0.0010381992 0.001113456 0.00061942753 0.00089679525
000040 83 a8 d8 39 b7 91 15 39 ec e2 78 38 43 68 86 38
       0.00041324281 0.0001426403 5.9339145e-05 6.409038e-05
000050 a9 92 d1 38 1c 3f ca 38 ef 90 02 39 fa 6f 1c 39
       9.993214e-05 9.6438656e-05 0.00012451758 0.00014919034
000060 e0 1d 4a 39 12 10 55 39 85 e5 36 39 d5 9b a9 38
       0.0001927535 0.0002031925 0.00017442375 8.087574e-05
000070 ff 95 08 39 f7 cb af 39 b7 f1 3e 38 55 18 03 39
       0.00013025849 0.00033530567 4.5524645e-05 0.00012502198
000080 11 18 ce 39 7f 67 51 38 db e0 58 39 da 85 e2 39
       0.00039309313 4.992587e-05 0.0002068313 0.00043205806
000090 4b 61 b7 38 83 dc de 39 97 0f 94 3a 7a cb b3 38
       8.744242e-05 0.00042507434 0.001129615 8.5732856e-05
0000a0 9b 68 2f 3a 5e a4 a5 3a 2a 42 87 39 85 74 5a 3a
       0.00066913076 0.0012637486 0.00025798503 0.0008333403
0000b0 d1 82 ae 3a 8f 5a 5b 38 79 43 9e 38 78 9f 32 39
       0.0013314133 5.2298008e-05 7.546595e-05 0.0001703481
0000c0 96 98 01 38 e5 bd f0 37 7c ac 4f 38 d9 1c 00 38
       3.0898103e-05 2.8698656e-05 4.9513284e-05 3.0544445e-05
0000d0 09 83 14 38 52 c0 dc 37 41 da ed 38 8c c8 89 38
       3.5407986e-05 2.63156e-05 0.000113416936 6.570024e-05
0000e0 e6 c4 c7 38 d3 c0 5d 39 34 69 38 39 15 fc 50 39
       9.525735e-05 0.00021148035 0.00017586799 0.00019930334
0000f0 28 03 99 39 9b 82 9c 39 36 a4 88 39 e2 47 5c 39
       0.00029184786 0.00029851947 0.00026062288 0.00021007613
000100 5e bb 86 39 ac 6e 8f 39 66 1b 3c 39 a6 9d 3d 39
       0.0002569807 0.00027357542 0.00017939284 0.00018083173
000110 8b ae 23 39 39 28 b5 38 d4 45 7c 38 2c f8 6a 38
       0.00015609914 8.6382446e-05 6.0146514e-05 5.6021076e-05
000120 0c 39 7c 39 8b 8d dd 39 72 83 e2 39 ed c6 c5 39
       0.00024053844 0.00042257863 0.00043204013 0.0003772298
000130 4e 90 eb 39 6d 21 cf 39 d4 88 c7 39 bf c0 de 39
       0.00044930208 0.0003950702 0.00038058183 0.00042486747
000140 93 a4 a8 39 00 72 c4 39 0a af 1d 39 38 a0 5b 38
       0.00032166074 0.0003746897 0.00015037894 5.2362884e-05
000150 09 a2 75 39 35 5e 15 38 2e 43 22 38 eb 87 05 39
       0.00023425384 3.5612105e-05 3.8686376e-05 0.00012734502
000160 47 e5 16 38 eb ab 10 38 4e 52 fa 39 25 9c b3 39
       3.5976318e-05 3.4492386e-05 0.00047745038 0.00034257877
000170 58 a2 98 39 ac 47 18 39 6d 0c c8 38 8c e1 60 39
       0.00029112655 0.0001452255 9.539058e-05 0.00021446327
000180 9e 8c 65 38 22 25 91 38 21 40 6b 39 ae cf 57 38
       5.4728815e-05 6.921055e-05 0.00022435236 5.145341e-05
000190 20 b4 53 38 a8 ef 2a 39 f6 48 95 38 fd e1 ae 38
       5.0474075e-05 0.00016301742 7.118464e-05 8.33906e-05
0001a0 6b 6d bb 39 fd 1c c1 38 88 29 8a 39 5a 5d 15 3a
       0.00035748942 9.208357e-05 0.00026352354 0.00056978094
0001b0 29 93 12 3a 3a fe 8c 39 b0 fc 2d 39 aa 45 0d 3a
       0.00055913866 0.00026892294 0.00016592699 0.0005389104
0001c0 3d 6a d3 39 e9 63 d4 39 81 6d c8 39 5c c4 10 3a
       0.0004032421 0.0004051023 0.0003822856 0.0005522424
0001d0 a4 c4 14 3a f3 82 72 38 45 5f 92 39 99 10 70 3a
       0.00056750537 5.7819252e-05 0.0002791827 0.00091577467
0001e0 b1 0d 02 38 e7 c3 22 39 47 40 97 3a ae 48 04 38
       3.1007166e-05 0.00015522503 0.0011539542 3.153894e-05
0001f0 eb 17 e1 39 26 1c c3 3a 77 7f e8 38 71 cf 6c 38
       0.00042933165 0.0014885708 0.00011086364 5.645998e-05
000200 64 b4 19 38 34 f9 36 39 41 15 ca 38 af 0f b4 38
       3.6646044e-05 0.00017449708 9.6360694e-05 8.58599e-05
000210 28 41 9d 39 24 c5 6b 39 b2 7c 4d 39 25 d4 60 38
       0.0002999392 0.00022484787 0.00019596776 5.3603337e-05
000220 fd fb 4b 38 ce 8f 95 38 e5 6d 7e 38 e1 96 60 38
       4.8633654e-05 7.1316594e-05 6.0660666e-05 5.354628e-05
000230 ba 7c ab 39 e1 df 82 39 ac d0 ea 39 0a ff 6a 3a
       0.0003270859 0.00024962335 0.0004478743 0.00089643954

exp_avg f4 [16]
000000 1e 9d 76 3b 2c 3b a7 3b 01 34 8b 3b a6 09 7f 3b
       0.003763027 0.0051034894 0.0042481427 0.0038915663
000010 85 00 f8 3a 40 f6 84 bb f3 69 61 3a 82 14 82 ba
       0.0018921053 -0.0040576756 0.00085988565 -0.0009924325
000020 43 69 89 ba 84 88 0e 3a 5e 2c 88 3b a3 a1 15 3a
       -0.0010483641 0.00054372125 0.0041556796 0.00057079847
000030 8a 33 15 3a 61 eb 23 3b 1a cd c9 ba da 37 ae bb
       0.0005691579 0.0025012123 -0.0015396208 -0.0053167166

exp_avg_sq f4 [16]
000000 a0 0a 37 3a 61 c8 76 39 04 80 6d 39 18 9f 27 39
       0.0006982479 0.00023535035 0.00022649771 0.00015985628
000010 23 2b 96 39 74 24 75 39 ff 12 95 38 04 13 66 38
       0.0002864237 0.000233786 7.108412e-05 5.4853983e-05
000020 97 4d d7 38 c2 b7 8e 39 45 11 b1 39 cc f5 e1 39
       0.00010266451 0.0002722126 0.00033772938 0.00043098477
000030 12 6d 18 39 2d 3a b6 39 1a bc 2b 39 f4 64 02 3a
       0.00014536481 0.0003475709 0.00016377904 0.00049741496

exp_avg f4 [32, 16, 3, 3]
000000 f7 84 82 39 4a d1 17 3a 19 f1 db 39 4b d3 45 38
       0.000248946 0.00057913794 0.00041950567 4.7165242e-05
000010 fa e0 d7 38 7d ea 0b 3a 88 70 97 38 5f 4b 31 b8
       0.00010293904 0.00053373707 7.221202e-05 -4.2270283e-05
000020 2b 66 17 3a e6 c3 ad 39 b7 17 e2 39 8c 4c 00 3a
       0.0005775417 0.00033143087 0.00043123748 0.0004894219
000030 ca a2 96 39 fe eb 40 39 2e 97 89 37 f8 55 7e 39
       0.00028731517 0.00018398461 1.6402071e-05 0.00024255353
000040 03 a7 0e b9 c0 ea d5 39 8b 8e 27 3a 41 27 42 3a
       -0.00013604392 0.00040801428 0.0006391785 0.0007406362
000050 c1 f0 a0 39 31 8a 3e 39 1d 3a 18 39 cd 50 9e 39
       0.00030696954 0.00018171292 0.00014517498 0.0003019631
000060 b6 70 04 b7 12 68 42 3a 9d ef de 39 74 54 90 39
       -7.894056e-06 0.00074160204 0.00042521665 0.00027528743
000070 a4 82 53 39 bc f2 86 b7 bd 69 0d b9 f4 f2 a3 39
       0.00020171196 -1.6087077e-05 -0.00013486198 0.00031270797
000080 8f de fd 38 58 a6 2c b9 af 5c 32 3a f8 91 b5 39
       0.00012105435 -0.00016465166 0.0006803972 0.00034631765
000090 f2 e3 9c 39 de e5 61 39 c5 ef 6a 38 5a cc 37 38
       0.0002992447 0.00021543304 5.601325e-05 4.3820917e-05
0000a0 65 d8 8c 39 e0 20 d7 38 d0 5e 75 b9 8a f9 1e 3a
       0.00026864107 0.00010258122 -0.00023400341 0.0006064406
0000b0 6a e1 d2 39 97 b0 6c b8 e5 1d 25 b9 3a 35 a4 b8
       0.00040222268 -5.6431247e-05 -0.00015746763 -7.8300436e-05
0000c0 cf 56 b2 39 0a e3 ed 38 c3 a8 00 b9 3b 87 3e 38
       0.00034015483 0.0001134333 -0.000122699 4.5425473e-05
0000d0 c4 fd 1b b9 a1 90 57 b8 e5 fe 07 3a a7 fb 31 3a
       -0.00014876487 -5.139469e-05 0.00051878236 0.0006789513
0000e0 dd 09 48 39 b6 f6 bb 38 54 1c 6e 39 f9 92 82 39
       0.0001907716 8.962808e-05 0.00022708002 0.00024905035
0000f0 08 56 4e 39 2f bb 2a 3a 7e da 8d 38 9c 45 27 3a
       0.0001967774 0.0006512878 6.764101e-05 0.0006380917
000100 61 46 35 3a 82 f7 83 39 53 3e dd 39 88 9b 61 3a
       0.00069150893 0.00025170675 0.0004219884 0.0008606245
000110 df 51 47 39 f2 f8 3b 39 8c 82 d0 b8 9d 5b b3 b8
       0.00019008618 0.00017926449 -9.942529e-05 -8.5524494e-05
000120 88 cc fb 39 04 e4 57 3a 59 45 ef 39 9d 4e c9 39
       0.00048026838 0.0008235576 0.000456373 0.0003839628
000130 d0 8d 09 3a b3 8d ea 39 f7 f7 ff 38 ca cd 16 3a
       0.0005247267 0.00044737532 0.000122055346 0.0005752711
000140 0d 24 15 3a 0e 04 2b b9 59 1c 27 b9 11 ec ac 39
       0.0005689271 -0.00016309341 -0.00015936921 0.0003298228
000150 1c 21 2b 36 0a 98 2e 39 58 4e ab 39 22 a7 c4 39
       2.5500258e-06 0.00016650572 0.00032674032 0.00037508557
000160 b0 19 94 37 ed b9 12 3a 42 ed 0a 39 f6 d5 1f 39
       1.7654937e-05 0.0005597163 0.00013249091 0.00015243128
000170 0d a7 3f 39 18 72 bf 38 3c d2 3d 3a 0c 10 cb 38
       0.0001827741 9.128841e-05 0.0007241105 9.682783e-05
000180 6d 85 2f 39 ab 47 c9 39 dc 70 76 38 75 9c 09 3a
       0.00016739006 0.00038391104 5.875608e-05 0.0005249449
000190 a8 f7 d7 39 2e 56 90 38 5f a3 04 b8 ee 0a 4d 38
       0.00041192514 6.882507e-05 -3.1623404e-05 4.8885988e-05
0001a0 79 41 7c b8 97 2f 1e 39 fd 55 67 3a 78 ed c5 39
       -6.0142458e-05 0.00015085783 0.0008824764 0.00037751696
0001b0 a3 3e 96 b8 bc 38 95 39 ef 1f 8d 39 e8 06 74 b8
       -7.1642244e-05 0.00028461765 0.00026917408 -5.8180565e-05
0001c0 04 46 52 39 57 b7 30 3a 89 80 c4 39 d2 98 f7 b8
       0.00020053243 0.0006741187 0.000374798 -0.00011806343
0001d0 8c fb e3 39 2b 24 23 38 af e5 aa 38 cc ea df 37
       0.0004348423 3.8895912e-05 8.1490136e-05 2.6693007e-05
0001e0 b9 d8 13 b9 2c e7 92 39 69 d7 ba 38 d9 30 17 b9
       -0.00014099748 0.00028019527 8.9092944e-05 -0.0001441868
0001f0 a1 e1 16 3a e8 03 82 39 cf 09 a1 b7 47 8e 00 39
       0.0005755667 0.00024798443 -1.9197263e-05 0.00012260034
000200 f6 34 05 3a f5 a8 38 b7 14 f0 7a 38 64 84 29 3a
       0.0005081439 -1.1006593e-05 5.9828235e-05 0.0006466566
000210 ac cd e5 b8 68 bd 71 b8 38 de 11 3a a7 74 10 3a
       -0.0001095788 -5.7635276e-05 0.0005564424 0.00055105466
000220 85 33 a4 39 cd 8e 57 39 da 0c 05 39 e9 5f 4f 38
       0.00031318903 0.00020557195 0.00012688656 4.944197e-05
000230 95 84 51 32 c9 4a 8a 39 e8 e6 d9 39 43 b9 c9 36
       1.2195547e-08 0.0002637713 0.00041561504 6.011834e-06
000240 30 da 19 bb 7d 64 10 bb 7c 02 d8 ba fd 30 bf ba
       -0.0023475997 -0.0022032552 -0.0016480233 -0.0014586743
000250 a3 68 09 bb 40 5a 1c bb 60 e6 3e ba 99 0c 6f ba
       -0.002096691 -0.0023857504 -0.00072822534 -0.00091190037
000260 05 aa 81 ba 8f 6e 54 b9 f5 a9 be b9 ec 95 a4 ba
       -0.0009892589 -0.00020259082 -0.00036366252 -0.0012556887
000270 bd 96 bb ba c8 5f d8 ba 65 e6 ac ba 14 6e c3 ba
       -0.0014311891 -0.0016508037 -0.0013191222 -0.0014910125
000280 9b 12 c8 ba ae ff f1 ba f1 39 fa ba dc 36 22 bb
       -0.0015264334 -0.0018463039 -0.0019090754 -0.0024751937
000290 4e 1f 17 bb 2f c9 15 bb a3 54 18 bb c0 15 20 bb
       -0.002305943 -0.002285551 -0.0023243807 -0.0024427027
0002a0 a4 4c 98 ba 46 dd 8b ba 83 23 21 bb 71 aa 81 ba
       -0.001161952 -0.0010670803 -0.0024587817 -0.0009892714
0002b0 f6 29 89 ba f5 69 c1 ba 62 61 bf ba 76 d6 a0 ba
       -0.0010464776 -0.0014756309 -0.0014601166 -0.0012270946
0002c0 6a df cc ba fd cf a5 ba b5 a7 87 ba 2e 95 28 bb
       -0.0015630547 -0.0012650486 -0.0010349663 -0.0025723684
0002d0 99 99 c5 b9 72 13 66 ba 7e c9 d2 ba 1f 8d a8 ba
       -0.00037689207 -0.0008776701 -0.0016081778 -0.001285944
0002e0 28 5d 94 ba ff 7c 93 ba d4 41 98 ba 0d 70 7f ba
       -0.0011319267 -0.0011252462 -0.0011616298 -0.0009744175
0002f0 0f 14 f7 ba 81 3b c8 ba 15 f6 c2 ba c4 0b e5 ba
       -0.0018850582 -0.0015276523 -0.0014874364 -0.001747482
000300 1a e2 8b ba 85 96 bb ba c1 03 a7 ba 87 44 de ba
       -0.0010672242 -0.0014311826 -0.0012742208 -0.0016957679
000310 2b 92 0e bb 82 6c 0b bb 7d e7 ec ba e7 c1 05 bb
       -0.0021754603 -0.0021274392 -0.001807436 -0.0020409764
000320 f3 34 d0 ba 89 bf f5 ba cb 35 05 bb 1f 85 25 bb
       -0.0015884921 -0.0018749099 -0.0020326253 -0.0025256348
000330 e6 d5 74 ba 67 58 69 ba c2 a9 03 bb 1f d9 f4 39
       -0.00093397347 -0.00089014176 -0.0020090197 0.00046701074
000340 d0 d8 29 38 df 8d bd ba 46 dc f1 ba b4 a8 20 bb
       4.0494662e-05 -0.0014461837 -0.0018452487 -0.0024514617
000350 25 7d 04 bb 15 26 26 bb e7 a8 41 bb 56 a7 6c bb
       -0.0020216194 -0.0025352289 -0.0029550137 -0.0036110482
000360 b6 65 82 ba 5d 9d da ba d3 61 1a bb f1 38 44 bb
       -0.0009948525 -0.0016678978 -0.0023556843 -0.0029941166
000370 fb 13 57 bb 5b d7 7a bb 08 fa 23 bb 30 19 36 bb
       -0.0032818306 -0.0038275335 -0.0025020856 -0.002778601
000380 59 60 84 bb 7f 10 8e ba 4b 5d 67 ba 26 fb ca ba
       -0.004039806 -0.0010838656 -0.00088258524 -0.0015486225
000390 2c f7 c2 ba 3d 07 c2 ba 5f d1 e6 ba fa a0 0e bb
       -0.0014874688 -0.0014803183 -0.0017610005 -0.002176343
0003a0 b6 7a 05 bb 0f 9a 0c bb 51 ab 28 b8 3b 53 a9 b9
       -0.002036733 -0.002145413 -4.0213872e-05 -0.00032296203
0003b0 02 78 2b ba 87 8d 53 ba 72 4e 54 ba cf b4 93 ba
       -0.0006541015 -0.00080701004 -0.00080988475 -0.0011269095
0003c0 23 2f b5 ba e9 68 c7 ba c5 80 12 bb 84 c5 06 bb
       -0.0013823252 -0.0015213761 -0.0022354585 -0.0020564506
0003d0 7f 7c 0d bb 6a e0 d3 ba 1d ab 0b bb 79 54 ee ba
       -0.0021589098 -0.0016164903 -0.0021311708 -0.0018183134
0003e0 58 a1 0f bb 5c 0e 60 ba 36 fd 6c ba a7 61 30 bb
       -0.0021916237 -0.00085470616 -0.0009040417 -0.0026913674
0003f0 9e 17 6a ba c1 5a 36 ba fd 01 8a b9 28 80 74 ba
       -0.0008929911 -0.00069562724 -0.00026322893 -0.0009326958
