26_03_2024/lightning_logs/version_0/checkpoints/epoch=9-step=7500.ckpt (torch, 744472 bytes, 30 tensors)

conv1.weight f4 [16, 1, 3, 3]
0	0x3e9326da	0.2874058
1	0xbeb480c5	-0.35254493
2	0x3d950589	0.07276446
3	0x3eb6e3d7	0.35720703
4	0xbee90839	-0.45514086
5	0x3dcab48d	0.098977186
6	0x3eb5a0f4	0.3547436
7	0xbe50a7be	-0.20376489
8	0xbe18d2fe	-0.14924237
9	0x3e64866a	0.223169
10	0xbea3ae99	-0.31969145
11	0xbedf714f	-0.43641135
12	0xbe3c8178	-0.18408763
13	0xbef5584f	-0.47918937
14	0xbef63c93	-0.4809309
15	0x3e7d563b	0.24739926
16	0x3e8d77d9	0.276305
17	0xbe0a1a58	-0.13486612
18	0xbe92c431	-0.28665307
19	0xbe247067	-0.16058503
20	0x3ee8ae37	0.45445415
21	0xbf0ce6d5	-0.5503972
22	0xbb6346a3	-0.0034679554
23	0x3f04488f	0.51673216
24	0xbe57162c	-0.21004552
25	0x3cd6d3df	0.026224075
26	0x3e3422c2	0.17591384
27	0x3e4ce11c	0.20007747
28	0x3ea7aac4	0.3274747
29	0x3e1b9c0b	0.15196244
30	0xbe2faf24	-0.17156655
31	0x3de7650b	0.11298569
32	0x3e7fb971	0.24973084
33	0x3ea54941	0.3228245
34	0xbeb49533	-0.3527008
35	0xbeae0144	-0.3398534
36	0x3e678e09	0.22612776
37	0x3c95170c	0.018199466
38	0x3c4d796c	0.012541156
39	0x3e988287	0.29787084
40	0xbee31e60	-0.44359112
41	0x3e54147b	0.20710938
42	0x3e23bbed	0.15989657
43	0xbea84f23	-0.32872877
44	0x3e3195c8	0.17342293
45	0x3d09c8e2	0.033638842
46	0x3e288625	0.16457422
47	0xbe8f6b46	-0.2801153
48	0x3e86db87	0.2633936
49	0x3dd9416d	0.10608182
50	0xbe92bcf9	-0.286598
51	0x3ea3f452	0.3202234
52	0x3e84c9ed	0.25935307
53	0xbf0f1e1b	-0.5590531
54	0xbdd04aca	-0.10170515
55	0xbec5c873	-0.38629493
56	0xbd65579d	-0.055991758
57	0xbe9b9a1d	-0.30391017
58	0xbdd419c0	-0.10356474
59	0xbe84ae65	-0.25914302
60	0x3d1bdb5d	0.038050998
61	0xbe86444e	-0.26223987
62	0xbe40e582	-0.1883755
63	0x3db9a59b	0.0906479
64	0xbd838ac1	-0.064229496
65	0xbec10f25	-0.37706867
66	0x3e6d066a	0.23146978
67	0x3e3b9f15	0.18322404
68	0x3e5f76a5	0.21822603
69	0x3eb6d35c	0.3570813
70	0x3e5723b0	0.21009707
71	0xbda8dc39	-0.08245129
72	0x3e069b82	0.13145259
73	0x3e75bd5f	0.2399802
74	0x3e994418	0.29934764
75	0x3e958dd2	0.29209763
76	0x3e0bfb9f	0.13670205
77	0xbcdb7aa4	-0.026791878
78	0xbeb2ea37	-0.34944317
79	0xbe45fbe7	-0.19334374
80	0xbefdf7d9	-0.49603155
81	0x3e6355f9	0.22200765
82	0xbeebfa75	-0.4608952
83	0x3e9b8342	0.3037358
84	0xbdfbc7ef	-0.12293994
85	0xbdf3a355	-0.118963875
86	0x3e6a82a5	0.229014
87	0xbe174d01	-0.14775468
88	0xbe8e4033	-0.27783355
89	0x3ec59717	0.38591835
90	0x3db125a2	0.08649756
91	0xbe4e07c9	-0.20120157
92	0x3e2b513c	0.16730207
93	0xbe8ee516	-0.27909154
94	0xbe188824	-0.14895684
95	0x3eb595c0	0.35465813
96	0x3e1eaee1	0.15496399
97	0x3e0ed087	0.13946734
98	0xbe6bfb3a	-0.23045054
99	0x3e324921	0.17410709
100	0xbbde48d7	-0.0067835855
101	0x3d69728d	0.05699401
102	0xbe4f2927	-0.20230542
103	0x3e993668	0.2992432
104	0xbde0f1f8	-0.10983652
105	0xbe77513b	-0.2415208
106	0x3ee101bf	0.43946645
107	0xbe8d00a6	-0.27539557
108	0xbdefe7cd	-0.11714134
109	0xbeb764e4	-0.3581916
110	0xbd986316	-0.07440774
111	0xbec3e87f	-0.38263318
112	0xbf15c7e3	-0.5850813
113	0xbecda7ac	-0.40166986
114	0x3cf2c639	0.029635536
115	0xbeb73e84	-0.35789883
116	0xbda32545	-0.07966093
117	0xbe635e1d	-0.2220387
118	0xbf1ceb3f	-0.6129646
119	0xbee3d622	-0.44499308
120	0x3f01cfc0	0.50707626
121	0x3d85c5c9	0.06531865
122	0xbd488450	-0.048954308
123	0x3e89d0a4	0.26916993
124	0x3d6832d1	0.056689087
125	0xbe17c4b5	-0.14821132
126	0x3d06b5af	0.03288811
127	0xbe8ff37b	-0.28115448
128	0xbee9ff3a	-0.45702535
129	0xbe2a105b	-0.16607802
130	0xbd3c19b2	-0.045922942
131	0xbe9ce468	-0.3064301
132	0xbe719ea9	-0.2359568
133	0x3e049983	0.12949185
134	0x3f128584	0.5723498
135	0xbf32e2fa	-0.6987759
136	0x3ee903c1	0.45510677
137	0xbda041cc	-0.0782505
138	0xbe966833	-0.29376373
139	0x3eb59dd9	0.3547199
140	0x3dca6dc1	0.09884215
141	0x3c35d635	0.011098434
142	0xbe48997b	-0.19589798
143	0x3ea2c479	0.31790522

conv1.bias f4 [16]
0	0xbc70f225	-0.014706169
1	0xbef24fbe	-0.47326463
2	0x3d85bbdc	0.06529972
3	0xbe3eecb2	-0.1864498
4	0xbe87ecc2	-0.2654782
5	0x3cd3574f	0.025798468
6	0xbf214ca6	-0.6300758
7	0xbd9e31d5	-0.077243485
8	0xbc50c3da	-0.012742007
9	0xbc30a582	-0.010781648
10	0x3eeb6806	0.459778
11	0x3e9cf0e8	0.30652547
12	0xbe7e99c4	-0.24863344
13	0xbe72eafa	-0.23722449
14	0xbe9c6eaa	-0.3055318
15	0x3d330832	0.043708988

conv2.weight f4 [32, 16, 3, 3]
0	0x3e68344f	0.22676204
1	0x3e918376	0.2842061
2	0xbdd2f3ff	-0.10300445
3	0xbda0dfa1	-0.07855154
4	0x3e5700a6	0.20996341
5	0xbe663834	-0.22482377
6	0xbcc4b28f	-0.024010925
7	0x3cc0f7b0	0.023555607
8	0xbe90de9b	-0.28294834
9	0x3ead8a66	0.33894652
10	0x3e351319	0.17683066
11	0x3e073ad4	0.13206035
12	0x3dad7237	0.084690504
13	0x3dfe6ff9	0.12423701
14	0x3d8b915e	0.06814836
15	0xbe4fcdde	-0.20293376
16	0x3d01b32c	0.031665012
17	0xbdb0afe3	-0.08627298
18	0xbd9e2ddc	-0.07723591
19	0x3e2d4c4b	0.16923635
20	0x3df6cecc	0.12051162
21	0xbe2099e2	-0.15683702
22	0x3d90bc28	0.07067138
23	0x3d247fc5	0.040160913
24	0xbdac6277	-0.08417218
25	0xbd7c3ef5	-0.061583478
26	0x3dacef83	0.08444121
27	0xbdb20909	-0.086931296
28	0xbd15db79	-0.03658626
29	0xbd73d33e	-0.059527628
30	0x3b2e67a8	0.0026612077
31	0xbd78bfdd	-0.06072985
32	0x3e132246	0.14368543
33	0x3d6cf065	0.057846446
34	0xbc8464fa	-0.01616143
35	0x3be39e77	0.0069463807
36	0xbbe2827c	-0.0069125276
37	0x3e7b9058	0.24566782
38	0xbde35666	-0.111004636
39	0xbddf4a7a	-0.10902877
40	0x3d02b4bf	0.031910654
41	0xbddce55d	-0.10785935
42	0x3d5219ca	0.051294126
43	0x3da21f6c	0.079161495
44	0xbd467ba9	-0.048457775
45	0x3eab72ce	0.33486027
46	0xbdb717f0	-0.089401126
47	0x3d5a7a45	0.05333926
48	0x3e66d9e7	0.2254406
49	0x3dca0d26	0.09865789
50	0xbe339b1f	-0.17539643
51	0x3e098f7f	0.13433646
52	0x3e36a394	0.17835838
53	0xbdd32c1c	-0.103111476
54	0xbcd41ddc	-0.025893144
55	0x3e3b06d7	0.18264328
56	0x3d03cf24	0.032179967
57	0xbe023115	-0.12714036
58	0x3e1f153d	0.15535446
59	0x3dc2ebec	0.09517655
60	0xbe3da4bd	-0.18519874
61	0x3dc8b070	0.09799278
62	0x3d4e4b59	0.050364826
63	0x3be92137	0.007114555
64	0x3d1cf8ee	0.038323335
65	0x3bd1d2d0	0.0064033046
66	0x3de93492	0.1138698
67	0xbb886e92	-0.0041635716
68	0xbc690c6a	-0.014224151
69	0x3d19a257	0.037508335
70	0xbc3eb227	-0.0116391545
71	0x3e00bb8e	0.12571546
72	0x3cbb8247	0.02288927
73	0xbdd608ea	-0.10450919
74	0x3d7590d6	0.05995258
75	0xbd06196f	-0.0327391
76	0x3de71b16	0.11284463
77	0x3d8ffa77	0.07030194
78	0xbcb9e9e9	-0.022694545
79	0xbd336eb0	-0.04380673
80	0xbb9ce9e3	-0.0047886237
81	0xbc874190	-0.016510755
82	0x3e5432d7	0.20722519
83	0xbe178f0c	-0.14800662
84	0xbe59a9e5	-0.21256216
85	0x3e3c7639	0.18404473
86	0xbddeb0ac	-0.10873541
87	0xbe026273	-0.12732868
88	0x3a0f4ce8	0.0005466477
89	0xbe500bb2	-0.20316961
90	0xbd315313	-0.043292116
91	0x3c271950	0.010198906
92	0x3d1ff6c3	0.03905369
93	0xbccd4bb1	-0.025060507
94	0x3cc6f89d	0.02428847
95	0x3d7027a9	0.058631573
96	0xbcb430d8	-0.021995947
97	0xbd9d28db	-0.07673808
98	0xbd13b275	-0.03605886
99	0x3cfc06a7	0.03076489
100	0xbe2f721f	-0.17133377
101	0xbc5bc710	-0.013414159
102	0x3dab6652	0.083691254
103	0xbe13f100	-0.14447403
104	0x3d29512f	0.04133719
105	0x3d918507	0.07105451
106	0xbc15c192	-0.009140389
107	0xbbb862cc	-0.005627012
108	0xbd7d14cf	-0.061787423
109	0x3d13e562	0.03610743
110	0x3df8f8ac	0.121568054
111	0xbe5dce26	-0.2166067
112	0x3db45758	0.08805722
113	0x3ba756ed	0.005106798
114	0xbdc23de6	-0.094844624
115	0x3db81f8a	0.089903906
116	0xbd61a23d	-0.055086363
117	0x3da1eda2	0.07906653
118	0x3d35c267	0.04437485
119	0xbd2246fd	-0.03961848
120	0x3d77c085	0.060486335
121	0xbceca4c1	-0.028887155
122	0xbdda6f7c	-0.10665795
123	0xbe20540b	-0.1565706
124	0xbcdd0a6d	-0.02698251
125	0xbca3162a	-0.01990803
126	0x3d366164	0.044526473
127	0x3defd16d	0.11709867
128	0x3deb0c1f	0.11476921
129	0xbe30f51b	-0.17281
130	0xbdf383cd	-0.118903734
131	0x3e321bce	0.17393419
132	0xbc39662b	-0.011315863
133	0xbdf53f89	-0.11975009
134	0xbd780e8a	-0.06056074
135	0x3a95163c	0.0011374424
136	0x3d988ed1	0.07449115
137	0x3df24faf	0.11831605
138	0x3d2246c4	0.03961827
139	0x3daafc7d	0.083489396
140	0x3d95be65	0.073117055
141	0x3cf4c9e2	0.029881421
142	0xbe1e1bb8	-0.15440261
143	0xbc905345	-0.017617831
144	0xbd13ea6f	-0.036112245
145	0xbd45c337	-0.048281875
146	0x3e077043	0.13226418
147	0x3caeaa09	0.021321313
148	0x3ca225c6	0.019793402
149	0x3d5dcb30	0.054148853
150	0x3d700946	0.058602594
151	0xbd4a3dd0	-0.049375355
152	0xbce2a729	-0.027667599
153	0x3ce0582f	0.0273858
154	0xbcc8de0d	-0.024519945
155	0xbe6108a6	-0.21975955
156	0x3e69b26d	0.2282197
157	0x3d99a764	0.0750263
158	0xbdd16b99	-0.10225601
159	0x3db2ee1a	0.087368205
160	0x3d09a0f9	0.03360078
161	0xbd094132	-0.03350944
162	0xbe0c5f6d	-0.13708277
163	0x3e135e3f	0.14391421
164	0xbdae965b	-0.08524772
165	0xbf0bb04a	-0.5456587
166	0x3e9c0046	0.3046896
167	0x3c80964b	0.015696665
168	0xbee3a719	-0.44463423
169	0x3dfb39ac	0.122668594
170	0xbe039064	-0.1284805
171	0x3d8b5624	0.068035394
172	0x3ddc05ba	0.1074328
173	0xbcc2e309	-0.0237899
174	0xbb711a90	-0.0036789514
175	0xbbf7b0c1	-0.0075589125
176	0x3cc532fd	0.024072165
177	0xbd126776	-0.0357432
178	0x3c85b611	0.016322168
179	0x3c86057e	0.01636004
180	0xbc1ed516	-0.009694358
181	0x3e62438e	0.22096083
182	0x3dd4e32d	0.10394893
183	0x3da83470	0.08213127
184	0x3e0e5975	0.13901313
185	0xba9c47e4	-0.001192328
186	0xbd9b797d	-0.075915314
187	0x3deb2207	0.114810996
188	0x3d980386	0.07422547
189	0x3e274791	0.16335894
190	0xbe847058	-0.2586696
191	0xbd44275c	-0.0478891
192	0x3e851f8f	0.2600064
193	0xbe49bd10	-0.19701028
194	0xbdb497bc	-0.088180035
195	0x3e316026	0.17321834
196	0xbe97d67c	-0.29655826
197	0x3bdb0fb2	0.0066852206
198	0xbc91cc44	-0.017797597
199	0x3c174682	0.009233119
200	0xbd56167c	-0.052267537
201	0x3ded98b7	0.11601394
202	0x3e16a9ed	0.14713259
203	0xbd1b8bad	-0.037975002
204	0x3d477e13	0.048704218
205	0x3d98cf03	0.07461359
206	0xbd911d53	-0.07085671
207	0xbc6a5101	-0.014301539
208	0xbd4ac630	-0.049505413
209	0x3cc87541	0.024469974
210	0x3b1ab880	0.0023608506
211	0xbdd338d6	-0.10313575
212	0x3dd870e1	0.10568405
213	0xbcc1c458	-0.023653194
214	0x3ba01e3c	0.0048864167
215	0x3cf244c9	0.029573815
216	0x3caebdf3	0.02133081
217	0xbce1feba	-0.027587283
218	0x3ca486cb	0.020083806
219	0xbe090f9f	-0.13384865
220	0xbe1547fe	-0.14578244
221	0x3d4941c1	0.049134973
222	0xbd2e4d52	-0.042554207
223	0xbdfbccb5	-0.12294904
224	0xbc8c49b6	-0.017124992
225	0xbe3d6674	-0.18496114
226	0x3e178020	0.1479497
227	0xbe226a19	-0.15860786
228	0xbe6825eb	-0.22670715
229	0x3e56e8d4	0.20987254
230	0xbd864b74	-0.0655736
231	0xbe39b6ff	-0.18136214
232	0x3e8f5617	0.2799537
233	0xbe332bda	-0.17497197
234	0x3cfd0f58	0.030891106
235	0x3ccc5887	0.024944557
236	0xbc7453c6	-0.014912551
237	0xbcaa4cce	-0.020788576
238	0x3bb4f941	0.0055228774
239	0x3dc87a94	0.09789005
240	0xbd233735	-0.03984757
241	0x3d29da1c	0.04146777
242	0x3da79b0e	0.08183871
243	0x3d86fde5	0.06591395
244	0xbd895813	-0.06706252
245	0x3d9e936e	0.07742964
246	0xbd89a155	-0.06720225
247	0x3d5627c2	0.05228401
248	0xbccd71cb	-0.025078675
249	0xbd000fa6	-0.031264924
250	0xbba59130	-0.005052708
251	0x3d33f897	0.043938246
252	0xbd538f03	-0.05165006
253	0xbdb0f284	-0.08640006
254	0xbe48f93d	-0.19626327
255	0x3e53a02f	0.20666574

conv2.bias f4 [32]
0	0xbe694f3b	-0.2278413
1	0xbcc03d30	-0.023466676
2	0xbe181f46	-0.1485568
3	0xbe1218ea	-0.14267316
4	0xbd0eea8b	-0.034891646
5	0xbd80d2ec	-0.0629023
6	0x3e990af8	0.2989118
7	0x3e1ed9f7	0.15512834
8	0xbe45f06f	-0.1933
9	0x3d87a6c4	0.06623605
10	0x3e3865f5	0.18007644
11	0x3d9d07a8	0.07667476
12	0x3e71846b	0.2358567
13	0xbdfb8b7b	-0.12282463
14	0xbe5c215b	-0.21497099
15	0xbdb0b13e	-0.08627556
16	0xbe3d2653	-0.18471651
17	0xbc6a90f8	-0.01431679
18	0x3e8eae61	0.27867416
19	0x3e9089c7	0.28230116
20	0xbdc96b3d	-0.09834907
21	0xbd82593b	-0.063646756
22	0xbd98577f	-0.074385636
23	0x3cfc8f46	0.030830037
24	0xbd1ae22a	-0.037813343
25	0xbdce7875	-0.10081569
26	0xbd4ab2e6	-0.049487017
27	0xbe41789b	-0.18893664
28	0xbdefd419	-0.11710376
29	0x3e3e388b	0.18576257
30	0xbe40ebe1	-0.1883998
31	0x3dab6ed3	0.083707474

conv3.weight f4 [64, 32, 3, 3]
0	0x3c9c2d73	0.01906464
1	0xbdc3b83a	-0.09556623
2	0x3d498a3b	0.049204092
3	0x3d7850d2	0.06062395
4	0xbd6588e9	-0.05603877
5	0x3c29625f	0.010338395
6	0xbc177064	-0.009243105
7	0x3dd55379	0.10416312
8	0xbb814df2	-0.0039460594
9	0xbd4ea0ea	-0.05044643
10	0xbd7f0015	-0.062255938
11	0xbc3db5ab	-0.011578958
12	0xbd2af90d	-0.04174142
13	0x3d414507	0.04718497
14	0xbd80884c	-0.062759966
15	0xbdac4732	-0.08412017
16	0xbdd4e076	-0.10394375
17	0xbdd9d2fa	-0.10635944
18	0xbdf673fa	-0.120338395
19	0x3d8a544c	0.067543596
20	0x3cfd07f1	0.030887576
21	0x3cae79ad	0.021298254
22	0x3d43d9f9	0.047815297
23	0xbd76fef1	-0.060301725
24	0xbda08cdd	-0.078393675
25	0x3e872256	0.26393384
26	0x3df05ce4	0.117364675
27	0x3dff9aba	0.124806836
28	0xbe46ebc3	-0.19425873
29	0xbe4efacd	-0.2021286
30	0xbdbf6e35	-0.09347192
31	0x3d129f8a	0.03579668
32	0x3d28107c	0.041031346
33	0xbde70160	-0.11279559
34	0x3eeac9bc	0.45857036
35	0x3d829c29	0.063774414
36	0xba9b2b44	-0.0011838456
37	0xbd2afc6d	-0.04174464
38	0x3e0c0a4f	0.13675807
39	0x3dcaf7fa	0.09910579
40	0xbe12d921	-0.1434064
41	0x3d3f27d0	0.046668828
42	0x3cc94a04	0.024571426
43	0xbbd35c80	-0.006450236
44	0xbe07aa97	-0.13248669
45	0x3d2dc7d5	0.042426903
46	0x3e42c139	0.19019021
47	0xbbe9056c	-0.007111242
48	0xbda41467	-0.08011704
49	0x3dc7043b	0.09717604
50	0xbd2c7d61	-0.04211176
51	0xbd30b6b6	-0.043142997
52	0xbd37a8be	-0.04483866
53	0xbe4d1d02	-0.20030597
54	0xbe13d58b	-0.14436929
55	0x3c975386	0.018472444
56	0xbddcfee0	-0.10790801
57	0x3dbbefd0	0.091766
58	0x3e3918a1	0.18075801
59	0x3e8c0419	0.27346876
60	0x3d80b64a	0.06284769
61	0x3d8e034f	0.06934225
62	0x3e1882f2	0.14893702
63	0xbdd16efa	-0.10226245
64	0xbe50ad70	-0.20378661
65	0x3e515fc4	0.20446688
66	0x3d7036af	0.0586459
67	0xbdfd4709	-0.123670645
68	0xbe1aa6f4	-0.1510275
69	0x3dc04c46	0.09389548
70	0xbd4dd278	-0.050249547
71	0xbe7a3c3d	-0.24437042
72	0xbd88970e	-0.066694364
73	0x3c37bad9	0.011213982
74	0x3d1b4895	0.037911016
75	0x3c0ee80d	0.008722317
76	0xbe053c07	-0.1301118
77	0xbd6af077	-0.05735823
78	0xbe27c7c1	-0.16384794
79	0xbe1a5d15	-0.1507457
80	0x3d7d2418	0.061802
81	0x3c56f5f9	0.013120168
82	0x3be47a32	0.0069725746
83	0x3e33ce78	0.1755923
84	0xbc853611	-0.016261132
85	0xbccbf0f1	-0.024895163
86	0x3cd2dac6	0.025739085
87	0x3d9bd360	0.07608676
88	0x3c8c387b	0.017116776
89	0xbe767e77	-0.2407168
90	0x3d342ce9	0.043988142
91	0x3e3d95e2	0.18514207
92	0xbdcab062	-0.098969236
93	0x3d7440c6	0.059632085
94	0xbb98cdf3	-0.004663223
95	0xbe1e8153	-0.15479021
96	0x3d94da06	0.07268147
97	0xbdf21e57	-0.11822193
98	0xbebeb7f3	-0.37249717
99	0x3cec8a8b	0.028874656
100	0x3d061123	0.032731187
101	0x3e3aba39	0.18235101
102	0xbdb70629	-0.08936722
103	0xbda5dfa8	-0.080993
104	0x3d2b9efd	0.04189967
105	0x3e1dc2d5	0.15406354
106	0xbccb0ba8	-0.024785832
107	0xbe65e444	-0.22450358
108	0xbd0a91f7	-0.03383061
109	0xbd29167a	-0.0412812
110	0xbd9a1654	-0.0752379
111	0x3c3e41ee	0.011612399
112	0xbcb58309	-0.022157209
113	0x3df89f6d	0.12139783
114	0x3df3df7d	0.119078614
115	0x3e2e4390	0.1701796
116	0x3e319742	0.17342857
117	0x3c1f5c48	0.009726591
118	0x3e5311f9	0.20612325
119	0xbde51621	-0.111858614
120	0xbd540c5a	-0.051769592
121	0x3d6ddba9	0.058070812
122	0x3d25320a	0.040330924
123	0xbdacdd9d	-0.08440707
124	0xbc882ed4	-0.016623892
125	0xbe3de3d9	-0.18543948
126	0x3dbcf0d0	0.09225619
127	0xbe1f200c	-0.15539569
128	0xbb864492	-0.0040975297
129	0xbd5b2404	-0.053501144
130	0xbd31c002	-0.043396004
131	0x3cc9b9ee	0.024624791
132	0xbe22e93b	-0.15909283
133	0xbdadc53e	-0.084848866
134	0x3e506d81	0.20354272
135	0x3e08432c	0.13306874
136	0xbc44b34c	-0.012005638
137	0xbd50cb50	-0.050975144
138	0xbc643116	-0.013927719
139	0x3abdbf1a	0.0014476508
140	0x3cdca785	0.026935348
141	0x3cf5a40c	0.02998545
142	0x3d794b75	0.060862977
143	0xbe0247d3	-0.12722711
144	0x3d9641f2	0.07336797
145	0xbe10800d	-0.14111347
146	0x3dac1475	0.08402339
147	0xbd2eb2c0	-0.042650938
148	0xbd898e0e	-0.06716548
149	0xbde751cc	-0.112948984
150	0xbd10e9bb	-0.035379153
151	0x3d3001d2	0.042970486
152	0xbe1f9329	-0.15583481
153	0xbdce91eb	-0.100864254
154	0x3d822224	0.06354168
155	0xbe97c38d	-0.2964138
156	0xbc033b1c	-0.008009698
157	0xbdac544f	-0.08414518
158	0xbdc29a2a	-0.09502061
159	0xbe5ebe6d	-0.21752329
160	0x3c8b5771	0.017009469
161	0x3d997e8a	0.074948385
162	0xbe039032	-0.12847975
163	0x3d8af1b3	0.06784382
164	0x3cd557a0	0.02604276
165	0xbc717a1f	-0.014738589
166	0x3e563629	0.20919098
167	0xbd171161	-0.03688181
168	0xbda18b07	-0.078878455
169	0x3d7ca414	0.061679915
170	0x3d37cfb3	0.04487581
171	0x3bcf81ee	0.0063326275
172	0x3dfefe1c	0.12450811
173	0x3e7dd582	0.24788478
174	0xbd8b974f	-0.06815969
175	0xbd8883f4	-0.06665793
176	0x3e0ad55e	0.13557956
177	0x3e854941	0.2603245
178	0xbe14b9a2	-0.14523938
179	0xbe811854	-0.25213873
180	0x3d7920c4	0.060822263
181	0xbe7e7e3b	-0.2485284
182	0x3c5f3d12	0.0136254
183	0x3d358028	0.044311672
184	0xbdabae85	-0.08382896
185	0xbbc48e19	-0.0059983847
186	0xbdd04ee6	-0.10171299
187	0xbdb0eedd	-0.086393096
188	0x3e52cac9	0.20585169
189	0x3ca8eab1	0.020619722
190	0x3d5c78a7	0.053826
191	0xbd63128a	-0.055437602
192	0xbdfe0320	-0.1240294
193	0x3dbfb62a	0.09360917
194	0x3e7c3142	0.24628165
195	0xbf2c0e63	-0.6720945
196	0x3e8ae25b	0.2712582
197	0x3e73ee60	0.23821402
198	0xbaade893	-0.0013268165
199	0xbdd716f4	-0.10502425
200	0x3e1e7423	0.1547399
201	0xbdef30fd	-0.11679266
202	0xbdb3cbb0	-0.08779085
203	0x3d8caef9	0.06869311
204	0xbcb42a39	-0.02199279
205	0x3c68f3cd	0.014218283
206	0xbc3e9959	-0.011633241
207	0xbdef5ad5	-0.11687247
208	0x3d59be87	0.053160217
209	0x3e6b752a	0.22993913
210	0x3c0fb6b7	0.00877159
211	0xbd0e2e50	-0.034712136
212	0x3dbcc552	0.09217323
213	0xbc45310e	-0.012035621
214	0xbdb9ecfc	-0.09078404
215	0xbe1776cc	-0.14791411
216	0xbd4f5a1d	-0.050623048
217	0x3d3d0cf8	0.046154946
218	0x3d59f70e	0.053214125
219	0xbdf02e53	-0.11727586
220	0xbcbe8aa2	-0.023259465
221	0xbd222d92	-0.03959424
222	0x3cd1c6b4	0.025607444
223	0x3c95a17b	0.018265476
224	0xbe8c8ea4	-0.27452576
225	0x3df2d20b	0.11856469
226	0xbdd70edc	-0.10500881
227	0x3e1090f3	0.14117794
228	0xbc254492	-0.010087149
229	0xbd638acb	-0.055552285
230	0x3cad39e1	0.021145763
231	0x3ce91ee9	0.028457122
232	0xbe1564e2	-0.14589265
233	0xbe8241a6	-0.2544071
234	0x3daec13e	0.08532952
235	0xbd5c09e3	-0.053720366
236	0xbd87360b	-0.06602105
237	0x3d164bb0	0.036693275
238	0xbde7ca81	-0.113179214
239	0x3d92631f	0.07147812
240	0xbc8b130d	-0.016976858
241	0xbdb8be61	-0.09020687
242	0xbea5a12b	-0.32349524
243	0x3c9a2869	0.018818097
244	0xbd62f9a5	-0.05541386
245	0x3dc3a7a3	0.095534585
246	0xbe4ed867	-0.20199738
247	0x3d58203c	0.052765116
248	0x3dd0a1df	0.101871245
249	0xbca97cda	-0.020689417
250	0x3ad8d9bc	0.0016544382
251	0xbdbc8c4d	-0.09206448
252	0x3d862b96	0.06551282
253	0xbd426907	-0.047463443
254	0xbe14867c	-0.14504427
255	0x3d125f87	0.035735633

conv3.bias f4 [64]
0	0xbcd62fe4	-0.026145883
1	0x3db3c190	0.087771535
2	0xbd5a6c7c	-0.053326115
3	0xbc67721b	-0.014126326
4	0x3d0f9ebf	0.0350635
5	0xbd3bdc5c	-0.045864448
6	0xbddeb9e2	-0.10875298
7	0x3d4433be	0.047900908
8	0x3cd9be6e	0.026580062
9	0x3c9c19d5	0.019055286
10	0x3da4470e	0.08021365
11	0xbd474770	-0.048652112
12	0xbbc8db0c	-0.006129628
13	0x3d0a4db1	0.0337655
14	0x3c26325b	0.010143842
15	0x3d43970e	0.04775148
16	0xbdc6a2b8	-0.09699005
17	0xbd9a4be3	-0.075340055
18	0xbd894487	-0.06702524
19	0xbd97e42c	-0.07416567
20	0xbe0ccec4	-0.1375075
21	0xbdd680cf	-0.10473787
22	0xbd1a0058	-0.037597984
23	0x3d9a728c	0.07541379
24	0xbd1b64f3	-0.03793807
25	0xbdae173d	-0.08500526
26	0xb9d72202	-0.00041033333
27	0x3cfa4df2	0.030554745
28	0xbd5f0a92	-0.05445344
29	0xbd894c30	-0.06703985
30	0xbdae48ba	-0.08509965
31	0xbd823fab	-0.063598
32	0xbd526adb	-0.051371437
33	0x3c366209	0.011131772
34	0xbcb73b5a	-0.022367168
35	0xbd4b860b	-0.04968838
36	0x3d2df3f4	0.04246898
37	0xbd991f69	-0.07476694
38	0x3ccad928	0.024761751
39	0xbd5b1279	-0.053484414
40	0xbc0f9c39	-0.008765274
41	0x3d3ff46f	0.04686397
42	0x3c146d2e	0.009059234
43	0x3bebf8f6	0.0072013093
44	0xbd96b337	-0.07358401
45	0x3dc100b3	0.094239615
46	0x3d1f7940	0.038933992
47	0x3cf18570	0.029482573
48	0xbde0e05d	-0.10980294
49	0xbd80fb8f	-0.06297981
50	0xbc9467aa	-0.018115837
51	0xbd63a1a5	-0.055574078
52	0xbd6433e7	-0.05571356
53	0x3c80e703	0.015735155
54	0x3c37060f	0.011170878
55	0xbdac72ae	-0.08420311
56	0xbe00762d	-0.1254508
57	0xbc4103e8	-0.0117807165
58	0x3d852c77	0.065026216
59	0xbd4d4560	-0.05011499
60	0x3d287fee	0.04113763
61	0xbd1a3b75	-0.03765436
62	0x3d6ca4b5	0.057774264
63	0xbd203c9f	-0.039120313

fc1.weight f4 [64, 576]
0	0x3e0e2aed	0.13883562
1	0xbd8d8d7f	-0.06911754
2	0xbd13d1ce	-0.036088757
3	0xbe0f4e6e	-0.13994762
4	0x3da16aba	0.078816846
5	0x3cd7566e	0.02628633
6	0xbe3d01b5	-0.18457682
7	0xbd514a87	-0.051096465
8	0xbdf4ac33	-0.11946907
9	0xbc73b385	-0.014874344
10	0xbdcdfc31	-0.10057867
11	0x3db4564a	0.08805521
12	0x3dd1195b	0.10209914
13	0xbd308087	-0.043091323
14	0xbd9472cc	-0.07248458
15	0x3d81271d	0.063062884
16	0xbb56afff	-0.003275871
17	0xbd45c37a	-0.048282124
18	0xbd199c29	-0.03750244
19	0x3dffe395	0.1249458
20	0xbb1c182c	-0.0023818118
21	0xbdf2a190	-0.11847222
22	0x3d51c890	0.051216662
23	0xbcbbbb77	-0.022916539
24	0x3cb0c248	0.021577016
25	0xbbf8e669	-0.0075958264
26	0xbe1b152f	-0.151448
27	0x3c0283d1	0.007965998
28	0xbd1aa28b	-0.03775267
29	0xbce1560e	-0.027506854
30	0xbc216f24	-0.009853158
31	0xbcb89da5	-0.022536108
32	0x3b65bfba	0.0035056905
33	0xbcc2eccb	-0.023794552
34	0xbcfc3e39	-0.030791389
35	0x3cd90280	0.02649045
36	0x3c165147	0.0091746515
37	0xbd0f8bb4	-0.03504534
38	0xbd9ab550	-0.07554114
39	0x3c1b31cb	0.009472321
40	0xbdcd4306	-0.10022549
41	0x3e03f520	0.12886477
42	0xbca056ed	-0.0195727
43	0xbd4bb381	-0.049731735
44	0x3d693ca8	0.056942612
45	0x3cf88a4a	0.030339379
46	0xbdd7ad6b	-0.10531124
47	0x3d887b53	0.06664147
48	0xbd5cb283	-0.05388118
49	0xbe101ce5	-0.14073522
50	0x3de0f01f	0.109832995
51	0xbdc0e5e5	-0.09418849
52	0xbda95826	-0.08268766
53	0xbd8f30cd	-0.0699173
54	0xbdab53f9	-0.08365626
55	0x3d6587bc	0.05603765
56	0xbc570a9c	-0.013125088
57	0xbdd5877f	-0.104262345
58	0x3cbf93d5	0.023385921
59	0xbd701a45	-0.058618803
60	0xbe48cc5f	-0.19609211
61	0x3d522abd	0.05131029
62	0x3b07534d	0.0020649016
63	0x3d9061f5	0.07049934
64	0xbd90134a	-0.07034929
65	0x3d5e2ba4	0.054240838
66	0x3d08fe09	0.03344539
67	0x3c962df7	0.018332465
68	0x3d2ec58a	0.042668857
69	0xbdf168af	-0.11787545
70	0x3d158dd1	0.0365122
71	0xbdb6666a	-0.08906253
72	0x3c09cf66	0.008411264
73	0x3b5f3b89	0.0034062585
74	0x3d952a49	0.07283456
75	0x3d70265c	0.058630332
76	0xbd8fa7f1	-0.07014454
77	0xbde8a6d2	-0.113599434
78	0xbd43ef1a	-0.047835447
79	0xbd0591f8	-0.03260991
80	0x3d911bd1	0.07085384
81	0x3d1dd739	0.03853533
82	0xbdbd4b49	-0.09242875
83	0xbe098505	-0.13429649
84	0x3d4b2616	0.04959687
85	0x3dcdcc17	0.10048693
86	0x3d4e2684	0.0503297
87	0x3be527a9	0.0069932532
88	0xbd9e2047	-0.07721
89	0xbe1cd934	-0.15317231
90	0xbd5db66e	-0.054129057
91	0x3e0b699c	0.13614506
92	0xbdc404e3	-0.095712446
93	0x3e2d6153	0.16931657
94	0xbe4f8b1b	-0.20267908
95	0x3e2cee99	0.16887893
96	0x3e062b4e	0.13102457
97	0xbe1564b9	-0.14589204
98	0x3d52e8aa	0.051491417
99	0x3c895d1a	0.016768027
100	0x3d62ee50	0.055403054
101	0xbb690bca	-0.0035560005
102	0x3c381b14	0.011236925
103	0x3d47669f	0.04868185
104	0x3d3f8e27	0.046766426
105	0x3aeb863e	0.0017969084
106	0x3c8f3956	0.017483395
107	0x3d2ab27e	0.04167413
108	0xbc4566ae	-0.0120484065
109	0xbd279d59	-0.040921543
110	0x3dfe1c5e	0.12407754
111	0xbe262df6	-0.1622847
112	0xbb5552eb	-0.0032550644
113	0xbe0acd1e	-0.13554808
114	0x3d5c7201	0.05381966
115	0x3e412d0e	0.18864843
116	0xbcb37c7d	-0.021909947
117	0xbe2fd1cb	-0.17169873
118	0xbdbac9d7	-0.09120529
119	0xbd5af464	-0.053455725
120	0x3d71533e	0.058917277
121	0x3da8440d	0.08216105
122	0xbd086c41	-0.033306364
123	0xbd7d29cf	-0.06180745
124	0xbc728be3	-0.014803859
125	0x3d4abeae	0.049498253
126	0xbdc1b9cd	-0.09459267
127	0xbe5e1d41	-0.21690847
128	0x3ced908b	0.028999588
129	0xbd7333de	-0.059375636
130	0x3c0ab70e	0.008466495
131	0x3d3b2359	0.045688007
132	0x3d99cc2c	0.07509646
133	0xbcfad1b3	-0.03061757
134	0x3e3f5f4e	0.186887
135	0xbdfb8de3	-0.12282922
136	0x3d503f98	0.050841898
137	0xbdbb40b9	-0.09143204
138	0xbde936c5	-0.113873996
139	0x3e13c744	0.14431483
140	0x3c19469d	0.009355214
141	0xbdcee6f8	-0.101026475
142	0x3dd760ab	0.10516485
143	0x3cb66e34	0.022269346
144	0xbc30d445	-0.0107927965
145	0xbdb9b14c	-0.0906702
146	0x3d190f08	0.03736785
147	0xbd5fbd90	-0.05462414
148	0xbe072dbe	-0.13201043
149	0x3dc9be2f	0.09850728
150	0x3dfc3ab5	0.12315885
151	0xbdc0283d	-0.09382675
152	0xbda7b688	-0.08189112
153	0x3d03157a	0.032002904
154	0xbdee9494	-0.11649433
155	0xbd64a533	-0.05582161
156	0xbc90944e	-0.017648842
157	0x3da6906d	0.08133016
158	0x3e45996e	0.1929681
159	0xbd6fdde8	-0.058561236
160	0xbdaeb62e	-0.08530842
161	0xbea4cd2a	-0.32187778
162	0x3c927a25	0.017880509
163	0xbc985084	-0.01859308
164	0x3c95bab9	0.018277513
165	0x3deab862	0.114609495
166	0xbb9fd0b6	-0.004877175
167	0x3db1178b	0.086470686
168	0x3c50f8a2	0.012754591
169	0x3c090210	0.008362308
170	0x3d3984ac	0.04529254
171	0xbd077d58	-0.03307852
172	0xbd5c06a2	-0.053717263
173	0x3b3e9367	0.0029079558
174	0xbc37ada0	-0.011210829
175	0xbd93d623	-0.07218578
176	0xbcceb9a2	-0.025235001
177	0xbce21453	-0.027597582
178	0xbd74d7d5	-0.059776146
179	0x3bd96015	0.0066337683
180	0x3d02fd45	0.031979818
181	0xbb3f32ef	-0.0029174646
182	0xbcd58480	-0.026064157
183	0xbe4d3630	-0.20040202
184	0xbc46aa3d	-0.012125549
185	0xbd905eb1	-0.07049311
186	0xbd5333aa	-0.051562943
187	0xbc440da6	-0.011966145
188	0xbdbf85ac	-0.09351668
189	0xbceb6704	-0.028735645
190	0x3d730ef7	0.059340443
191	0x3d3cdae7	0.0461072
192	0xbd80803a	-0.06274457
193	0xbe0ba2e9	-0.13636364
194	0x3d4b698a	0.049661197
195	0xbd4fc28d	-0.050722647
196	0xbdff53e0	-0.1246717
197	0xbda671be	-0.08127163
198	0x3c19337a	0.009350652
199	0x3d364756	0.044501625
200	0x3c683cef	0.014174684
201	0xbb949b48	-0.0045351125
202	0xbd9a5208	-0.075351775
203	0x3db8e6f7	0.09028428
204	0x3e65a187	0.22424899
205	0xbe161879	-0.14657773
206	0xbd8a7001	-0.06759644
207	0xbdc9a501	-0.09845925
208	0x3dc7c949	0.09755189
209	0xbdf44a11	-0.119281895
210	0x3dce5866	0.100754544
211	0x3c57e4a3	0.01317707
212	0x3d335e66	0.043791197
213	0xbd501256	-0.050798737
214	0xbd676527	-0.05649295
215	0x3e0fb702	0.14034656
216	0xbd8f7d70	-0.07006347
217	0xbc085fef	-0.008323654
218	0xbddd1fef	-0.107971065
219	0xbe52f093	-0.20599584
220	0xbca3f038	-0.020012006
221	0x3e0b9c89	0.13633932
222	0xbc58a0e5	-0.013221954
223	0xbd1f1ff6	-0.03884884
224	0x3bc60a29	0.0060436917
225	0xb933b046	-0.00017136437
226	0x3cc1a76d	0.023639405
227	0x3d3b6f60	0.045760512
228	0xbe1f9f55	-0.15588124
229	0x3de14124	0.10998753
230	0x3cfb5d4f	0.030684141
231	0xbccde44f	-0.02513328
232	0x3d1753ec	0.03694527
233	0x3d847ee5	0.06469516
234	0x3dba7d3c	0.09105918
235	0xbc382f03	-0.011241677
236	0xbe92792d	-0.28608075
237	0xbd070468	-0.032963187
238	0x3d74505a	0.05964694
239	0xbd46a67e	-0.048498623
240	0x3de872b3	0.11350002
241	0xbc2a68f9	-0.010401004
242	0x3d537f62	0.051635154
243	0xbda3eeda	-0.08004542
244	0xba820002	-0.0009918215
245	0xbe0394cc	-0.1284973
246	0x3c4d92f2	0.0125472415
247	0x3cf1a63d	0.029498214
248	0x3d5a4642	0.05328966
249	0x3d7ef0ab	0.062241238
250	0xbe1831b8	-0.14862716
251	0x3ce2eecb	0.027701756
252	0xbd811558	-0.06302899
253	0xbdf96280	-0.121769905
254	0xbdf4478f	-0.11927711
255	0xbe67dee2	-0.22643617

fc1.bias f4 [64]
0	0x3d406f22	0.046980985
1	0x3cf793d2	0.030221853
2	0x3bc6678e	0.006054825
3	0x3c8a9dff	0.016921042
4	0xbd5bde21	-0.053678636
5	0xbcd20e68	-0.025641635
6	0xbcbc6946	-0.022999417
7	0x3d6537e2	0.055961497
8	0x3df847aa	0.12123044
9	0xbd2fee27	-0.04295173
10	0xbc2fa293	-0.010719913
11	0x3d7d7d69	0.06188718
12	0xbce20f40	-0.027595162
13	0xbd980d35	-0.07424394
14	0xbcf0ea22	-0.029408518
15	0x3dabcd1d	0.08388732
16	0x3be96893	0.007123062
17	0xbcaef6dc	-0.021357946
18	0x3d315b88	0.04330018
19	0x3d423b54	0.04741986
20	0xbdbea710	-0.093092084
21	0xbc4612f9	-0.012089484
22	0x3d004507	0.03131583
23	0x3c03cfa7	0.008045114
24	0x3cf23c40	0.029569745
25	0xbd7a2015	-0.061065752
26	0x3d9ebe21	0.07751108
27	0xbd333b2a	-0.043757595
28	0xbae89d58	-0.0017747087
29	0xbd596ac3	-0.05308033
30	0xbc45b6d5	-0.012067516
31	0x3bd7afd5	0.00658224
32	0x3baa3ae1	0.005195007
33	0x3dcba835	0.09944192
34	0x3c2261b7	0.009910992
35	0xbd73620b	-0.059419673
36	0x3d56c9aa	0.052438416
37	0xbcc19b3c	-0.023633592
38	0x3c5db76e	0.013532503
39	0x3d5f76b5	0.054556567
40	0x3d0149ab	0.031564396
41	0xbca91111	-0.02063802
42	0x3cb4c0b3	0.022064542
43	0x3d9d0ef1	0.076688655
44	0x3d1e1e7e	0.0386033
45	0x3dec4bf5	0.11537925
46	0x3d0e3864	0.034721747
47	0x3c6333a5	0.0138672935
48	0x3c50c284	0.012741689
49	0xbcad3761	-0.02114457
50	0x3d5f2749	0.054480825
51	0xbd967c93	-0.073479794
52	0xbba3a7a4	-0.0049943496
53	0xbc0ae11b	-0.008476521
54	0x3dc20767	0.09474068
55	0x3d20d2e6	0.03926363
56	0x3d452649	0.048132215
57	0x3dd7ed99	0.10543365
58	0xbbc19dda	-0.00590871
59	0x3d3d2994	0.04618223
60	0x3d43b184	0.047776714
61	0x3dad9803	0.084762596
62	0x3c023d3a	0.007949168
63	0xbca819be	-0.020520087

fc2.weight f4 [10, 64]
0	0xbdcff992	-0.10155024
1	0xbe371b03	-0.17881398
2	0xbde8abde	-0.11360906
3	0x3d83008c	0.06396589
4	0xbd7a8e60	-0.061170936
5	0xbc93ce26	-0.018042635
6	0x3d66d046	0.05635097
7	0xbde3ec06	-0.11129002
8	0x3db044e3	0.08606889
9	0x3d02cf01	0.031935696
10	0xbe50a8a2	-0.20376828
11	0xbdeb341f	-0.11484551
12	0xbe4957dc	-0.19662422
13	0xbdb49cd9	-0.08818979
14	0xbda403f9	-0.0800857
15	0xbd51340e	-0.051075034
16	0x3d085f8d	0.03329425
17	0xbdd4dbaa	-0.1039346
18	0x3df40712	0.11915411
19	0xbdb78363	-0.08960607
20	0x3d5d9ac9	0.054102693
21	0x3e405109	0.18780912
22	0x3dd42876	0.1035928
23	0xbdd9c272	-0.106327906
24	0xbe8690e8	-0.2628243
25	0x3d2aaa6d	0.041666437
26	0xbe0249bd	-0.12723441
27	0xbc79ad6c	-0.015239101
28	0xbe3637d7	-0.17794739
29	0x3c8edcff	0.017439364
30	0x3ceafa43	0.028683787
31	0xbd9eebe0	-0.07759833
32	0xbdbdcb1e	-0.09267257
33	0x3e06983c	0.1314401
34	0x3cd0853f	0.025454162
35	0xbdcc7b08	-0.09984404
36	0xbd6d58ad	-0.057945896
37	0xbd6a42c7	-0.05719259
38	0x3decdff4	0.11566153
39	0xbdb5b333	-0.0887207
40	0x3e390a0a	0.18070236
41	0xbe3374af	-0.1752498
42	0x3ddad3fb	0.10684963
43	0x3dad3538	0.08457416
44	0x3dcd8082	0.100342765
45	0x3d88ed8b	0.06685933
46	0x3d759e54	0.059965447
47	0xbe4ecda5	-0.20195635
48	0x3dd7e8b0	0.105424285
49	0xbe8b248f	-0.2717633
50	0xbdcc0161	-0.099612005
51	0xbd42a71f	-0.04752266
52	0xbdcf4149	-0.10119874
53	0xbddb53d0	-0.10709345
54	0x3e028e64	0.1274963
55	0x3d693619	0.056936357
56	0xbd80ccab	-0.06289037
57	0x3e142965	0.14468916
58	0x3d0aef9e	0.033919923
59	0xbe0769cd	-0.13223954
60	0xbe66714f	-0.22504161
61	0xbe1a27e3	-0.15054278
62	0x3d90395d	0.07042191
63	0x3e03586e	0.12826702
64	0x3e05e4a4	0.130755
65	0xbe80f7af	-0.25188968
66	0x3de0c651	0.10975326
67	0xbeb98967	-0.36237642
68	0xbdd75848	-0.10514885
69	0xbe164a1b	-0.14676706
70	0xbe22b1f8	-0.15888202
71	0xbe8ebaba	-0.27876836
72	0xbd6fcd06	-0.058545135
73	0xba108d32	-0.0005514204
74	0xbebce625	-0.36894336
75	0x3e4a52c2	0.19758132
76	0xbe997b0c	-0.2997669
77	0xbd0b02b7	-0.033938136
78	0x3d5e21f3	0.054231595
79	0xbe78b1a6	-0.24286518
80	0xbdfd6d3a	-0.12374349
81	0xbd1d2c8c	-0.03837256
82	0xbece1914	-0.40253508
83	0xbe0582fa	-0.13038245
84	0xbc275f9b	-0.010215665
85	0x3e3331a6	0.17499408
86	0x3dae3d62	0.085078016
87	0x3e348766	0.17629775
88	0x3c8260b5	0.015915254
89	0xbd4b5122	-0.04963792
90	0xbe3f736c	-0.18696374
91	0x3da6d019	0.0814516
92	0x3cef97aa	0.029247124
93	0xbdac910a	-0.084261015
94	0xbe1407be	-0.14456078
95	0xbdb9c0cf	-0.090699784
96	0xbd253865	-0.040336985
97	0xbea1f9bc	-0.31635845
98	0xbed0acf4	-0.40756953
99	0x3c14e45f	0.009087651
100	0xbe3910be	-0.18072793
101	0xbe124acd	-0.14286347
102	0xbda75e1d	-0.081722476
103	0x3eae9745	0.34099784
104	0xbec64a6b	-0.3872865
105	0xbed4eccd	-0.41586915
106	0x3d9d3281	0.076756485
107	0xbe958b9b	-0.29208073
108	0xbace8bd4	-0.0015758225
109	0x3e2adbe4	0.16685444
110	0xbd85c555	-0.06531779
111	0x3e572f4b	0.21014135
112	0xbd2ce746	-0.042212747
113	0x3e30c3ad	0.17262144
114	0x3dd3d5af	0.10343491
115	0xbd80ff74	-0.06298724
116	0xbdb3b3ad	-0.08774505
117	0x3c5b7946	0.013395613
118	0xbdd2b65d	-0.10288689
119	0xbbc7c5bf	-0.006096571
120	0xbe92aacf	-0.28645942
121	0x3e1af987	0.1513425
122	0xbd82f3c5	-0.063941516
123	0x3e50c38d	0.20387097
124	0x3d81fcd9	0.06347055
125	0x3db3ead7	0.087850265
126	0xbdb0b339	-0.08627934
127	0xbe7023f1	-0.2345121
128	0xbdd4a423	-0.10382869
129	0x3e140514	0.14455062
130	0xbda8da55	-0.082447685
131	0x3d8f3880	0.069931984
132	0xbce6b40f	-0.02816203
133	0xbd135a2b	-0.035974663
134	0x39f760bb	0.0004718358
135	0x3de9574a	0.11393602
136	0x3db30273	0.087407015
137	0x3cd25bee	0.025678601
138	0x3dddfc95	0.10839192
139	0xbe30fa38	-0.17282951
140	0x3deab817	0.114608936
141	0xbd1fcaa4	-0.039011613
142	0xbd33700f	-0.04380804
143	0x3d4b51f6	0.04963871
144	0xbd4faebb	-0.050703745
145	0xbee370cd	-0.44421998
146	0x3dde8b22	0.10866381
147	0xbe0a7d40	-0.13524342
148	0x3bce8966	0.0063030003
149	0xbcd6cb50	-0.026219994
150	0xbe48c884	-0.1960774
151	0x3dbae1a7	0.09125071
152	0x3c8b19bb	0.016980043
153	0xbdc2b283	-0.09506705
154	0xbe39dbeb	-0.18150298
155	0xbda77f0e	-0.08178531
156	0xbe11f36f	-0.14253019
157	0x3cd2e127	0.025742127
158	0xbd04c2bc	-0.032412276
159	0x3d6122f9	0.054964993
160	0xbd9d965e	-0.07694696
161	0x3dba853f	0.09107446
162	0x3d21ae4a	0.039472856
163	0xbbc8be53	-0.006126204
164	0xbedf9ae6	-0.43672866
165	0x3d8a5cbe	0.067559704
166	0xbd22b88d	-0.039726783
167	0xbe366e10	-0.17815423
168	0x3e13aa7a	0.144205
169	0xbea26e54	-0.317248
170	0xbdfe6c2b	-0.12422975
171	0x3e0cbcc0	0.13743877
172	0xbddc5bcb	-0.107596956
173	0x3dcf86ec	0.10133156
174	0x3de3fda9	0.11132366
175	0x3c530127	0.012878693
176	0xbe0354b6	-0.12825283
177	0xbe541f7c	-0.20715135
178	0x3d9c2c91	0.07625688
179	0xbdfcb4fd	-0.12339208
180	0x3d16cd7a	0.03681705
181	0x3d50b9da	0.05095849
182	0xbe1bab8b	-0.15202157
183	0x3d44ef9c	0.04808007
184	0xbe7fc024	-0.2497564
185	0x3dcf03f0	0.10108173
186	0xbda4e037	-0.08050578
187	0xbe7d92c5	-0.2476302
188	0xbe14a4be	-0.14515969
189	0x3dd69f40	0.10479593
190	0xbbda6c27	-0.006665725
191	0xbe5a198c	-0.21298808
192	0x3e27af59	0.16375484
193	0xbe5de7cb	-0.21670453
194	0x3dada6bc	0.08479068
195	0xbe2a79bc	-0.16648
196	0xbc5037d7	-0.012708626
197	0x3e03351b	0.12813227
198	0xbb928a68	-0.0044720657
199	0xbe194b42	-0.14970115
200	0x3dc1e0a1	0.09466673
201	0xbb617702	-0.003440321
202	0x3d9df0b6	0.077119276
203	0xbd1b7d24	-0.03796114
204	0xbef7e183	-0.4841424
205	0x3d359019	0.044326875
206	0xbe3c87a7	-0.18411122
207	0x3dfef134	0.124483496
208	0x3de985f7	0.11402505
209	0xbc938f40	-0.018012643
210	0x3d003416	0.031299673
211	0xbe7017c5	-0.23446567
212	0x3d0407a5	0.032233853
213	0x3df1931d	0.11795638
214	0x3dd2da37	0.102955274
215	0xbd45b55f	-0.048268672
216	0x3dba49e7	0.09096127
217	0xbc95e2ce	-0.018296625
218	0xbe869d5f	-0.2629194
219	0xbced49f9	-0.028965937
220	0xbe84a1ef	-0.25904796
221	0x3ca53bc3	0.020170098
222	0x3dc075b7	0.09397452
223	0xbdc17b77	-0.09447377
224	0x3c2ce2b9	0.010552102
225	0xbe1a9252	-0.1509488
226	0x3d7524d6	0.059849583
227	0x3da2f3f3	0.07956686
228	0xbeb9486e	-0.36188072
229	0x3cc32b08	0.02382423
230	0x3e2e0415	0.16993745
231	0xbde28ea3	-0.11062362
232	0xbe9ee031	-0.3103042
233	0xbed35cbe	-0.41281694
234	0x3def9fc5	0.117003955
235	0x3e1197a2	0.14218
236	0x3de2e8ba	0.11079545
237	0xbe044043	-0.12915139
238	0x3dcabf08	0.098997176
239	0xbe469ed8	-0.19396532
240	0xbd2e76fc	-0.04259394
241	0x3d0d29ce	0.034463696
242	0x3dfe9e2a	0.12432511
243	0x3cc01c8f	0.023451118
244	0xbcd55b5c	-0.02604454
245	0x3d285321	0.041094903
246	0xbe3fdd6b	-0.18736808
247	0x3db70964	0.08937338
248	0x3e0d273f	0.13784502
249	0xbdb2da98	-0.087331
250	0xbd9e0ddf	-0.077174895
251	0x3dcc0383	0.09961607
252	0x3d3caf47	0.046065595
253	0xbe7d32a7	-0.24726354
254	0x3dcb68c4	0.09932092
255	0xbeb1bf0e	-0.34716076

fc2.bias f4 [10]
0	0x3c7cca4f	0.0154290935
1	0xbe8376cd	-0.25676575
2	0x3ce492d4	0.027902044
3	0x3d6d2f3a	0.057906367
4	0x3d67d339	0.056597922
5	0x3d134672	0.035955854
6	0xbd79af06	-0.06095793
7	0x3d4945ae	0.049138717
8	0xbd1245be	-0.035711043
9	0xbd7ce1b1	-0.061738674

exp_avg f4 [16, 1, 3, 3]
0	0xbc50af19	-0.012737059
1	0xbc5d629d	-0.013512281
2	0xbcab77fb	-0.020931235
3	0xbc435d49	-0.011924096
4	0xbb830eda	-0.003999573
5	0xbbe41015	-0.006959925
6	0xbbf96b95	-0.0076117017
7	0xbb67a9c6	-0.0035348996
8	0xbb6652bb	-0.0035144526
9	0x3ac1b216	0.0014777805
10	0xbbba384d	-0.005682981
11	0xbc6fa473	-0.01462661
12	0xb9310469	-0.00016881678
13	0xbbdddd32	-0.0067707533
14	0xbc2aca6c	-0.010424238
15	0xbbbdead1	-0.0057958146
16	0xbc52e82c	-0.012872737
17	0xbc5c6af5	-0.013453235
18	0xbbccab61	-0.006246016
19	0xbc2e9d2d	-0.010657591
20	0x3b9dedae	0.0048195934
21	0xbae5e325	-0.0017539008
22	0xbc09c981	-0.008409859
23	0x3b726ea1	0.003699221
24	0x3b3e9949	0.0029083064
25	0x3ba3c6a0	0.004998043
26	0x3c76e715	0.015069743
27	0xbb954c1a	-0.004556191
28	0xbb2cec4a	-0.0026385956
29	0xbb89bf48	-0.0042037107
30	0xbbbf3d4e	-0.0058361655
31	0xbb60b0c6	-0.0034285053
32	0xbb77939b	-0.0037777189
33	0xbc012b43	-0.00788385
34	0xbb0f8fdd	-0.0021905818
35	0xbb292ce8	-0.002581412
36	0xbbd3b42d	-0.0064606876
37	0xbbd03e0d	-0.0063550533
38	0xbba2d55b	-0.0049692816
39	0xbc14bfd0	-0.009078935
40	0xbbdf3504	-0.00681174
41	0xbb888ee3	-0.004167424
42	0xbba94e22	-0.005166785
43	0xbb668917	-0.0035176927
44	0x39e812a7	0.00044264385
45	0x3c922e49	0.017844336
46	0x3c556fd6	0.013027152
47	0x3c3a678e	0.011377228
48	0x3c940c3f	0.018072246
49	0x3c9618de	0.018322404
50	0x3c94b858	0.018154308
51	0x3c9aec06	0.018911373
52	0x3c702ff8	0.014659874
53	0x3c08ff53	0.008361655
54	0xbc1f3210	-0.009716526
55	0xbc24772c	-0.010038178
56	0xbc44f3b7	-0.012020997
57	0xbc1b3309	-0.009472617
58	0xbc26d3a0	-0.010182291
59	0xbc2cdcef	-0.010550722
60	0xbc07db6f	-0.008292063
61	0xbc1c5be0	-0.009543389
62	0xbc4386e9	-0.011934021
63	0xbb547208	-0.00324166
64	0x3a96a15f	0.0011492184
65	0xb9a9ff95	-0.00032424615
66	0xbb249ac8	-0.002511667
67	0x3b19bcc7	0.0023458467
68	0x3bd665cd	0.0065428973
69	0xbb626f75	-0.0034551297
70	0x388c738c	6.6972425e-05
71	0x3be1a7eb	0.0068864725
72	0x3b028861	0.0019917714
73	0x3b517ac8	0.0031964052
74	0x3c165839	0.009176307
75	0x39fcbf96	0.00048207928
76	0x3a647bd4	0.00087159616
77	0x3b85a4c6	0.0040784804
78	0xb98e1cbc	-0.0002710576
79	0x3a2e1d43	0.00066419336
80	0x3ad251b6	0.001604608
81	0xbc9ef482	-0.0194037
82	0xbc941d8f	-0.0180805
83	0x39e5b2f3	0.0004381161
84	0xbc639184	-0.013889674
85	0xbc8686fe	-0.016421791
86	0xbb0aae85	-0.002116115
87	0xbbe29329	-0.0069145155
88	0xbc3c73e6	-0.011502242
89	0x3bcf5a31	0.0063278903
90	0xbc900238	-0.017579183
91	0xbc213f5d	-0.009841767
92	0xbbe749d0	-0.0070583597
93	0xbc4e8589	-0.012605079
94	0xbbcf34c0	-0.006323427
95	0xbbacff15	-0.0052794316
96	0xbc17b0d8	-0.009258471
97	0xbbc84edc	-0.0061129164
98	0xbb8d88dd	-0.004319294
99	0xbbef2708	-0.007298354
100	0xbc048644	-0.008088652
101	0x3acb3a28	0.0015505003
102	0xbba6f0e4	-0.0050946344
103	0xbb36bdba	-0.0027884082
104	0x3b05386d	0.0020327822
105	0xbb796059	-0.0038051812
106	0xbb9e74e9	-0.004835714
107	0xbb148fc3	-0.0022668696
108	0xbbe2c169	-0.006920029
109	0xbbe5a5be	-0.0070082834
110	0xbc106ec6	-0.008815473
111	0xbbf43d24	-0.0074535776
112	0xbbdc6fed	-0.00672721
113	0xbbcb497f	-0.00620383
114	0xbc2fdb3a	-0.01073342
115	0xbc376b22	-0.011194976
116	0xbc36ea05	-0.011164193
117	0x3b1de1c4	0.0024090866
118	0x3ab49d4b	0.0013779787
119	0xbb5652f9	-0.0032703264
120	0x3b1e7252	0.0024177027
121	0x3b85106c	0.0040607955
122	0xbb7b6735	-0.0038361077
123	0x3aa56984	0.0012619947
124	0x3b4c89e0	0.003121011
125	0x3931fa24	0.0001697322
126	0xbbbaad5d	-0.005696936
127	0xbbdffd01	-0.0068355803
128	0xbbcbd166	-0.0062200306
129	0xbbad04a4	-0.005280094
130	0xbbd96420	-0.0066342503
131	0xbb9a9780	-0.0047177672
132	0xbbaf331a	-0.005346668
133	0xbc116a38	-0.008875422
134	0xbbb270a3	-0.0054455562
135	0x3a070617	0.0005150749
136	0x3aeae211	0.0017920156
137	0x398880e5	0.00026035975
138	0x3a20f547	0.0006140065
139	0x3b283c37	0.0025670656
140	0x3bbe4295	0.005806277
141	0x3bd63653	0.0065372377
142	0x3c4f6e66	0.012660598
143	0x3c0e4637	0.008683733

exp_avg_sq f4 [16, 1, 3, 3]
0	0x3d2c6c7a	0.04209564
1	0x3d1f3bfe	0.038875572
2	0x3d1e79b0	0.03869027
3	0x3d263481	0.040577415
4	0x3d1cc170	0.038270414
5	0x3d1f6946	0.038918756
6	0x3d1df7ad	0.03856628
7	0x3d18da39	0.03731749
8	0x3d0cda0f	0.034387644
9	0x3aa2eaba	0.0012429573
10	0x3a86b4fe	0.0010277329
11	0x3a84b9a3	0.0010126125
12	0x3a9696fc	0.0011489089
13	0x3a8705a4	0.0010301364
14	0x3a856e80	0.0010180026
15	0x3aca8547	0.0015451097
16	0x3ad63927	0.0016343937
17	0x3acd4eea	0.0015663777
18	0x3bf7df07	0.0075644287
19	0x3bf90d26	0.0076004444
20	0x3c019cc1	0.007910908
21	0x3bb57e55	0.0055387416
22	0x3bbb147e	0.00570923
23	0x3bbb9ca2	0.005725459
24	0x3badb8eb	0.005301585
25	0x3ba9a584	0.0051772017
26	0x3ba07566	0.0048968075
27	0x3a054e78	0.000508524
28	0x3a0bca9e	0.00053326215
29	0x39f8cdd2	0.00047455594
30	0x39f15cae	0.00046036154
31	0x39eb70c4	0.0004490671
32	0x39ef87b5	0.00045686742
33	0x3a055d80	0.000508748
34	0x39c69dd2	0.00037883088
35	0x39ca6fe6	0.00038611813
36	0x3cda2fa2	0.026634041
37	0x3cbf61ca	0.02336206
38	0x3cb34a2d	0.021885956
39	0x3cc57779	0.02410482
40	0x3ca3191d	0.019909436
41	0x3cab245b	0.02089136
42	0x3cab5cd5	0.02091829
43	0x3c95f99f	0.018307505
44	0x3c9a6c68	0.01885052
45	0x3bbac276	0.005699451
46	0x3bc5f96a	0.0060416954
47	0x3bac08d6	0.0052500768
48	0x3be2e42a	0.006924172
49	0x3be3d75a	0.006953162
50	0x3bd2d885	0.0064345025
51	0x3bdee864	0.0068026055
52	0x3be4c067	0.006980944
53	0x3bc76e1b	0.0060861236
54	0x3a023747	0.00049673434
55	0x3a0ef147	0.0005452823
56	0x3a0e61f2	0.0005431465
57	0x3a02134a	0.0004961981
58	0x3a0f9dc8	0.00054785283
59	0x3a0b97f4	0.0005325072
60	0x3a026d9d	0.000497544
61	0x3a13ed8b	0.00056430016
62	0x3a0e9d2f	0.00054402923
63	0x3a33c6bf	0.00068579236
64	0x3a2267ec	0.0006195295
65	0x3a12e990	0.00056042615
66	0x3a5b6254	0.0008368839
67	0x3a5d44bc	0.0008440723
68	0x3a43dd78	0.0007471661
69	0x3a5c3d85	0.0008401501
70	0x3a52b663	0.0008038042
71	0x3a3c40a5	0.00071812636
72	0x3aa2b288	0.0012412826
73	0x3aaf6831	0.0013382492
74	0x3acd6ede	0.00156733
75	0x3a8d88e1	0.0010798239
76	0x3a8b1708	0.0010611722
77	0x3aab3969	0.0013063374
78	0x3a3391d7	0.000685004
79	0x3a3d4405	0.00072199135
80	0x3a6ecd0f	0.00091095356
81	0x3bf76246	0.007549557
82	0x3bdd3591	0.0067507704
83	0x3be40cb6	0.006959523
84	0x3bc367ae	0.0059632873
85	0x3bc55f33	0.0060233115
86	0x3bc85b91	0.006114431
87	0x3b99257f	0.0046736593
88	0x3b9fbf9b	0.004875136
89	0x3ba7febf	0.0051268036
90	0x3b1dc904	0.0024076113
91	0x3b0f1ef6	0.0021838523
92	0x3b241834	0.002503884
93	0x3aff5838	0.0019481247
94	0x3b0a3f2b	0.002109478
95	0x3b2c83f2	0.0026323763
96	0x3b2f6a67	0.0026766302
97	0x3b363c42	0.0027806913
98	0x3b1c8024	0.0023880089
99	0x3a92ae06	0.0011190779
100	0x3a8ab6b2	0.0010583012
101	0x3a835eaf	0.0010022725
102	0x3a86e679	0.0010292075
103	0x3a880184	0.0010376428
104	0x3a86f66d	0.0010296829
105	0x3a935a21	0.001124207
106	0x3a939353	0.0011259116
107	0x3a8fb754	0.001096467
108	0x399af574	0.00029556046
109	0x399a2e96	0.00029407878
110	0x399ec4aa	0.00030282635
111	0x399785d6	0.0002890068
112	0x399caec2	0.00029884843
113	0x3994764f	0.00028316907
114	0x39bb301f	0.00035703272
115	0x39be619f	0.00036312357
116	0x39b9abbf	0.0003541391
117	0x39c602fa	0.0003776772
118	0x399d0e61	0.00029956087
119	0x39a42b27	0.0003131267
120	0x39fcfa0a	0.0004825148
121	0x39d127d6	0.00039893267
122	0x39eb453a	0.0004487427
123	0x39efba75	0.00045724554
124	0x39e43037	0.00043523472
125	0x3a023384	0.0004966783
126	0x39a595c5	0.0003158284
127	0x39a31216	0.00031103258
128	0x3998e5ac	0.00029162818
129	0x39a4c8f3	0.00031430236
130	0x39a68ac7	0.00031765384
131	0x39a49ce8	0.00031397422
132	0x39c31e9f	0.00037216113
133	0x39d10dbc	0.0003987382
134	0x39ef13db	0.00045600426
135	0x3aef10e8	0.0018239291
136	0x3afd1223	0.0019307773
137	0x3b05cd88	0.0020416696
138	0x3ae37c5d	0.0017355789
139	0x3ad5a543	0.0016299862
140	0x3ae33ec2	0.0017337429
141	0x3aefa622	0.0018283764
142	0x3ad68f93	0.0016369693
143	0x3af29078	0.001850619

exp_avg f4 [16]
0	0xbbd0f9da	-0.006377441
1	0x3c6f0487	0.014588482
2	0xbc372981	-0.011179329
3	0xbb194a11	-0.0023390094
4	0x3a0aae1d	0.0005290227
5	0x3c5b7006	0.013393408
6	0x3c58e698	0.013238572
7	0xbb746837	-0.0037293562
8	0x3b5d5249	0.003377097
9	0x3c411c21	0.011786492
10	0xbca047fa	-0.019565571
11	0xbc5ab85e	-0.013349621
12	0x3c1744cc	0.009232711
13	0x3bf4c326	0.0074695526
14	0x3bbf0b76	0.0058302237
15	0xbc7f050d	-0.015565169

exp_avg_sq f4 [16]
0	0x3cd6e106	0.026230346
1	0x3ae3c2bb	0.001737676
2	0x3b9c02a9	0.0047610593
3	0x39ad3fa4	0.00033044547
4	0x3c4de4cf	0.012566759
5	0x3b69ac26	0.0035655587
6	0x3a6b15e1	0.0008967799
7	0x3a19c8b4	0.0005866394
8	0x3a44db1d	0.0007509457
9	0x3b9c44af	0.00476893
10	0x3af79c3f	0.001889117
11	0x3a6332fb	0.00086669595
12	0x3a02f676	0.0004995832
13	0x3a1b588e	0.00059259764
14	0x3a204aab	0.0006114642
15	0x3ac42427	0.0014964388
