26_03_2024/lightning_logs/version_1/checkpoints/epoch=9-step=7500.ckpt (torch, 744472 bytes, 30 tensors)

conv1.weight f4 [16, 1, 3, 3]
0.5366374 -0.0771336 -0.11729368 -0.2817626 0.04099179 -0.17129646 -0.26423612 0.15782084
0.109952115 -0.2720068 -0.33677217 -0.3339391 -0.48266238 -0.18426578 -0.11653096 -0.26539987
0.096701294 -0.0153571535 0.21373826 0.19146799 -0.041318808 0.1530617 -0.0093252305 0.11561879
0.0635003 -0.20025487 -0.4469373 -0.066061825 0.3927083 -0.5418088 0.1987187 0.3075261
-0.4031255 0.42892337 0.12244717 -0.527989 -0.2531612 -0.21511236 -0.18451579 0.4105577
0.3370014 0.09487925 0.4696457 -0.28058076 -0.39513788 -0.39931244 -0.09534809 -0.34925917
-0.32729602 -0.00059014786 0.27321577 0.4169278 0.14368483 0.09250678 0.16346996 -0.2433307
0.087802924 -0.27207786 -0.41300723 0.6607045 0.057601895 -0.36100972 0.28600135 0.27298483
-0.52500534 0.40403876 0.35752267 -0.4643724 -0.06058458 -0.29060486 0.050270014 0.19921938
-0.32739273 -0.213134 0.30071443 -0.7089659 0.26226413 0.34268105 0.14115046 -0.056631863
0.2859743 0.500191 -0.42358944 0.1543079 0.17750075 -0.6049317 0.014321686 0.2758409
0.122650996 0.002715072 0.268017 0.23447798 0.16561085 0.12921867 0.07739598 0.3350764
-0.229232 0.21535017 0.15277098 -0.13615198 -0.24003404 0.3909714 -0.49803847 -0.07869592
0.54787564 0.20863271 0.35706046 -0.5157411 0.07782096 0.18864523 0.20168471 -0.2685544
-0.091672435 -0.46385354 -0.07863817 -0.5115834 -0.5605735 0.12548235 -0.14039841 0.3039111
-0.3248044 -0.4087065 0.3691737 0.2281606 -0.20762233 0.08380852 -0.49344403 0.012383125
0.13947459 -0.6804608 -0.38213417 0.18535858 -0.33948076 0.055351958 0.362003 -0.23260063
0.25611243 -0.039512556 0.039929636 -0.18844052 0.24387865 -0.2228844 0.22463869 -0.08650663
00000000: 1261 093f 39f8 9dbd ab37 f0bd 3043 90be
00000010: 02e7 273d 5768 2fbe f549 87be c99b 213e
00000020: 932e e13d 7a44 8bbe 676d acbe 11fa aabe
00000030: 861f f7be 2bb0 3cbe c9a7 eebd 7ee2 87be
00000040: 540b c63d 929c 7bbc 34de 5a3e 2f10 443e
00000050: e93d 29bd 35bc 1c3e dac8 18bc 8bc9 ec3d
00000060: 720c 823d 9d0f 4dbe f7d4 e4be 6c4b 87bd
00000070: 1011 c93e fbb3 0abf ea7c 4b3e 1074 9d3e
00000080: 7766 cebe d89b db3e 95c5 fa3d 492a 07bf
00000090: 589e 81be 6a46 5cbe b5f1 3cbe 9e34 d23e
000000a0: 738b ac3e 0d50 c23d 6775 f03e 48a8 8fbe
000000b0: 834f cabe ae72 ccbe dc45 c3bd 19d2 b2be
000000c0: 5893 a7be 27b4 1aba f0e2 8b3e 9077 d53e
000000d0: 1e22 133e 3274 bd3d ab64 273e af2b 79be
000000e0: 05d2 b33d ca4d 8bbe af75 d3be ee23 293f
000000f0: f7ef 6b3d 44d6 b8be c56e 923e abc4 8b3e
00000100: c066 06bf 2bde ce3e 360d b73e 38c2 edbe
00000110: 8927 78bd 29ca 94be eee7 4d3d 2a00 4c3e
00000120: 05a0 a7be cd3f 5abe 3ef7 993e ca7e 35bf
00000130: 7c47 863e e473 af3e bf89 103e d0f6 67bd
00000140: 396b 923e 840c 003f b7e0 d8be e402 1e3e
00000150: c2c2 353e cedc 1abf 81a5 6a3c 053b 8d3e
00000160: 7230 fb3d 59ef 313b 8639 893e ff1a 703e
00000170: e495 293e e651 043e c981 9e3d 228f ab3e
00000180: cbbb 6abe c184 5c3e ff6f 1c3e 6d6b 0bbe
00000190: 7ccb 75be 672d c83e e6fe febe 542b a1bd
000001a0: 9441 0c3f d0a3 553e a1d0 b63e 9c07 04bf
000001b0: 9860 9f3d 372c 413e 7086 4e3e f67f 89be
000001c0: c2be bbbd 367e edbe 0d0d a1bd 21f7 02bf
000001d0: bf81 0fbf 727e 003e 9ac4 0fbe 3c9a 9b3e
000001e0: c34c a6be fa41 d1be 5604 bd3e efa2 693e
000001f0: f39a 54be cda3 ab3d b2a4 fcbe 97e2 4a3c
00000200: 6dd2 0e3e ae32 2ebf 17a7 c3be a4ce 3d3e
00000210: 6cd0 adbe bcb8 623d 7558 b93e dc2e 6ebe
00000220: 2b21 833e ebd7 21bd 428d 233d 8df6 40be
00000230: 53bb 793e cf3b 64be af07 663e 632a b1bd

conv1.bias f4 [16]
0.0099172015 -0.17569464 0.34263608 0.2726375 0.0031858156 0.26406014 0.12832843 0.18946251
0.1296576 -0.17086738 0.076955184 0.063078135 -0.44839618 0.02197469 -0.3604912 0.37347057
00000000: c27b 223c 4ce9 33be ff6d af3e 2497 8b3e
00000010: 1ec9 503b e432 873e 8768 033e 7602 423e
00000020: f6c4 043e dcf7 2ebe ae9a 9d3d 1c2f 813d
00000030: 2f94 e5be 4404 b43c 4d92 b8be 8937 bf3e

conv2.weight f4 [32, 16, 3, 3]
-0.058421843 -0.018352643 0.0670243 0.017500827 -0.14081866 -0.057650823 0.0130752735 -0.29963517
0.043284822 -0.04162448 0.035625488 0.06505784 0.010424626 0.20472318 -0.006236839 0.046272904
0.10307672 0.0066217957 0.04821175 -0.043500777 -0.15336065 0.05905236 -0.15266573 -0.09377209
-0.057835266 -0.12381457 0.05270589 0.0865432 -0.018003525 -0.05514867 0.23132867 -0.34043133
-0.042024355 0.052693482 0.06468669 0.18952142 0.12128278 -0.18969004 -0.06941796 0.14848024
0.02927488 0.06728837 0.0020769113 0.105485536 0.125299 -0.14069325 -0.23662369 -0.062126897
-0.25596234 0.012042671 0.044404157 -0.17359848 0.14900954 -0.112747945 -0.038757794 -0.08268978
-0.098763324 -0.15969919 -0.05071832 -0.080733135 0.0028155858 0.0016891818 -0.092138276 -0.12408512
0.04551978 -0.027529713 -0.054803204 0.020855188 -0.068313085 0.15753525 -0.14016479 -0.14683506
-0.04137283 -0.12360195 -0.07666644 -0.23081361 0.06888184 0.09830314 -0.12734953 0.1855125
-0.0037726043 0.12778834 0.0471678 -0.013532174 0.40003243 0.0542297 -0.15509641 0.26191393
-0.062072195 0.10349376 0.13485463 -0.03203451 0.062296137 0.0022122725 0.08373094 0.074475296
0.022918971 0.01666835 -0.036716357 0.015477993 -0.19725893 0.037639327 -0.22162949 0.18395865
0.32109398 -0.25711915 0.32562214 0.06845479 0.081907846 0.20523022 -0.03284979 0.24675944
0.39257273 -0.17350155 0.117282495 -0.03632584 0.0763766 -0.06817551 -0.018065264 0.015751319
-0.091744564 -0.06293308 0.024284163 -0.108176105 -0.09036674 -0.02491891 -0.03070138 -0.050089564
0.24234654 -0.14311582 0.19395788 0.21239871 0.09057422 0.2024458 -0.10546099 -0.040874433
-0.096340455 -0.05095911 -0.14090057 -0.108829476 0.110755034 0.026115797 0.0055843815 0.043755285
0.046840236 -0.091051355 -0.24899141 0.032318324 -0.064617485 -0.05807771 0.044766627 0.15346102
-0.079681486 0.15488288 0.16265452 0.10431524 0.10506814 -0.057815112 -0.034661584 0.035705015
-0.18154879 0.11839259 -0.06733809 -0.028619833 -0.13584873 -0.032927126 0.0026337064 -0.056139167
-0.022009768 0.02730981 -0.045026466 0.065198466 0.11437505 -0.23022355 0.051315848 0.08869572
-0.1480471 0.10915561 0.12936276 -0.029219706 -0.13441044 -0.024795046 -0.23047057 -0.2194335
0.0129568055 -0.12333956 -0.27745193 0.14960839 0.016124658 0.14160989 0.05049289 0.06552706
0.06608064 0.013827174 0.013194305 0.06807442 0.048250522 0.0523294 -0.027671413 0.06704001
-0.0025826714 0.24237688 0.0811922 -0.004929738 0.2436778 0.00836357 0.026881026 -0.06534812
0.06193858 -0.06211466 0.10247048 0.081778534 -0.010258185 0.20776051 0.033275098 0.042866323
0.042870123 -0.15638001 0.057604913 0.13546078 -0.10242838 0.03441273 0.120959274 0.05446998
0.10139925 -0.097418696 0.12732075 -0.25114357 -0.112707786 0.064047635 -0.2302754 -0.15945828
0.16654974 -0.14178126 -0.20793751 -0.2529021 -0.13515669 -0.08506303 -0.20344093 -0.066777766
-0.08360943 -0.14661403 -0.102856144 0.11096801 -0.16101353 -0.06704898 0.13385439 -0.122714415
-0.017643647 -0.06300822 -0.12752485 0.03987578 -0.11750228 -0.102446385 -0.0742439 -0.45957378
00000000: be4b 6fbd 4858 96bc 0944 893d e55d 8f3c
00000010: c432 10be 4523 6cbd ac39 563c c869 99be
00000020: 6d4b 313d 6e7e 2abd 08ec 113d 0b3d 853d
00000030: 0dcc 2a3c f4a2 513e 665e ccbb a888 3d3d
00000040: e319 d33d a6fb d83b af79 453d df2d 32bd
00000050: 930a 1dbe e3e0 713d 6854 1cbe 950b c0bd
00000060: ace4 6cbd 7e92 fdbd 22e2 573d 903d b13d
00000070: 217c 93bc 92e3 61bd 6ce1 6c3e 044d aebe
00000080: bb21 2cbd 1fd5 573d 757a 843d e711 423e
00000090: 1b63 f83d 1b3e 42be 012b 8ebd 340b 183e
000000a0: e0d1 ef3c 7cce 893d ca1c 083b cd08 d83d
000000b0: 624e 003e e411 10be 7b4d 72be c678 7ebd
000000c0: 7f0d 83be a04e 453c 22e1 353d cdc3 31be
000000d0: f595 183e 65e8 e6bd 7ec0 1ebd 4259 a9bd
000000e0: 6d44 cabd 2f88 23be 03be 4fbd 6a57 a5bd
000000f0: b185 383b 8967 dd3a feb2 bcbd 5720 febd
00000100: f372 3a3d fe85 e1bc 5379 60bd 80d8 aa3c
00000110: bbe7 8bbd ec50 213e 5c87 0fbe ee5b 16be
00000120: 8e76 29bd 0523 fdbd 4b03 9dbd 675a 6cbe
00000130: ec11 8d3d 2853 c93d ea67 02be fdf6 3d3e
00000140: cc3d 77bb f2da 023e 0633 413d 0db6 5dbc
00000150: 0dd1 cc3e f61f 5e3d 98d1 1ebe 9519 863e
00000160: 6a3f 7ebd 89f4 d33d 5517 0a3e 9e36 03bd
00000170: 3c2a 7f3d c6fb 103b 217b ab3d 8186 983d
00000180: 91c0 bb3c 108c 883c e463 16bd 6897 7d3c
00000190: 3ffe 49be b22b 1a3d d7f2 62be a85f 3c3e
000001a0: 6e66 a43e 1fa5 83be f2b7 a63e 0632 8c3d
000001b0: 4dbf a73d df27 523e 808d 06bd 82ae 7c3e
000001c0: 4bff c83e 64aa 31be ce31 f03d 67ca 14bd
000001d0: 566b 9c3d 9a9f 8bbd 9bfd 93bc e908 813c
000001e0: 93e4 bbbd 0fe3 80bd 95ef c63c 6f8b ddbd
000001f0: 3312 b9bd be22 ccbc 7681 fbbc b72a 4dbd
00000200: b129 783e f48c 12be e59c 463e 0c7f 593e
00000210: fa7e b93d f44d 4f3e eefb d7bd f36b 27bd
00000220: 254e c5bd 80ba 50bd 3d48 10be fde1 debd
00000230: 89d3 e23d ccf0 d53c 30fd b63b be38 333d
00000240: 8cdb 3f3d 2279 babd 9bf7 7ebe 3860 043d
00000250: 2c56 84bd e5e2 6dbd 365d 373d e324 1d3e
00000260: 0c30 a3bd 9e99 1e3e e88e 263e 3ba3 d53d
00000270: f72d d73d 8acf 6cbd 4ef9 0dbd 6c3f 123d
00000280: ede7 39be d077 f23d 8de8 89bd 2474 eabc
00000290: ee1b 0bbe 98de 06bd 439a 2c3b 2ff2 65bd
000002a0: d44d b4bc d3b8 df3c ac6d 38bd c686 853d
000002b0: 773d ea3d b9bf 6bbe 9130 523d 1aa6 b53d
000002c0: a999 17be fa8c df3d ac77 043e 2a5e efbc
000002d0: e4a2 09be fb1e cbbc 7a00 6cbe 2db3 60be
000002e0: c848 543c 7499 fcbd 2e0e 8ebe f132 193e
000002f0: dc17 843c 2f02 113e a2d1 4e3d 0d33 863d
00000300: 4955 873d 5f8b 623c ed2c 583c 9a6a 8b3d
00000310: 57a2 453d 5a57 563d 29af e2bc 464c 893d
00000320: 0942 29bb a531 783e 1948 a63d a489 a1bb
00000330: ac86 793e 5b07 093c 9935 dc3c 3cd5 85bd
00000340: 4fb3 7d3d f16b 7ebd 0bdc d13d 817b a73d
00000350: f211 28bc 2cbf 543e 784b 083d 9994 2f3d
00000360: 9598 2f3d 1522 20be 21f3 6b3d 3bb6 0a3e
00000370: f8c5 d1bd 5df4 0c3d 7fb9 f73d ea1b 5f3d
00000380: 69aa cf3d 7483 c7bd 5f60 023e e495 80be
00000390: 57d3 e6bd 682b 833d 51cd 6bbe 0849 23be
000003a0: 048c 2a3e 1b2f 11be 92ed 54be 627c 81be
000003b0: 8466 0abe 8735 aebd d252 50be c8c2 88bd
000003c0: 6c3b abbd fd21 16be 3ea6 d2bd 3243 e33d
000003d0: bbe0 24be fa50 89bd 2011 093e b251 fbbd
000003e0: 6989 90bc 740a 81bd e095 02be c954 233d
000003f0: 09a5 f0bd 69cf d1bd 300d 98bd 414d ebbe

conv2.bias f4 [32]
-0.17722157 0.15598518 0.1606811 0.02128535 -0.03316252 0.024251303 -0.046162177 -0.11982712
0.15938741 -0.0027958576 0.097723395 0.12511474 -0.124195196 -0.060597885 -0.18714324 0.14131013
0.18834549 0.0058376733 -0.12196371 -0.013667604 0.15330717 -0.15939984 -0.12602676 -0.022613548
-0.09818175 0.067811 -0.09776684 0.1763135 0.09700616 0.054798525 -0.060491107 0.015064174
00000000: 9279 35be 94ba 1f3e 9689 243e 9d5e ae3c
00000010: 6cd5 07bd abaa c63c 8d14 3dbd ec67 f5bd
00000020: 7436 233e b53a 37bb 3423 c83d 141e 003e
00000030: 0d5a febd 7d35 78bd 7aa2 3fbe 9ab3 103e
00000040: a4dd 403e f449 bf3b 1cc8 f9bd 16ee 5fbc
00000050: 8efc 1c3e b639 23be 290d 01be 0c40 b9bc
00000060: 8313 c9bd 7ee0 8a3d fb39 c8bd 878b 343e
00000070: 2aab c63d 6b74 603d 86c5 77bd bacf 763c

conv3.weight f4 [64, 32, 3, 3]
0.006670248 -0.036328103 0.03248934 0.003517197 -0.0096161235 0.025139334 -0.011320883 -0.028065
-0.010977216 0.060115337 0.0054775695 -0.0026733184 -0.03825932 -0.0391222 -0.044206772 0.043524906
-0.0034034746 -0.039999094 0.008807768 0.0048549687 0.023370344 0.03218276 -0.046376877 -0.004034336
-0.009499964 -0.061159864 -0.0067032413 -0.048305903 -0.05623299 -0.014765517 -0.011416889 -0.010944679
-0.047590863 -0.057548475 0.036666695 0.035807803 -0.00741228 -0.008619937 0.017869012 -0.060578555
0.0037953986 -0.021735853 -0.074204326 -0.004558808 -0.013541632 0.006684087 -0.07070099 -0.03389051
-0.054167967 0.033784654 -0.0024725653 0.0366909 -0.005326047 0.03169616 -0.06221805 -0.077945635
-0.040410977 -0.009375769 -0.016591908 -0.0036855112 0.021533044 0.035646856 -0.06971195 -0.025947267
0.0123904245 -0.027429486 0.03329672 -0.049428366 -0.0038703305 -0.015253835 -0.029475491 0.024413588
0.016917361 0.025629893 0.03620932 0.024309585 0.0038301018 -0.07385192 -0.015527819 -0.011791904
-0.05883965 -0.022594173 0.027553251 -0.020598676 -0.010116145 0.011741777 -0.032971177 -0.016142001
0.018619014 -0.051351245 0.030310843 -0.006281984 -0.06712022 -0.0016911298 -0.03320282 -0.056134
-0.0379665 -0.0312098 -0.06393818 -0.035473518 -0.03815485 0.0014408135 0.016809028 0.030252194
-0.038780022 -0.047210474 -0.06801111 -0.073473 0.05019543 -0.0007142965 0.026978541 0.025634304
0.024996147 0.0026448611 -0.0651341 0.00980667 -0.022847181 -0.016359858 -0.00090341177 -0.0057597477
0.014706505 -0.06983412 -0.048655044 0.011490668 0.036295716 -0.049424622 0.018603891 0.025351137
0.0061392286 -0.067725815 0.0138501385 0.019454842 -0.06603844 0.012456294 -0.01593524 -0.0046321373
0.031853586 -0.039687842 -0.052023552 -0.03106695 0.014737731 0.033007037 -0.06391615 0.027237218
0.020670494 -0.03826474 -0.012882389 -0.06469275 -0.07874238 -0.06888105 -0.031500038 0.037786752
-0.014276167 -0.06482303 -0.03338376 0.021569947 -0.033311114 -0.03347954 0.024376325 0.041689284
-0.027539767 -0.06696595 0.001205961 0.037930325 -0.03303567 -0.07410435 -0.046874657 -0.060808614
0.019061083 0.02972355 0.03797781 -0.053572774 -0.031235574 0.0031662344 0.017724628 0.028794572
-0.036747754 -0.02226593 0.019655995 0.033682935 -0.0038832743 -0.058356725 0.027144682 -0.03269564
0.012208659 -0.028391495 0.01851271 -0.050185483 -0.053511314 -0.02664101 0.02612675 -0.010509742
-0.021503117 0.015107996 0.027687838 0.014180723 -0.036387783 0.034783375 0.040419895 -0.075857565
-0.069893055 -0.07998491 -0.07045525 -0.06952018 -0.051586326 -0.06532298 0.002711375 -0.053124472
0.0070730946 0.025687492 -0.021391375 -0.017812245 0.019978331 -0.026647257 -0.04214013 0.008134315
-0.07946552 -0.07416177 -0.0007777062 -0.038789604 -0.039112132 -0.028187921 0.005524647 0.028244752
-0.027292993 0.06478057 -0.050462727 -0.06079164 0.03180461 -0.03864267 0.009519769 -0.05696951
0.025229797 0.00895913 0.06187965 -0.026648954 -0.0235331 0.017340312 -0.023518652 -0.024158401
-0.043734003 -0.0060786735 -0.029014103 -0.042764027 -0.010196655 0.031123405 -0.06893584 -0.055623498
0.0109997 -0.03541289 -0.06003678 0.03144969 0.050057687 -0.017787503 -0.040248483 0.050668392
00000000: 1992 da3b c7cc 14bd 8b13 053d c680 663b
00000010: f28c 1dbc 01f1 cd3c 3a7b 39bc 92e8 e5bc
00000020: c8d9 33bc 803b 763d 2f7d b33b d732 2fbb
00000030: ceb5 1cbd 9a3e 20bd 2912 35bd 2c47 323d
00000040: d40c 5fbb 17d6 23bd 754e 103c 6e16 9f3b
00000050: 2a73 bf3c 12d2 033d aef5 3dbd 7732 84bb
00000060: bda5 1bbc c482 7abd dda6 dbbb 69dc 45bd
00000070: 9054 66bd 11eb 71bc e70d 3bbc 5051 33bc
00000080: a3ee 42bd f3b7 6bbd d12f 163d 34ab 123d
00000090: b6e2 f2bb a33a 0dbc 0962 923c 3821 78bd
000000a0: 39bc 783b 630f b2bc 70f8 97bd 0e62 95bb
000000b0: b9dd 5dbc 3006 db3b aecb 90bd c7d0 0abd
000000c0: 3bdf 5dbd c761 0a3d c30a 22bb 3249 163d
000000d0: 1f86 aebb d5d3 013d 5bd8 7ebd f6a1 9fbd
000000e0: fb85 25bd d39c 19bc c1eb 87bc 9e88 71bb
000000f0: 1166 b03c 7002 123d 24c5 8ebd 5d8f d4bc
00000100: 3501 4b3c cdb3 e0bc 2462 083d 6675 4abd
00000110: 5fa5 7dbb 39eb 79bc 9676 f1bc 01ff c73c
00000120: 4796 8a3c c8f5 d13c 3950 143d e524 c73c
00000130: 7202 7b3b ad3f 97bd 6568 7ebc d532 41bc
00000140: d801 71bd 6a17 b9bc 5bb7 e13c 8ebe a8bc
00000150: 30be 25bc 9560 403c c90c 07bd 3b3c 84bc
00000160: e786 983c af55 52bd 724e f83c 1ad9 cdbb
00000170: 5376 89bd e6a8 ddba aeff 07bd c4ec 65bd
00000180: c382 1bbd b2ab ffbc 05f2 82bd ae4c 11bd
00000190: 4348 1cbd aed9 bc3a 16b3 893c 73d3 f73c
000001a0: cdd7 1ebd c55f 41bd 6949 8bbd 0379 96bd
000001b0: b999 4d3d a03f 3bba 1a02 dd3c 08ff d13c
000001c0: b8c4 cc3c 6855 2d3b 0765 85bd 28ac 203c
000001d0: 032a bbbc 1c05 86bc f0d2 6cba 44bc bcbb
000001e0: 8ef3 703c 3105 8fbd 834a 47bd 5b43 3c3c
000001f0: d1aa 143d 7971 4abd 3067 983c 30ad cf3c
00000200: 952b c93b d5b3 8abd b1eb 623c c35f 9f3c
00000210: 293f 87bd 7c15 4c3c 9f8a 82bc 2fc9 97bb
00000220: e878 023d b88f 22bd a616 55bd 1e80 febc
00000230: 8676 713c 6332 073d 78e6 82bd 9620 df3c
00000240: 2b55 a93c 7dbb 1cbd a810 53bc a27d 84bd
00000250: af43 a1bd 8211 8dbd 2f06 01bd 48c6 1a3d
00000260: 96e6 69bc f0c1 84bd 69bd 08bd 75b3 b03c
00000270: 3c71 08bd d821 09bd dcb0 c73c 62c2 2a3d
00000280: 149b e1bc 7225 89bd 5611 9e3a d45c 1b3d
00000290: 6950 07bd 05c4 97bd a4ff 3fbd 7412 79bd
000002a0: fd25 9c3c cd7e f33c 9f8e 1b3d 206f 5bbd
000002b0: bfe1 ffbc 9980 4f3b 3d33 913c 98e2 eb3c
000002c0: d084 16bd 0a67 b6bc 9c05 a13c 1ef7 093d
000002d0: 887e 7ebb 7607 6fbd 865e de3c ddeb 05bd
000002e0: d406 483c 4895 e8bc f8a7 973c 4b8f 4dbd
000002f0: ae2e 5bbd 3f3e dabc c407 d63c 0e31 2cbc
00000300: 4e27 b0bc 8787 773c 9bd1 e23c 4356 683c
00000310: 5b0b 15bd 0379 0e3d 558f 253d 365b 9bbd
00000320: 1724 8fbd 21cf a3bd d84a 90bd 9960 8ebd
00000330: 2f4c 53bd 0ec8 85bd 53b1 313b 0c99 59bd
00000340: 6bc5 e73b 936e d23c f73c afbc fcea 91bc
00000350: 99a9 a33c 594b dabc 219b 2cbd ca45 053c
00000360: d2be a2bd 20e2 97bd fbde 4bba d9e1 1ebd
00000370: 0b34 20bd 5bea e6bc 1908 b53b 8a61 e73c
00000380: 8e95 dfbc adab 843d 01b2 4ebd a800 79bd
00000390: 8d45 023d c747 1ebd cef8 1b3c dc58 69bd
000003a0: b8ae ce3c 51c9 123c 8475 7d3d e84e dabc
000003b0: 7dc8 c0bc 450d 8e3c 30aa c0bc d7e7 c5bc
000003c0: 6d22 33bd 9c2f c7bb fcae edbc 5529 2fbd
000003d0: df0f 27bc 83f6 fe3c 3c2e 8dbd 77d5 63bd
000003e0: 1638 343c 1b0d 11bd 20e9 75bd 64d1 003d
000003f0: 4a09 4d3d 19b7 91bc 98db 24bd a989 4f3d

conv3.bias f4 [64]
0.038269736 -0.01780447 -0.020125488 0.07580114 0.05126123 0.009067395 -0.05628083 -0.005516621
0.04982095 -0.026615322 0.10431792 -0.0889679 0.16722308 -0.08334248 0.06284467 0.13307226
-0.031590257 0.020415548 -0.11546183 0.06562817 0.0334677 -0.08009697 0.05594284 -0.020976013
0.0023950634 0.05143786 -0.025562633 -0.11437148 -0.009277813 0.1221818 -0.13588229 0.04251939
0.038593348 0.057441913 -0.19630049 0.025069917 -0.0047980705 -0.10597871 0.020604491 -0.034611307
0.010164362 -0.14438374 -0.040580936 -0.031980924 -0.020074286 0.0027698248 0.072644666 -0.089724205
-0.05692519 -0.010569839 0.0010939823 -0.054319497 0.007538308 -0.11816764 -0.07073886 -0.049891815
-0.14860205 -0.13222712 -0.01820373 0.05803987 0.038070202 -0.05162684 0.068529345 -0.019867232
00000000: bac0 1c3d aeda 91bc 35de a4bc a13d 9b3d
00000010: 4cf7 513d 698f 143c ba86 66bd c5c4 b4bb
00000020: 0d11 4c3d 6008 dabc a2a4 d53d cd34 b6bd
00000030: 873c 2b3e 76af aabd b5b4 803d 1844 083e
00000040: c964 01bd 823e a73c 4077 ecbd 1068 863d
00000050: 6d15 093d e109 a4bd 5224 653d e3d5 abbc
00000060: 7ff6 1c3b 81b0 523d ba68 d1bc 983b eabd
00000070: f801 18bc 743a fa3d ba24 0bbe d028 2e3d
00000080: 0f14 1e3d 3648 6b3d ff02 49be 6d5f cd3c
00000090: 2239 9dbb 5e0b d9bd c0ca a83c 96c4 0dbd
000000a0: 6d88 263c 55d9 13be 3238 26bd 6efe 02bd
000000b0: d472 a4bc f385 353b bac6 943d 53c1 b7bd
000000c0: 632a 69bd 1e2d 2dbc f463 8f3a 1f7e 5ebd
000000d0: e903 f73b e001 f2bd 89df 90bd 5c5b 4cbd
000000e0: 232b 18be 8c66 07be fd1f 95bc 37bb 6d3d
000000f0: 80ef 1b3d aa76 53bd 1d59 8c3d 9bc0 a2bc

fc1.weight f4 [64, 576]
-0.006747854 0.02542499 -0.036954317 -0.01609669 -0.022454266 0.034228083 -0.025888352 -0.025832754
0.014658775 0.082975395 -0.011862237 0.16861372 -0.05204524 -0.044356134 -0.06597713 -0.018788943
-0.0013627436 -0.19362319 -0.060404383 -0.050439388 -0.030861763 -0.22645813 -0.09114421 0.012668158
-0.2222548 0.03575423 0.098251894 0.061769135 0.046434052 0.13368168 -0.16301154 -0.109987825
-0.022817183 -0.054826405 -0.04931567 -0.06555712 -0.035359424 0.15758812 0.116235174 0.035297476
-0.06465171 -0.1339565 0.07546709 -0.15661447 -0.2690935 -0.10758473 -0.18689111 -0.08830063
0.014520619 -0.010590211 -0.03521346 -0.068198584 -0.105921485 0.13248457 0.06745551 0.10763907
-0.03238138 -0.10255371 0.06803194 -0.052652072 0.03171623 0.043734856 -0.117934234 0.011391773
-0.07355927 -0.017718168 0.072204426 -0.16258493 -0.0030980776 0.018147493 -0.00909325 0.04790108
0.024346087 -0.036740415 0.20108916 -0.04367503 -0.08507975 -0.04633512 0.02231655 0.11180081
0.1565246 -0.042749874 -0.027452914 -0.061147317 -0.18435253 0.0085796155 -0.06584892 0.013450146
0.04815616 -0.028606167 0.043966137 0.06920622 -0.114397034 0.024255909 -0.047937434 -0.26097867
0.031332627 -0.0105137015 -0.06711009 0.01430737 -0.12541535 -0.087561205 -0.0005058574 0.013880717
-0.0110927485 -0.030274836 0.0975779 -0.0059918626 0.0151351895 0.031351242 0.077941194 0.0593632
-0.25307676 -0.014792686 0.08191157 -0.17094207 0.06003687 0.06371048 -0.0040039285 0.058916643
0.023704875 0.10184395 0.051855378 -0.11133352 0.23434633 -0.004778634 0.09984025 -0.03976567
0.010896812 -0.069134876 -0.09072056 0.007039113 6.930367e-05 -0.05999402 0.050454903 -0.028516043
-0.003640281 -0.08106306 -0.016489867 0.0008709174 0.024610152 0.13104467 -0.030180067 0.20476602
-0.07867881 0.07533809 0.04573232 -0.03746058 -0.028942833 0.060146064 -0.13003986 -0.09144843
0.064497694 -0.018303968 0.13498259 0.11584788 0.06451445 0.074131705 0.057343133 0.039946683
-0.047018312 -0.051711258 -0.01566875 0.16359231 0.006889985 -0.16182591 -0.08061831 -0.032353885
-0.056981742 -0.14904194 -0.021174587 -0.032720298 0.15807964 0.08617449 0.06904489 0.0050187474
-0.0025161575 -0.06903706 -0.059350874 -0.14806546 0.062102437 0.12386906 -0.065694004 -0.050152037
0.059297174 -0.10569493 0.054816432 -0.17242551 0.07834725 0.04930388 -0.041598238 -0.20596892
0.035468157 0.024204658 0.07756591 0.12192354 -0.07666338 0.13043605 -0.058639683 0.04475766
-0.21158445 -0.2584107 -0.1650976 0.0017387329 0.059062317 -0.038445745 0.107995264 -0.029403137
-0.055520244 0.007090389 -0.022570558 0.026709124 -0.015281649 -0.06446262 -0.023871975 0.024475291
0.10948621 0.15566984 -0.1587221 -0.008478412 -0.030740382 -0.124539435 0.048662722 -0.060968775
0.012274572 -0.25307825 0.06388897 -0.12407474 -0.16744754 0.018004432 -0.19655584 -0.029969543
0.022495998 -0.1717517 0.004561422 0.053581785 -0.12021197 -0.06737251 -0.1535273 -0.11186977
-0.021757932 0.10991976 0.022625854 -0.12600996 0.14447841 0.119253546 -0.018494982 -0.12381106
-0.13622671 -0.2543602 -0.048538648 -0.11039237 0.004388345 0.10603264 0.010191807 0.11711641
00000000: 1a1d ddbb 1248 d03c 695d 17bd 35dd 83bc
00000010: 02f2 b7bc bf32 0c3d cf13 d4bc 369f d3bc
00000020: 5c2b 703c 01ef a93d d459 42bc 13a9 2c3e
00000030: 642d 55bd c7ae 35bd 041f 87bd 45eb 99bc
00000040: 169e b2ba 2845 46be 966a 77bd 8899 4ebd
00000050: cfd1 fcbc a4e4 67be d1a9 babd 1b8e 4f3c
00000060: c396 63be 0773 123d 4a38 c93d a201 7d3d
00000070: a231 3e3d dae3 083e 7fec 26be 4c41 e1bd
00000080: 1aeb babc a791 60bd 3aff 49bd d042 86bd
00000090: 0bd5 10bd c85e 213e b50c ee3d 1694 103d
000000a0: 1e68 84bd e52b 09be 7d8e 9a3d 8b5f 20be
000000b0: a0c6 89be 6255 dcbd 6260 3fbe f6d6 b4bd
000000c0: e4e7 6d3c 9082 2dbc fd3b 10bd b3ab 8bbd
000000d0: 5ded d8bd 09aa 073e 1d26 8a3d df71 dc3d
000000e0: 57a2 04bd ae07 d2bd 5454 8b3d b3a9 57bd
000000f0: e1e8 013d 5223 333d 8187 f1bd 8fa4 3a3c
00000100: 3ea6 96bd b125 91bc eadf 933d aa7c 26be
00000110: 1e09 4bbb 0daa 943c dbfb 14bc ec33 443d
00000120: 7271 c73c 1e7d 16bd 51ea 4d3e 97e4 32bd
00000130: 4b3e aebd e5c9 3dbd 33d1 b63c d3f7 e43d
00000140: fc47 203e 7e1a 2fbd efe4 e0bc 9c75 7abd
00000150: e9c6 3cbe 8491 0c3c ccdb 86bd 005e 5c3c
00000160: 653f 453d 7b57 eabc d615 343d febb 8d3d
00000170: fe48 eabd 54b4 c63c 0b5a 44bd ff9e 85be
00000180: a456 003d a941 2cbc 0471 89bd 7669 6a3c
00000190: e26c 00be 4a53 b3bd 849b 04ba f26b 633c
000001a0: 5cbe 35bc ef02 f8bc ecd6 c73d 6357 c4bb
000001b0: 96f9 773c 296a 003d a29f 9f3d d426 733d
000001c0: 4793 81be 065d 72bc 41c1 a73d 700b 2fbe
000001d0: 39e9 753d a47a 823d 6333 83bb 9452 713d
000001e0: ba30 c23c 9093 d03d 4e66 543d d402 e4bd
000001f0: 7cf8 6f3e 1696 9cbb 0c79 cc3d 54e1 22bd
00000200: 8b88 323c 9696 8dbd b3cb b9bd 5ca8 e63b
00000210: 2057 9138 4abc 75bd cda9 4e3d 7a9a e9bc
00000220: c891 6ebb 6404 a6bd c215 87bc 474e 643a
00000230: 3b9b c93c 9330 063e 303c f7bc 2fae 513e
00000240: 5b22 a1bd db4a 9a3d d051 3b3d 4470 19bd
00000250: 8519 edbc b85b 763d 2b29 05be 5149 bbbd
00000260: 5e17 843d 34f2 95bc e038 0a3e a741 ed3d
00000270: 2720 843d 5dd2 973d a2e0 6a3d 229f 233d
00000280: 4696 40bd 2fcf 53bd c05b 80bc be84 273e
00000290: 62c5 e13b b1b5 25be 361b a5bd 8285 04bd
000002a0: b065 69bd 739e 18be 5476 adbc b805 06bd
000002b0: a1df 213e 407c b03d 6867 8d3d 4e74 a43b
000002c0: 1ee6 24bb 4d63 8dbd e719 73bd 799e 17be
000002d0: 205f 7e3d 10af fd3d 948a 86bd 396c 4dbd
000002e0: 98e1 723d 9576 d8bd 3287 603d 5090 30be
000002f0: 8674 a03d def2 493d ea62 2abd 84e9 52be
00000300: 0f47 113d d948 c63c e0da 9e3d 0db3 f93d
00000310: b101 9dbd 0791 053e 2a30 70bd cf53 373d
00000320: 98a9 58be 684e 84be 580f 29be 32e6 e33a
00000330: 54eb 713d 4979 1dbd 9f2c dd3d d9de f0bc
00000340: 3269 63bd 7e56 e83b e4e5 b8bc 18cd da3c
00000350: e25f 7abc fa04 84bd 298f c3bc 6880 c83c
00000360: 4e3a e03d ea67 1f3e 0c88 22be 0ae9 0abc
00000370: 41d3 fbbc 880e ffbd 9052 473d 65ba 79bd
00000380: 491b 493c 7993 81be 38d8 823d e61a febd
00000390: 5e77 2bbe 087e 933c ef45 49be b082 f5bc
000003a0: 8749 b83c addf 2fbe fb77 953b 9378 5b3d
000003b0: b131 f6bd 99fa 89bd 4336 1dbe fa1b e5bd
000003c0: b13d b2bc 9c1d e13d db59 b93c c108 01be
000003d0: 26f2 133e 343b f43d ca82 97bc a790 fdbd
000003e0: 047f 0bbe 803b 82be 76d0 46bd 6515 e2bd
000003f0: 1bcc 8f3b a427 d93d 89fb 263c bada ef3d

fc1.bias f4 [64]
0.02103429 0.029538643 0.10415119 0.10760751 0.03494386 0.08812733 0.029551176 0.003359248
-0.020344727 -0.008751421 0.070926845 -0.04075263 -0.04397937 0.12393221 -0.021819491 -0.0038335337
0.023938013 0.10217334 -0.057815462 0.006762059 0.071998894 0.0041585746 -0.018957185 -0.057590745
-0.015203612 -0.0057510673 0.04933321 -0.04238681 0.13313851 -0.0187222 -0.046344955 0.013019914
0.10387994 0.039722927 0.09515577 0.024151394 -0.07617589 0.011475857 0.027533919 -0.016894344
-0.04520274 0.021620011 0.12890854 -0.06005985 0.0060089114 0.03055706 0.050225016 0.009756098
0.027543847 0.041039333 -0.060464896 0.036834087 -0.03682971 0.023959745 -0.0023818011 0.1136716
-0.0813051 0.06809947 0.005578342 -0.0063461424 -0.016830217 0.12233937 0.027739838 0.064486474
00000000: 1a50 ac3c 06fb f13c 384d d53d 5461 dc3d
00000010: 4b21 0f3d 1a7c b43d 4f15 f23c d426 5c3b
00000020: fca9 a6bc 1f62 0fbc 1842 913d 3bec 26bd
00000030: b623 34bd 2cd0 fd3d cabe b2bc 063c 7bbb
00000040: a719 c43c 4240 d13d e8cf 6cbd 4394 dd3b
00000050: 2874 933d a744 883b 194c 9bbc 46e4 6bbd
00000060: 9218 79bc 7373 bcbb 9f11 4a3d cb9d 2dbd
00000070: 7655 083e 4d5f 99bc 35d4 3dbd 7a51 553c
00000080: 02bf d43d 82b4 223d 07e1 c23d 25d9 c53c
00000090: 1b02 9cbd 3c05 3c3c d08e e13c 0266 8abc
000000a0: 8226 39bd 731c b13c 9a00 043e 5101 76bd
000000b0: 67e6 c43b cd52 fa3c bfb8 4d3d 0ad8 1f3c
000000c0: a2a3 e13c dc18 283d 0aaa 77bd 57df 163d
000000d0: c0da 16bd 3a47 c43c fe17 1cbb a8cc e83d
000000e0: 4a83 a6bd bc77 8b3d 86ca b63b 4df3 cfbb
000000f0: 86df 89bc 108d fa3d a83e e33c 7c11 843d

fc2.weight f4 [10, 64]
-0.16607426 -0.19820443 -0.06664011 0.08268115 -0.09215542 -0.27903587 -0.31984827 -0.16565016
-0.10780596 -0.09639481 0.15279359 -0.028554672 -0.050901216 -0.13417572 -0.04348375 0.06684077
-0.22175889 -0.20531411 0.06625578 0.17837167 -0.19375171 0.13618417 -0.1442481 -0.05400683
-0.064590715 -0.035471343 -0.19623725 0.045871217 -0.07011062 0.049553476 -0.20832048 -0.0064968914
0.061293807 0.05984661 -0.015578398 0.048787422 -0.13798265 0.064833954 0.114851594 -0.046938457
0.0037952578 -0.16102067 -0.094915815 0.058402084 0.113290705 0.035220418 -0.08431255 -0.21852703
0.10665531 0.13066167 -0.13683954 0.09616371 -0.058532767 -0.114946485 -0.29079893 0.13799332
-0.002977883 0.1046688 0.0038675922 -0.089943 -0.05175894 0.007911034 0.1660425 -0.09367263
0.29549745 -0.27061254 -0.1979613 -0.25613037 -0.11194997 -0.49980882 0.2187303 -0.14993885
0.061111096 0.060800977 -0.158385 -0.10885389 0.009135378 0.13050807 -0.3574112 0.083872974
-0.10027887 -0.3381439 -0.14098887 0.091197304 -0.3908566 -0.107675046 0.142845 0.012117601
0.044966884 0.13513896 0.16895112 0.10555214 -0.33312556 0.09010084 0.1122634 -0.07890997
0.0034909274 -0.12044523 -0.02614729 -0.083380766 -0.066240005 -0.3195404 0.019665277 0.17747137
-0.05211519 -0.11629016 -0.3491334 -0.085321665 -0.08431942 -0.23105694 -0.05987402 -0.20812632
-0.0860168 -0.005628436 -0.061171148 -0.24761066 0.048175838 0.16514479 -0.2718589 -0.49504095
0.015651034 -0.32466558 -0.07666095 -0.30093732 0.025146743 0.14729989 -0.121890925 0.15570153
-0.15562575 0.1297252 -0.3180934 -0.08491464 -0.044073403 -0.030344093 -0.31857318 0.10487463
-0.053207073 0.10870138 0.1270672 0.031293318 -0.02787919 0.14685796 -0.31346476 -0.06938486
-0.1699721 -0.24005923 -0.061461642 -0.012280225 -0.044922765 0.06005725 -0.056900255 -0.058166437
0.061238457 -0.05688994 -0.14981279 -0.0131727075 0.121402115 -0.14647007 -0.16472581 -0.034645412
0.05171951 0.046645407 -0.036944516 -0.054202925 -0.03715356 0.1044723 -0.11671137 -0.20404518
0.012524087 -0.1021559 0.19010738 0.035403606 -0.022701686 -0.25047496 0.104257844 -0.26177782
-0.24517275 0.027851779 -0.11967005 -0.056783326 -0.011181812 -0.067937605 -0.3145301 0.13263254
0.09866434 0.10830494 0.017767124 0.027670654 -0.00158618 0.12190109 -0.19419567 -0.22422394
0.007957389 -0.096515074 0.22081034 0.0582635 0.07586426 -0.24136566 -0.27706096 0.11085946
-0.09205329 -0.044580106 -0.25567582 0.013477982 -0.030500686 0.05200988 -0.36501256 0.06978891
0.050235365 -0.1760904 0.045530878 -0.3363734 0.15901719 0.05293883 0.13052113 -0.1554789
0.066688314 0.057816382 -0.013718325 -0.042430498 0.10872106 0.043280542 -0.16218524 0.113004036
0.023398675 -0.11577195 -0.32642332 0.081086785 0.03576801 0.07072411 0.0072724796 0.07604995
0.08960805 -0.35138372 -0.08857046 0.06164324 0.115491 -0.4060986 0.034947734 0.15012111
0.11419927 0.1026795 0.055145334 -0.16550997 0.006274022 -0.2121197 1.3657678e-05 -0.1546185
-0.027902255 -0.28181598 0.0055367984 -0.050750244 0.06901915 0.056113113 0.046675876 0.13538904
00000000: 5f0f 2abe 1af6 4abe 9c7a 88bd bc54 a93d
00000010: fbbb bcbd cadd 8ebe 27c3 a3be 32a0 29be
00000020: 5fc9 dcbd a46a c5bd ec75 1c3e 7deb e9bc
00000030: cb7d 50bd 5c65 09be 041c 32bd d0e3 883d
00000040: c314 63be dd3d 52be 1cb1 873d 10a7 363e
00000050: d966 46be dd73 0b3e c6b5 13be 4436 5dbd
00000060: 2348 84bd 664a 11bd 6bf2 48be 75e3 3b3d
00000070: 2896 8fbd 96f8 4a3d f751 55be e0e3 d4bb
00000080: 370f 7b3d b821 753d 893c 7fbc 52d5 473d
00000090: 534b 0dbe aac7 843d 5037 eb3d 8a42 40bd
000000a0: dcb9 783b 9ae2 24be 3963 c2bd 0637 6f3d
000000b0: f504 e83d 4943 103d 0fac acbd 8dc5 5fbe
000000c0: 196e da3d 2ccc 053e aa1f 0cbe 7bf1 c43d
000000d0: 0ec0 6fbd 1069 ebbd 99e3 94be 1f4e 0d3e
000000e0: 9628 43bb 995c d63d 6e77 7d3b 0934 b8bd
000000f0: 2f01 54bd 489d 013c 0c07 2a3e 70d7 bfbd
00000100: 714b 973e ba8d 8abe 5eb6 4abe 8523 83be
00000110: 0746 e5bd f1e6 ffbe d6fa 5f3e 9289 19be
00000120: a14f 7a3d 720a 793d ad2f 22be caee debd
00000130: 8dac 153c e8a3 053e 9afe b6be 98c5 ab3d
00000140: 025f cdbd 3221 adbe 635f 10be a7c5 ba3d
00000150: 5b1e c8be bc84 dcbd f645 123e e788 463c
00000160: 322f 383d de61 0a3e 8601 2d3e b82b d83d
00000170: 6f8f aabe ca86 b83d 5aea e53d 8d9b a1bd
00000180: 0bc8 643b fdab f6bd d732 d6bc 89c3 aabd
00000190: d7a8 87bd cd9a a3be 1319 a13c 0ebb 353e
000001a0: bd76 55bd 8929 eebd 9dc1 b2be 20bd aebd
000001b0: a9af acbd 319a 6cbe 763e 75bd 111f 55be
000001c0: 9329 b0bd be6e b8bb 998e 7abd a68d 7dbe
000001d0: 0754 453d b71b 293e 1731 8bbe 0276 fdbe
000001e0: 9936 803c 913a a6be 6b00 9dbd 7514 9abe
000001f0: 8b00 ce3c c8d5 163e f3a1 f9bd 3970 1f3e
00000200: 5b5c 1fbe afd6 043e 23dd a2be bae7 adbd
00000210: 5086 34bd 2d94 f8bc 061c a3be 83c8 d63d
00000220: a9ef 59bd d49e de3d e71d 023e 6c2d 003d
00000230: e662 e4bc ef61 163e 747e a0be a619 8ebd
00000240: 2b0d 2ebe 16d2 75be 34bf 7bbd ff32 49bc
00000250: ef00 38bd 97fe 753d 3e10 69bd ee3f 6ebd
00000260: 2dd5 7a3d 6d05 69bd 8668 19be 57d2 57bc
00000270: aca1 f83d 40fc 15be e2ad 28be 59e8 0dbd
00000280: d6d7 533d 410f 3f3d 2253 17bd e303 5ebd
00000290: 552e 18bd 93f5 d53d 5f06 efbd 38f1 50be
000002a0: d431 4d3c 1d37 d1bd 82ab 423e 5f03 113d
000002b0: e3f8 b9bc 413e 80be 2385 d53d be07 86be
000002c0: 910e 7bbe 6a29 e43c 9215 f5bd a295 68bd
000002d0: eb33 37bc df22 8bbd 170a a1be d3d0 073e
000002e0: 8810 ca3d fbce dd3d 5c8c 913c 91ad e23c
000002f0: 5ee7 cfba 47a7 f93d 3bdb 46be f69a 65be
00000300: b55f 023c b2a9 c5bd 1b1c 623e b5a5 6e3d
00000310: b95e 9b3d 8f28 77be efda 8dbe 490a e33d
00000320: 6f86 bcbd a199 36bd f1e7 82be c1d2 5c3c
00000330: 93dc f9bc 5008 553d ede2 babe 7ded 8e3d
00000340: 99c3 4d3d 0b51 34be 967e 3a3d 2239 acbe
00000350: 67d5 223e 63d6 583d 55a7 053e dc35 1fbe
00000360: e293 883d dfd0 6c3d d3c2 60bc 9acb 2dbd
00000370: 26a9 de3d f046 313d e313 26be a96e e73d
00000380: 94ae bf3c d819 edbd f520 a7be d410 a63d
00000390: 7a81 123d cdd7 903d fb4d ee3b 14c0 9b3d
000003a0: 6d84 b73d 91e8 b3be 6e64 b5bd 9f7d 7c3d
000003b0: 8c86 ec3d 28ec cfbe 5b25 0f3d 59b9 193e
000003c0: 4fe1 e93d a149 d23d 13e0 613d 727b 29be
000003d0: 5096 cd3b e835 59be 4823 6537 5054 1ebe
000003e0: 4593 e4bc 2f4a 90be 086e b53b 7ddf 4fbd
000003f0: ea59 8d3d ddd6 653d 342f 3f3d 6da3 0a3e

fc2.bias f4 [10]
0.040365532 -0.15158941 0.14102699 0.074997686 -0.078832775 -0.08995867 -0.03926603 -0.05521825
-0.12050875 -0.044709545
00000000: 5456 253d 413a 1bbe 6169 103e 6398 993d
00000010: 1473 a1bd 403c b8bd 6bd5 20bd 882c 62bd
00000020: 4bcd f6bd 5b21 37bd

exp_avg f4 [16, 1, 3, 3]
-0.0063942745 -0.0023721745 0.0005798305 -0.0028604127 -0.00044709677 -6.6707784e-05 0.0010394664 0.0025091772
0.003335344 -3.145174e-05 0.001602939 0.0031525448 -0.0009129561 0.00064948085 0.0043186164 -0.0005213722
0.002992305 0.005607556 -0.0006838825 -0.0042969487 0.00091645366 0.0016125055 -0.0008372479 0.004660611
0.0049474766 0.0043776985 0.008038323 -0.003436152 -0.010213801 -0.006444174 -0.0039110486 -0.013338352
-0.008652212 -0.002082657 -0.009251702 -0.0068239723 0.0028263812 -0.00020761882 0.001133271 0.004300547
-0.001561278 -0.0030841373 0.0022700797 -0.0011210516 0.0025638635 -0.0025457651 -0.006974269 -0.008615213
-0.0051056114 -0.0066944915 -0.005958526 -0.002118986 -0.0062777107 -0.009350799 -0.0049576536 0.0019512518
-0.001128298 -0.010454634 0.0010987963 -0.00092675624 -0.013192898 -0.007539146 -0.008309204 0.0008520757
0.00025185733 -0.0054953885 -0.0023603474 -0.00025369317 -0.0012091824 0.002681145 0.006264216 0.0020233986
-0.0018497296 -0.0048922296 -0.0022518027 0.0012524326 0.0009930176 0.003932427 0.0032797768 0.0016620749
0.0031794878 0.0028495786 -0.0063980045 -0.0014532747 0.001322193 -0.0011157873 0.004837341 0.0037636284
0.0064480365 0.0045613893 -0.0027330252 0.00038905937 -0.00016574722 -0.00065639615 0.006124638 0.004796415
-0.00039369235 0.0049994923 0.0025611306 -0.0019183484 0.002304702 0.0015245558 0.0041529983 0.005765561
0.005458023 0.00810666 0.0064750575 0.007741634 -0.0068336553 -0.0013856252 -0.0047547324 0.0008691079
0.0021977404 0.00024320169 0.0033626282 0.006207499 0.0004467918 -0.0055799442 0.003372072 0.0022624603
-0.006691173 0.001827866 0.0026142981 -0.006155159 0.0010153621 0.0010240464 -7.1747694e-05 0.0012733627
-0.0023404427 0.00031090062 0.0022445584 0.0016107403 0.002022388 0.0036176743 0.0024112854 -0.0071275
-0.008886204 -0.010418325 -0.0028146885 -0.007091707 -0.008105092 -0.0013430971 -0.0042503946 -0.0073116524
00000000: 1087 d1bb 7c76 1bbb c4ff 173a c375 3bbb
00000010: 5068 eab9 78e5 8bb8 b43e 883a 0271 243b
00000020: c995 5a3b 0ceb 03b8 b519 d23a ed9a 4e3b
00000030: 7253 6fba ec41 2a3a 2e83 8d3b b2ac 08ba
00000040: 8c1a 443b 97bf b73b 9446 33ba 6bcd 8cbb
00000050: 2a3e 703a b55a d33a c17a 5bba 0ab8 983b
00000060: 711e a23b cc72 8f3b 2cb3 033c 1031 61bb
00000070: c957 27bc a629 d3bb 4128 80bb 1a89 5abc
00000080: 02c2 0dbc 307d 08bb 7394 17bc a19b dfbb
00000090: cf3a 393b 41b4 59b9 448a 943a 9aeb 8c3b
000000a0: cca3 ccba 3d1f 4abb 9ec5 143b 40f0 92ba
000000b0: 7e06 283b dad6 26bb 6988 e4bb d326 0dbc
000000c0: f94c a7bb 775d dbbb bd3f c3bb b0de 0abb
000000d0: 41b5 cdbb 1834 19bc d073 a2bb 25c1 ff3a
000000e0: 66e3 93ba ea49 2bbc 7c05 903a 8ff1 72ba
000000f0: 0627 58bc f10a f7bb 5423 08bc d55d 5f3a
00000100: b80b 8439 a912 b4bb 0fb0 1abb 1f02 85b9
00000110: 6e7d 9eba 26b6 2f3b 0d44 cd3b ff9a 043b
00000120: a072 f2ba ff4e a0bb fb92 13bb aa28 a43a
00000130: 2428 823a 97db 803b 86f1 563b fbd9 d93a
00000140: f45e 503b ffbf 3a3b 5aa6 d1bb cf7b beba
00000150: 6f4d ad3a 9c3f 92ba 8f82 9e3b 35a7 763b
00000160: 0d4a d33b b577 953b 8e1c 33bb aafa cb39
00000170: 6ecc 2db9 0012 2cba 30b1 c83b 3f2b 9d3b
00000180: 7e68 ceb9 c8d2 a33b a4d8 273b 1771 fbba
00000190: 7c0a 173b 9bd3 c73a e015 883b 08ed bc3b
000001a0: 37d9 b23b ccd1 043c b82c d43b 88ad fd3b
000001b0: dbec dfbb de9d b5ba 96cd 9bbb d8d4 633a
000001c0: f707 103b f503 7f39 8a5f 5c3b 4768 cb3b
000001d0: 613f ea39 f7d7 b6bb fbfd 5c3b c945 143b
000001e0: a141 dbbb 0195 ef3a a554 2b3b 37b1 c9bb
000001f0: e615 853a 4c39 863a 4077 96b8 f6e6 a63a
00000200: 1d62 19bb 6000 a339 7119 133b 7a1f d33a
00000210: 0a8a 043b 8116 6d3b a806 1e3b ce8d e9bb
00000220: 7197 11bc 9fb1 2abc a376 38bb 8d61 e8bb
00000230: 38cb 04bc dc0a b0ba e546 8bbb 9696 efbb

exp_avg_sq f4 [16, 1, 3, 3]
0.0009321677 0.0007868488 0.00096165814 0.0006564151 0.00072124245 0.0007746564 0.00062548905 0.0007745643
0.00090552785 0.00035180483 0.00033520992 0.00029804418 0.000302311 0.00029323378 0.00027233924 0.00040370118
0.00036522493 0.00031972167 0.0011620882 0.0010849361 0.00086831173 0.001063607 0.0009073901 0.00080162054
0.000824689 0.00063324807 0.0005160765 0.0029545114 0.0031680001 0.003534053 0.0033640638 0.0037224884
0.004549804 0.0033743922 0.0035082118 0.004401165 0.0024856925 0.0029157975 0.0032712047 0.0027477061
0.0030866342 0.0033913204 0.0024227554 0.0023444134 0.0026219976 0.0019396041 0.0019512941 0.0017274712
0.0020095569 0.002048866 0.0020824294 0.0027967012 0.0026599902 0.0023498943 0.009611816 0.009229758
0.0072213025 0.007445665 0.007458976 0.0058884574 0.006548887 0.0062606703 0.004972899 0.0040249177
0.00403762 0.003803106 0.0033694494 0.003497721 0.0031851411 0.003041679 0.003544265 0.0031796657
0.0009703721 0.0010380022 0.0010528266 0.0009834924 0.0010128568 0.0009661008 0.0009011265 0.0008689927
0.00085043284 0.015835952 0.011439722 0.011697137 0.014400945 0.010384225 0.010467928 0.01668846
0.014592383 0.0119832475 0.0015908158 0.0019306203 0.0019240603 0.0015232834 0.0019185214 0.0020655727
0.0011755563 0.0017669101 0.0017392713 0.0028149355 0.0027336306 0.0028697269 0.0025151705 0.0025215945
0.0023304874 0.0023738754 0.0021026223 0.0020336234 0.0020060209 0.0021617871 0.002212141 0.0015589148
0.0014852164 0.0015184543 0.0015381916 0.0015365484 0.0015485979 0.0011511317 0.0010638377 0.0011580376
0.00093637913 0.00092443643 0.0010305915 0.0010425692 0.00095795194 0.0009788508 0.0008259227 0.00075670826
0.0012963616 0.00078379334 0.0007237051 0.0013239533 0.0008881776 0.00081672904 0.0013289945 0.0009076
0.0009754598 0.0009931551 0.00083515106 0.00085968483 0.00090004265 0.0006969541 0.0007962873 0.0007494026
00000000: b75c 743a 8744 4e3a c917 7c3a 4613 2c3a
00000010: c311 3d3a 5012 4b3a dcf7 233a 210c 4b3a
00000020: f260 6d3a 7272 b839 1dbf af39 d042 9c39
00000030: 7f7f 9e39 2cbd 9939 c1c8 8e39 dba7 d339
00000040: a97b bf39 51a0 a739 3651 983a 6a34 8e3a
00000050: 6a9f 633a bb68 8b3a ebdd 6d3a d823 523a
00000060: f12f 583a 8f00 263a 4f49 073a 7aa0 413b
00000070: 399e 4f3b 929b 673b a077 5c3b fef4 733b
00000080: 8616 953b e824 5d3b 07ea 653b a637 903b
00000090: 00e7 223b f716 3f3b b561 563b dc12 343b
000000a0: 2149 4a3b ea40 5e3b 17c7 1e3b bba4 193b
000000b0: d2d5 2b3b 503a fe3a 91c2 ff3a 516c e23a
000000c0: c5b2 033b 4446 063b 5e79 083b dc48 373b
000000d0: 3b53 2e3b af00 1a3b e17a 1d3c 6938 173c
000000e0: ada0 ec3b c4fa f33b 6d6a f43b f6f3 c03b
000000f0: 0c98 d63b 4f26 cd3b b3f3 a23b 75e3 833b
00000100: 034e 843b 883d 793b fbd1 5c3b 053a 653b
00000110: cdbd 503b e856 473b e646 683b f061 503b
00000120: 9260 7e3a 930d 883a 00ff 893a 87e8 803a
00000130: d6c1 843a ed41 7d3a 9339 6c3a 1dcd 633a
00000140: 95ef 5e3a 66ba 813c ac6d 3b3c 59a5 3f3c
00000150: f1f1 6b3c 9922 2a3c ac81 2b3c 3db6 883c
00000160: e414 6f3c 6255 443c ec82 d03a de0c fd3a
00000170: c030 fc3a e9a8 c73a e576 fb3a 8f5e 073b
00000180: 2015 9a3a aa97 e73a 43f8 e33a c87a 383b
00000190: b626 333b 0712 3c3b 8fd5 243b 5641 253b
000001a0: 17bb 183b 0593 1b3b 26cc 093b 8a46 053b
000001b0: 7277 033b c5ac 0d3b 91f9 103b 8054 cc3a
000001c0: 98ab c23a df06 c73a 259d c93a 0266 c93a
000001d0: 53fa ca3a 92e1 963a 7870 8b3a 4bc9 973a
000001e0: 5777 753a e155 723a ea14 873a d1a6 883a
000001f0: 111f 7b3a c84c 803a bc82 583a d55d 463a
00000200: adea a93a 7b77 4d3a 07b7 3d3a 8088 ad3a
00000210: 97d4 683a c219 563a a831 ae3a 01ec 6d3a
00000220: 00b6 7f3a c12c 823a 0aee 5a3a 795c 613a
00000230: d7f0 6b3a ccb3 363a f0bd 503a 8f73 443a

exp_avg f4 [16]
-0.0015149425 0.0019895777 -0.0071565034 0.004446892 0.013260718 -0.009844651 0.0017180281 0.003036122
0.00010272489 0.018165493 -0.00068057544 0.0031371315 -0.0015252681 -0.0013431547 0.0029904079 -0.0032416915
00000000: 0991 c6ba 9363 023b 1a81 eabb 3cb7 913b
00000010: 7c43 593c 764b 21bc 752f e13a adf9 463b
00000020: 016e d738 cdcf 943c a568 32ba 5598 4d3b
00000030: 81eb c7ba cb0c b0ba b8fa 433b 8f72 54bb

exp_avg_sq f4 [16]
0.0008241946 0.0005142224 0.00084513676 0.0020977925 0.0017682344 0.0016498532 0.004763497 0.0028036153
0.0005004694 0.008812699 0.0014869303 0.0014419494 0.0025643995 0.0007969579 0.0014673306 0.00078651495
00000000: c30e 583a e2cc 063a 2b8c 5d3a 1e7b 093b
00000010: 1ac4 e73a e33f d83a 1c17 9c3b dcbc 373b
00000020: ef31 033a 2363 103c 1ae5 c23a cbff bc3a
00000030: 7c0f 283b f0ea 503a 7253 c03a 202e 4e3a

exp_avg f4 [32, 16, 3, 3]
0.0004335137 0.0004614523 -0.00020589332 0.00086185057 0.0009524417 -0.00024863333 0.001492717 0.0007023839
0.00017021653 0.0009039348 0.001770958 0.0032375443 0.000860798 0.0025550136 0.002661614 0.0014336817
0.001993121 0.0027463702 0.0023410798 0.0010928126 0.00015061343 0.0026430576 0.0018150358 0.0010697278
0.0027993417 0.0020769848 0.00073258625 0.0055788667 0.0030129366 -0.0010950323 0.00583267 0.0028542941
-0.000291482 0.004804184 0.0033682585 0.00093509647 0.002751167 0.0011267056 -0.00013786851 0.0021999995
0.00033816014 -0.00040955236 0.0029157726 0.0022029725 0.0016356221 0.0019705573 0.0020141897 0.0016919823
0.00012039429 0.0022110026 0.001404815 0.0020322194 0.003983149 0.0027318364 0.0015111109 0.0012515084
0.002069614 0.000969495 0.0016512695 0.0016645757 0.00240301 0.0022736697 0.0011093782 0.0020035524
0.001357785 0.002317541 0.003012649 0.0014865724 0.0014075974 0.002977281 0.0014908139 0.0017999739
0.0012225052 0.00080509187 0.0014063808 -0.0007541704 0.002018084 0.000947982 0.0011031218 0.0032516904
0.00065607624 0.0025679886 0.0008380281 0.00036301336 0.0029962151 -0.00020770359 0.00026506718 0.0026898421
8.893791e-05 0.0013662926 0.0005083866 -0.00037434188 -0.0025047397 -0.00036244898 -0.0008038495 -0.0014500853
3.7444508e-05 -7.2060044e-05 -0.0013046389 0.0013721787 0.00019068582 0.001221352 0.00032811804 0.0016844443
0.0013968316 0.0009847521 0.0014582545 4.3811604e-05 0.00026021147 0.001258224 0.00090530515 0.0007179784
0.002101189 0.0022268535 0.0010861275 0.0010244353 0.0006287803 0.000913355 0.00021815806 0.000662499
0.0009602496 0.00085666694 0.0012642861 0.001368561 0.0017180208 0.000655428 0.0006924319 0.0011960733
0.0018293791 0.00043009213 0.0022461882 0.0014552056 0.0015175284 0.0024072311 0.001277912 0.0011468612
0.0016455938 0.0007277058 0.0009986671 0.0016581614 0.0006414733 0.0016313365 0.0018281804 0.0011340608
0.0006609175 0.0003151921 0.0005371562 0.00033634232 0.0010797305 0.00030777525 0.00043975218 0.0003189616
-7.794605e-05 0.00085002935 0.0015901083 0.0017747398 -6.682996e-06 0.0014888556 0.0015531714 -0.00018304998
0.00048303846 0.0007699326 0.0009169942 0.0008240736 0.00062287325 0.0012551579 0.00056051183 0.00034409252
0.00064847607 0.00014983951 0.0004505284 0.0026171051 0.00043661584 0.00077674736 0.0034954445 0.0002628469
0.00095125695 0.0024330562 0.0010647376 0.0011189512 0.0007673966 0.00091636076 -1.4458353e-05 0.0009497361
0.0011847178 0.00041393403 0.0012591236 0.0016800485 0.0010099843 0.0012359049 0.0015043563 0.0011805883
0.0009078277 0.0019904359 0.0015811733 0.0015476705 0.0018743975 0.0010654543 -6.0198643e-05 0.0002556806
0.00024252482 -0.00046542482 0.0006654866 0.00015920347 -0.0011104752 0.00023085315 -0.0004602829 -0.00011487327
0.00054039026 -4.7683574e-05 -0.0003575321 0.0009807459 0.00034334214 -0.00072601065 0.0008494344 -0.00019254992
-0.000204822 0.00014410545 0.00067432335 -0.0008628792 0.00030850878 0.0009587673 -0.0002305671 0.00033909312
3.1170388e-05 -0.00043065898 0.00025065025 -0.00041020536 -0.00036480534 0.00058840436 -0.00026825382 -0.0003071017
0.0010190746 -0.0004015466 -9.113028e-05 -0.0009798697 -0.00078868837 0.00040238848 -0.0012851733 -0.0008041299
0.0015905185 0.00047082658 -0.000435474 0.0005328214 0.00026262103 0.0008685012 0.0008668128 0.0008039126
0.00073302945 -0.00015154603 0.00058642146 0.00024548857 0.00041275722 0.0011392006 0.00090235565 0.00051657367
00000000: 3949 e339 14ef f139 11e5 57b9 d0ed 613a
00000010: 48ad 793a 005b 82b9 45a7 c33a 3020 383a
00000020: 277c 3239 0af6 6c3a 7d1f e83a fb2c 543b
00000030: 2da7 613a 0472 273b 796e 2e3b 60ea bb3a
00000040: 069f 023b 72fc 333b cd6c 193b b53c 8f3a
00000050: fced 1d39 2637 2d3b 7fe6 ed3a 1c36 8c3a
00000060: 2975 373b 061e 083b 080b 403a edce b63b
00000070: b074 453b 3087 8fba fb1f bf3b 1c0f 3b3b
00000080: 0dd2 98b9 6b6c 9d3b 00be 5c3b 4321 753a
00000090: ec4c 343b f7ad 933a cc90 10b9 de2d 103b
000000a0: 164b b139 30b9 d6b9 8c16 3f3b bf5f 103b
000000b0: 5f62 d63a 7724 013b 7f00 043b 81c5 dd3a
000000c0: 317c fc38 78e6 103b c521 b83a fc2e 053b
000000d0: 1385 823b 9c08 333b 7810 c63a a709 a43a
000000e0: 5ca2 073b b525 7e3a 696f d83a e42d da3a
000000f0: d17b 1d3b d901 153b 8e68 913a 084e 033b
00000100: b4f7 b13a e3e1 173b dd6f 453b 18d9 c23a
00000110: 227f b83a 7d1e 433b 6a67 c33a 1aed eb3a
00000120: 783c a03a cd0c 533a 4f56 b83a 85b3 45ba
00000130: d541 043b ff81 783a a096 903a 501a 553b
00000140: 88fc 2b3a b34b 283b 1daf 5b3a d452 be39
00000150: 265c 443b 02cb 59b9 b7f8 8a39 1048 303b
00000160: 2d84 ba38 2c15 b33a 3f45 053a 5143 c4b9
00000170: 8f26 24bb 1407 beb9 6db9 52ba ca10 beba
00000180: bc0d 1d38 f11e 97b8 6b00 abba adda b33a
00000190: d6f2 4739 c615 a03a 4207 ac39 92c8 dc3a
000001a0: e415 b73a cc12 813a e722 bf3a 5ac2 3738
000001b0: fe6c 8839 feea a43a 0052 6d3a b736 3c3a
000001c0: 1ab4 093b 67f0 113b 645c 8e3a 5846 863a
000001d0: bbd4 243a 376e 6f3a 5cc1 6439 8eab 2d3a
000001e0: 43b9 7b3a f291 603a 67b6 a53a 4961 b33a
000001f0: 362f e13a 07d1 2b3a 5184 353a 8fc5 9c3a
00000200: c7c7 ef3a fd7d e139 c934 133b 99bc be3a
00000210: cee7 c63a a3c2 1d3b 9c7f a73a 4752 963a
00000220: f7b0 d73a 82c3 3e3a b5e5 823a aa56 d93a
00000230: 8b28 283a 92d2 d53a 8e9f ef3a c4a4 943a
00000240: 6c41 2d3a 5e40 a539 f1cf 0c3a 1a57 b039
00000250: be85 8d3a e55c a139 8a8e e639 4d3a a739
00000260: f876 a3b8 81d4 5e3a 2e6b d03a 639e e83a
00000270: 803e e0b6 b425 c33a c993 cb3a 1bf1 3fb9
00000280: 5340 fd39 4dd5 493a 7062 703a a506 583a
00000290: 5148 233a 1c84 a43a 50ef 123a 5167 b439
000002a0: 7efe 293a 3d1e 1d39 e634 ec39 bd83 2b3b
000002b0: 96e9 e439 a29e 4b3a d413 653b b7ce 8939
000002c0: c65d 793a e973 1f3b aa8e 8b3a c6a9 923a
000002d0: 1d2b 493a ee37 703a 2792 72b7 b6f7 783a
000002e0: 8848 9b3a 4905 d939 2d09 a53a 1335 dc3a
000002f0: 7361 843a 16fe a13a d22d c53a f8bd 9a3a
00000300: 49fb 6d3a f971 023b 5f3f cf3a 34db ca3a
00000310: 58ae f53a b7a6 8b3a cd7d 7cb8 df0c 8639
00000320: 434e 7e39 4304 f4b9 0d74 2e3a dbef 2639
00000330: 5d8d 91ba 2c11 7239 2052 f1b9 1ee8 f0b8
00000340: faa8 0d3a d9ff 47b8 2573 bbb9 5f8c 803a
00000350: 9a02 b439 c051 3eba 94ac 5e3a 3ae7 49b9
00000360: 7dc5 56b9 031b 1739 13c5 303a d832 62ba
00000370: 59bf a139 c955 7b3a 62c4 71b9 4fc8 b139
00000380: f3bc 0238 12ca e1b9 b569 8339 d510 d7b9
00000390: 5843 bfb9 263f 1a3a 6ba4 8cb9 7e02 a1b9
000003a0: 7892 853a ac86 d2b9 321d bfb8 f96e 80ba
000003b0: fbbf 4eba abf7 d239 4373 a8ba 3ecc 52ba
000003c0: f278 d03a 46d9 f639 5550 e4b9 0aad 0b3a
000003d0: 66b0 8939 21ac 633a d33a 633a a9bd 523a
000003e0: c628 403a 54e8 1eb9 14ba 193a ebb4 8039
000003f0: 5667 d839 3b51 953a 108c 6c3a ac6a 073a
